<?xml version="1.0" ?>
<net name="deblurgan-v2" version="10">
	<layers>
		<layer id="0" name="blur_image" type="Parameter" version="opset1">
			<data shape="1, 3, 736, 1312" element_type="f32"/>
			<output>
				<port id="0" precision="FP32" names="blur_image">
					<dim>1</dim>
					<dim>3</dim>
					<dim>736</dim>
					<dim>1312</dim>
				</port>
			</output>
		</layer>
		<layer id="1" name="1934" type="Const" version="opset1">
			<data element_type="f32" shape="1, 160, 1, 1" offset="0" size="640"/>
			<output>
				<port id="0" precision="FP32" names="1934">
					<dim>1</dim>
					<dim>160</dim>
					<dim>1</dim>
					<dim>1</dim>
				</port>
			</output>
		</layer>
		<layer id="2" name="1929" type="Const" version="opset1">
			<data element_type="f32" shape="1, 576, 1, 1" offset="640" size="2304"/>
			<output>
				<port id="0" precision="FP32" names="1929">
					<dim>1</dim>
					<dim>576</dim>
					<dim>1</dim>
					<dim>1</dim>
				</port>
			</output>
		</layer>
		<layer id="3" name="1924" type="Const" version="opset1">
			<data element_type="f32" shape="1, 576, 1, 1" offset="2944" size="2304"/>
			<output>
				<port id="0" precision="FP32" names="1924">
					<dim>1</dim>
					<dim>576</dim>
					<dim>1</dim>
					<dim>1</dim>
				</port>
			</output>
		</layer>
		<layer id="4" name="1889" type="Const" version="opset1">
			<data element_type="f32" shape="1, 96, 1, 1" offset="5248" size="384"/>
			<output>
				<port id="0" precision="FP32" names="1889">
					<dim>1</dim>
					<dim>96</dim>
					<dim>1</dim>
					<dim>1</dim>
				</port>
			</output>
		</layer>
		<layer id="5" name="1884" type="Const" version="opset1">
			<data element_type="f32" shape="1, 384, 1, 1" offset="5632" size="1536"/>
			<output>
				<port id="0" precision="FP32" names="1884">
					<dim>1</dim>
					<dim>384</dim>
					<dim>1</dim>
					<dim>1</dim>
				</port>
			</output>
		</layer>
		<layer id="6" name="1879" type="Const" version="opset1">
			<data element_type="f32" shape="1, 384, 1, 1" offset="7168" size="1536"/>
			<output>
				<port id="0" precision="FP32" names="1879">
					<dim>1</dim>
					<dim>384</dim>
					<dim>1</dim>
					<dim>1</dim>
				</port>
			</output>
		</layer>
		<layer id="7" name="1829" type="Const" version="opset1">
			<data element_type="f32" shape="1, 64, 1, 1" offset="8704" size="256"/>
			<output>
				<port id="0" precision="FP32" names="1829">
					<dim>1</dim>
					<dim>64</dim>
					<dim>1</dim>
					<dim>1</dim>
				</port>
			</output>
		</layer>
		<layer id="8" name="1824" type="Const" version="opset1">
			<data element_type="f32" shape="1, 192, 1, 1" offset="8960" size="768"/>
			<output>
				<port id="0" precision="FP32" names="1824">
					<dim>1</dim>
					<dim>192</dim>
					<dim>1</dim>
					<dim>1</dim>
				</port>
			</output>
		</layer>
		<layer id="9" name="1819" type="Const" version="opset1">
			<data element_type="f32" shape="1, 192, 1, 1" offset="9728" size="768"/>
			<output>
				<port id="0" precision="FP32" names="1819">
					<dim>1</dim>
					<dim>192</dim>
					<dim>1</dim>
					<dim>1</dim>
				</port>
			</output>
		</layer>
		<layer id="10" name="1784" type="Const" version="opset1">
			<data element_type="f32" shape="1, 32, 1, 1" offset="10496" size="128"/>
			<output>
				<port id="0" precision="FP32" names="1784">
					<dim>1</dim>
					<dim>32</dim>
					<dim>1</dim>
					<dim>1</dim>
				</port>
			</output>
		</layer>
		<layer id="11" name="1779" type="Const" version="opset1">
			<data element_type="f32" shape="1, 144, 1, 1" offset="10624" size="576"/>
			<output>
				<port id="0" precision="FP32" names="1779">
					<dim>1</dim>
					<dim>144</dim>
					<dim>1</dim>
					<dim>1</dim>
				</port>
			</output>
		</layer>
		<layer id="12" name="1774" type="Const" version="opset1">
			<data element_type="f32" shape="1, 144, 1, 1" offset="11200" size="576"/>
			<output>
				<port id="0" precision="FP32" names="1774">
					<dim>1</dim>
					<dim>144</dim>
					<dim>1</dim>
					<dim>1</dim>
				</port>
			</output>
		</layer>
		<layer id="13" name="1754" type="Const" version="opset1">
			<data element_type="f32" shape="1, 24, 1, 1" offset="11776" size="96"/>
			<output>
				<port id="0" precision="FP32" names="1754">
					<dim>1</dim>
					<dim>24</dim>
					<dim>1</dim>
					<dim>1</dim>
				</port>
			</output>
		</layer>
		<layer id="14" name="1749" type="Const" version="opset1">
			<data element_type="f32" shape="1, 96, 1, 1" offset="11872" size="384"/>
			<output>
				<port id="0" precision="FP32" names="1749">
					<dim>1</dim>
					<dim>96</dim>
					<dim>1</dim>
					<dim>1</dim>
				</port>
			</output>
		</layer>
		<layer id="15" name="1744" type="Const" version="opset1">
			<data element_type="f32" shape="1, 96, 1, 1" offset="12256" size="384"/>
			<output>
				<port id="0" precision="FP32" names="1744">
					<dim>1</dim>
					<dim>96</dim>
					<dim>1</dim>
					<dim>1</dim>
				</port>
			</output>
		</layer>
		<layer id="16" name="1739" type="Const" version="opset1">
			<data element_type="f32" shape="1, 16, 1, 1" offset="12640" size="64"/>
			<output>
				<port id="0" precision="FP32" names="1739">
					<dim>1</dim>
					<dim>16</dim>
					<dim>1</dim>
					<dim>1</dim>
				</port>
			</output>
		</layer>
		<layer id="17" name="1734" type="Const" version="opset1">
			<data element_type="f32" shape="1, 32, 1, 1" offset="12704" size="128"/>
			<output>
				<port id="0" precision="FP32" names="1734">
					<dim>1</dim>
					<dim>32</dim>
					<dim>1</dim>
					<dim>1</dim>
				</port>
			</output>
		</layer>
		<layer id="18" name="1729" type="Const" version="opset1">
			<data element_type="f32" shape="1, 32, 1, 1" offset="12832" size="128"/>
			<output>
				<port id="0" precision="FP32" names="1729">
					<dim>1</dim>
					<dim>32</dim>
					<dim>1</dim>
					<dim>1</dim>
				</port>
			</output>
		</layer>
		<layer id="19" name="blur_image/reverse_input_channels6240262404/Split_input_port_1/value6240869602" type="Const" version="opset1">
			<data element_type="i64" shape="" offset="12960" size="8"/>
			<output>
				<port id="0" precision="I64"/>
			</output>
		</layer>
		<layer id="20" name="blur_image/reverse_input_channels6240262404/Split" type="Split" version="opset1">
			<data num_splits="3"/>
			<input>
				<port id="0" precision="FP32">
					<dim>1</dim>
					<dim>3</dim>
					<dim>736</dim>
					<dim>1312</dim>
				</port>
				<port id="1" precision="I64"/>
			</input>
			<output>
				<port id="2" precision="FP32">
					<dim>1</dim>
					<dim>1</dim>
					<dim>736</dim>
					<dim>1312</dim>
				</port>
				<port id="3" precision="FP32">
					<dim>1</dim>
					<dim>1</dim>
					<dim>736</dim>
					<dim>1312</dim>
				</port>
				<port id="4" precision="FP32">
					<dim>1</dim>
					<dim>1</dim>
					<dim>736</dim>
					<dim>1312</dim>
				</port>
			</output>
		</layer>
		<layer id="21" name="blur_image/reverse_input_channels6240262404/Concat" type="Concat" version="opset1">
			<data axis="1"/>
			<input>
				<port id="0" precision="FP32">
					<dim>1</dim>
					<dim>1</dim>
					<dim>736</dim>
					<dim>1312</dim>
				</port>
				<port id="1" precision="FP32">
					<dim>1</dim>
					<dim>1</dim>
					<dim>736</dim>
					<dim>1312</dim>
				</port>
				<port id="2" precision="FP32">
					<dim>1</dim>
					<dim>1</dim>
					<dim>736</dim>
					<dim>1312</dim>
				</port>
			</input>
			<output>
				<port id="3" precision="FP32">
					<dim>1</dim>
					<dim>3</dim>
					<dim>736</dim>
					<dim>1312</dim>
				</port>
			</output>
		</layer>
		<layer id="22" name="data_mul_2676370796" type="Const" version="opset1">
			<data element_type="f32" shape="1, 1, 1, 1" offset="12968" size="4"/>
			<output>
				<port id="0" precision="FP32">
					<dim>1</dim>
					<dim>1</dim>
					<dim>1</dim>
					<dim>1</dim>
				</port>
			</output>
		</layer>
		<layer id="23" name="blur_image/scale/Fused_Mul_" type="Multiply" version="opset1">
			<data auto_broadcast="numpy"/>
			<input>
				<port id="0" precision="FP32">
					<dim>1</dim>
					<dim>3</dim>
					<dim>736</dim>
					<dim>1312</dim>
				</port>
				<port id="1" precision="FP32">
					<dim>1</dim>
					<dim>1</dim>
					<dim>1</dim>
					<dim>1</dim>
				</port>
			</input>
			<output>
				<port id="2" precision="FP32">
					<dim>1</dim>
					<dim>3</dim>
					<dim>736</dim>
					<dim>1312</dim>
				</port>
			</output>
		</layer>
		<layer id="24" name="data_add_2676571078" type="Const" version="opset1">
			<data element_type="f32" shape="1, 1, 1, 1" offset="12972" size="4"/>
			<output>
				<port id="0" precision="FP32">
					<dim>1</dim>
					<dim>1</dim>
					<dim>1</dim>
					<dim>1</dim>
				</port>
			</output>
		</layer>
		<layer id="25" name="blur_image/mean/Fused_Add_" type="Add" version="opset1">
			<data auto_broadcast="numpy"/>
			<input>
				<port id="0" precision="FP32">
					<dim>1</dim>
					<dim>3</dim>
					<dim>736</dim>
					<dim>1312</dim>
				</port>
				<port id="1" precision="FP32">
					<dim>1</dim>
					<dim>1</dim>
					<dim>1</dim>
					<dim>1</dim>
				</port>
			</input>
			<output>
				<port id="2" precision="FP32">
					<dim>1</dim>
					<dim>3</dim>
					<dim>736</dim>
					<dim>1312</dim>
				</port>
			</output>
		</layer>
		<layer id="26" name="impl.module.fpn.features.0.0.weight" type="Const" version="opset1">
			<data element_type="f32" shape="32, 3, 3, 3" offset="12976" size="3456"/>
			<output>
				<port id="0" precision="FP32" names="impl.module.fpn.features.0.0.weight">
					<dim>32</dim>
					<dim>3</dim>
					<dim>3</dim>
					<dim>3</dim>
				</port>
			</output>
		</layer>
		<layer id="27" name="Conv_0" type="Convolution" version="opset1">
			<data strides="2, 2" dilations="1, 1" pads_begin="1, 1" pads_end="1, 1" auto_pad="explicit"/>
			<input>
				<port id="0" precision="FP32">
					<dim>1</dim>
					<dim>3</dim>
					<dim>736</dim>
					<dim>1312</dim>
				</port>
				<port id="1" precision="FP32">
					<dim>32</dim>
					<dim>3</dim>
					<dim>3</dim>
					<dim>3</dim>
				</port>
			</input>
			<output>
				<port id="2" precision="FP32" names="197">
					<dim>1</dim>
					<dim>32</dim>
					<dim>368</dim>
					<dim>656</dim>
				</port>
			</output>
		</layer>
		<layer id="28" name="ReduceMean_1/axis" type="Const" version="opset1">
			<data element_type="i64" shape="3" offset="16432" size="24"/>
			<output>
				<port id="0" precision="I64">
					<dim>3</dim>
				</port>
			</output>
		</layer>
		<layer id="29" name="ReduceMean_1" type="ReduceMean" version="opset1">
			<data keep_dims="false"/>
			<input>
				<port id="0" precision="FP32">
					<dim>1</dim>
					<dim>32</dim>
					<dim>368</dim>
					<dim>656</dim>
				</port>
				<port id="1" precision="I64">
					<dim>3</dim>
				</port>
			</input>
			<output>
				<port id="2" precision="FP32" names="198">
					<dim>32</dim>
				</port>
			</output>
		</layer>
		<layer id="30" name="Unsqueeze_17/Dims" type="Const" version="opset1">
			<data element_type="i64" shape="1" offset="12960" size="8"/>
			<output>
				<port id="0" precision="I64">
					<dim>1</dim>
				</port>
			</output>
		</layer>
		<layer id="31" name="Unsqueeze_17/Unsqueeze" type="Unsqueeze" version="opset1">
			<input>
				<port id="0" precision="FP32">
					<dim>32</dim>
				</port>
				<port id="1" precision="I64">
					<dim>1</dim>
				</port>
			</input>
			<output>
				<port id="2" precision="FP32" names="218">
					<dim>32</dim>
					<dim>1</dim>
				</port>
			</output>
		</layer>
		<layer id="32" name="Unsqueeze_18/Dims" type="Const" version="opset1">
			<data element_type="i64" shape="1" offset="16456" size="8"/>
			<output>
				<port id="0" precision="I64">
					<dim>1</dim>
				</port>
			</output>
		</layer>
		<layer id="33" name="Unsqueeze_18/Unsqueeze" type="Unsqueeze" version="opset1">
			<input>
				<port id="0" precision="FP32">
					<dim>32</dim>
					<dim>1</dim>
				</port>
				<port id="1" precision="I64">
					<dim>1</dim>
				</port>
			</input>
			<output>
				<port id="2" precision="FP32">
					<dim>32</dim>
					<dim>1</dim>
					<dim>1</dim>
				</port>
			</output>
		</layer>
		<layer id="34" name="Sub_19/neg_/Negate" type="Negative" version="opset1">
			<input>
				<port id="0" precision="FP32">
					<dim>32</dim>
					<dim>1</dim>
					<dim>1</dim>
				</port>
			</input>
			<output>
				<port id="1" precision="FP32">
					<dim>32</dim>
					<dim>1</dim>
					<dim>1</dim>
				</port>
			</output>
		</layer>
		<layer id="35" name="Sub_19/neg_/EltwiseUnsqueeze_input_port_1/value2916670574" type="Const" version="opset1">
			<data element_type="i64" shape="1" offset="16464" size="8"/>
			<output>
				<port id="0" precision="I64">
					<dim>1</dim>
				</port>
			</output>
		</layer>
		<layer id="36" name="Sub_19/neg_/EltwiseUnsqueeze" type="Unsqueeze" version="opset1">
			<input>
				<port id="0" precision="FP32">
					<dim>32</dim>
					<dim>1</dim>
					<dim>1</dim>
				</port>
				<port id="1" precision="I64">
					<dim>1</dim>
				</port>
			</input>
			<output>
				<port id="2" precision="FP32" names="219">
					<dim>1</dim>
					<dim>32</dim>
					<dim>1</dim>
					<dim>1</dim>
				</port>
			</output>
		</layer>
		<layer id="37" name="Sub_19" type="Add" version="opset1">
			<data auto_broadcast="numpy"/>
			<input>
				<port id="0" precision="FP32">
					<dim>1</dim>
					<dim>32</dim>
					<dim>368</dim>
					<dim>656</dim>
				</port>
				<port id="1" precision="FP32">
					<dim>1</dim>
					<dim>32</dim>
					<dim>1</dim>
					<dim>1</dim>
				</port>
			</input>
			<output>
				<port id="2" precision="FP32" names="220">
					<dim>1</dim>
					<dim>32</dim>
					<dim>368</dim>
					<dim>656</dim>
				</port>
			</output>
		</layer>
		<layer id="38" name="Mul_20" type="Multiply" version="opset1">
			<data auto_broadcast="numpy"/>
			<input>
				<port id="0" precision="FP32">
					<dim>1</dim>
					<dim>32</dim>
					<dim>1</dim>
					<dim>1</dim>
				</port>
				<port id="1" precision="FP32">
					<dim>1</dim>
					<dim>32</dim>
					<dim>368</dim>
					<dim>656</dim>
				</port>
			</input>
			<output>
				<port id="2" precision="FP32" names="221">
					<dim>1</dim>
					<dim>32</dim>
					<dim>368</dim>
					<dim>656</dim>
				</port>
			</output>
		</layer>
		<layer id="39" name="ReduceMean_2/axis" type="Const" version="opset1">
			<data element_type="i64" shape="3" offset="16432" size="24"/>
			<output>
				<port id="0" precision="I64">
					<dim>3</dim>
				</port>
			</output>
		</layer>
		<layer id="40" name="ReduceMean_2" type="ReduceMean" version="opset1">
			<data keep_dims="true"/>
			<input>
				<port id="0" precision="FP32">
					<dim>1</dim>
					<dim>32</dim>
					<dim>368</dim>
					<dim>656</dim>
				</port>
				<port id="1" precision="I64">
					<dim>3</dim>
				</port>
			</input>
			<output>
				<port id="2" precision="FP32">
					<dim>1</dim>
					<dim>32</dim>
					<dim>1</dim>
					<dim>1</dim>
				</port>
			</output>
		</layer>
		<layer id="41" name="Sub_3/sub" type="Subtract" version="opset1">
			<data auto_broadcast="numpy"/>
			<input>
				<port id="0" precision="FP32">
					<dim>1</dim>
					<dim>32</dim>
					<dim>368</dim>
					<dim>656</dim>
				</port>
				<port id="1" precision="FP32">
					<dim>1</dim>
					<dim>32</dim>
					<dim>1</dim>
					<dim>1</dim>
				</port>
			</input>
			<output>
				<port id="2" precision="FP32" names="200">
					<dim>1</dim>
					<dim>32</dim>
					<dim>368</dim>
					<dim>656</dim>
				</port>
			</output>
		</layer>
		<layer id="42" name="Mul_4" type="Multiply" version="opset1">
			<data auto_broadcast="numpy"/>
			<input>
				<port id="0" precision="FP32">
					<dim>1</dim>
					<dim>32</dim>
					<dim>368</dim>
					<dim>656</dim>
				</port>
				<port id="1" precision="FP32">
					<dim>1</dim>
					<dim>32</dim>
					<dim>368</dim>
					<dim>656</dim>
				</port>
			</input>
			<output>
				<port id="2" precision="FP32" names="201">
					<dim>1</dim>
					<dim>32</dim>
					<dim>368</dim>
					<dim>656</dim>
				</port>
			</output>
		</layer>
		<layer id="43" name="ReduceMean_5/axis" type="Const" version="opset1">
			<data element_type="i64" shape="3" offset="16432" size="24"/>
			<output>
				<port id="0" precision="I64">
					<dim>3</dim>
				</port>
			</output>
		</layer>
		<layer id="44" name="ReduceMean_5" type="ReduceMean" version="opset1">
			<data keep_dims="false"/>
			<input>
				<port id="0" precision="FP32">
					<dim>1</dim>
					<dim>32</dim>
					<dim>368</dim>
					<dim>656</dim>
				</port>
				<port id="1" precision="I64">
					<dim>3</dim>
				</port>
			</input>
			<output>
				<port id="2" precision="FP32">
					<dim>32</dim>
				</port>
			</output>
		</layer>
		<layer id="45" name="1557" type="Const" version="opset1">
			<data element_type="f32" shape="1" offset="16472" size="4"/>
			<output>
				<port id="0" precision="FP32">
					<dim>1</dim>
				</port>
			</output>
		</layer>
		<layer id="46" name="Sqrt_6/pow_" type="Power" version="opset1">
			<data auto_broadcast="numpy"/>
			<input>
				<port id="0" precision="FP32">
					<dim>32</dim>
				</port>
				<port id="1" precision="FP32">
					<dim>1</dim>
				</port>
			</input>
			<output>
				<port id="2" precision="FP32" names="203">
					<dim>32</dim>
				</port>
			</output>
		</layer>
		<layer id="47" name="1727" type="Const" version="opset1">
			<data element_type="f32" shape="1" offset="16476" size="4"/>
			<output>
				<port id="0" precision="FP32" names="1727">
					<dim>1</dim>
				</port>
			</output>
		</layer>
		<layer id="48" name="Pow_7" type="Power" version="opset1">
			<data auto_broadcast="numpy"/>
			<input>
				<port id="0" precision="FP32">
					<dim>32</dim>
				</port>
				<port id="1" precision="FP32">
					<dim>1</dim>
				</port>
			</input>
			<output>
				<port id="2" precision="FP32" names="206">
					<dim>32</dim>
				</port>
			</output>
		</layer>
		<layer id="49" name="Unsqueeze_8/Dims" type="Const" version="opset1">
			<data element_type="i64" shape="1" offset="12960" size="8"/>
			<output>
				<port id="0" precision="I64">
					<dim>1</dim>
				</port>
			</output>
		</layer>
		<layer id="50" name="Unsqueeze_8/Unsqueeze" type="Unsqueeze" version="opset1">
			<input>
				<port id="0" precision="FP32">
					<dim>32</dim>
				</port>
				<port id="1" precision="I64">
					<dim>1</dim>
				</port>
			</input>
			<output>
				<port id="2" precision="FP32" names="207">
					<dim>32</dim>
					<dim>1</dim>
				</port>
			</output>
		</layer>
		<layer id="51" name="Unsqueeze_9/Dims" type="Const" version="opset1">
			<data element_type="i64" shape="1" offset="16456" size="8"/>
			<output>
				<port id="0" precision="I64">
					<dim>1</dim>
				</port>
			</output>
		</layer>
		<layer id="52" name="Unsqueeze_9/Unsqueeze" type="Unsqueeze" version="opset1">
			<input>
				<port id="0" precision="FP32">
					<dim>32</dim>
					<dim>1</dim>
				</port>
				<port id="1" precision="I64">
					<dim>1</dim>
				</port>
			</input>
			<output>
				<port id="2" precision="FP32" names="208">
					<dim>32</dim>
					<dim>1</dim>
					<dim>1</dim>
				</port>
			</output>
		</layer>
		<layer id="53" name="Constant_10" type="Const" version="opset1">
			<data element_type="f32" shape="1, 1, 1" offset="16480" size="4"/>
			<output>
				<port id="0" precision="FP32" names="209">
					<dim>1</dim>
					<dim>1</dim>
					<dim>1</dim>
				</port>
			</output>
		</layer>
		<layer id="54" name="Add_11" type="Add" version="opset1">
			<data auto_broadcast="numpy"/>
			<input>
				<port id="0" precision="FP32">
					<dim>32</dim>
					<dim>1</dim>
					<dim>1</dim>
				</port>
				<port id="1" precision="FP32">
					<dim>1</dim>
					<dim>1</dim>
					<dim>1</dim>
				</port>
			</input>
			<output>
				<port id="2" precision="FP32">
					<dim>32</dim>
					<dim>1</dim>
					<dim>1</dim>
				</port>
			</output>
		</layer>
		<layer id="55" name="1738" type="Const" version="opset1">
			<data element_type="f32" shape="1, 1, 1" offset="16472" size="4"/>
			<output>
				<port id="0" precision="FP32">
					<dim>1</dim>
					<dim>1</dim>
					<dim>1</dim>
				</port>
			</output>
		</layer>
		<layer id="56" name="Sqrt_12/pow_" type="Power" version="opset1">
			<data auto_broadcast="numpy"/>
			<input>
				<port id="0" precision="FP32">
					<dim>32</dim>
					<dim>1</dim>
					<dim>1</dim>
				</port>
				<port id="1" precision="FP32">
					<dim>1</dim>
					<dim>1</dim>
					<dim>1</dim>
				</port>
			</input>
			<output>
				<port id="2" precision="FP32">
					<dim>32</dim>
					<dim>1</dim>
					<dim>1</dim>
				</port>
			</output>
		</layer>
		<layer id="57" name="Div_14/reciprocal__input_port_1/value23925" type="Const" version="opset1">
			<data element_type="f32" shape="1, 1, 1" offset="12972" size="4"/>
			<output>
				<port id="0" precision="FP32">
					<dim>1</dim>
					<dim>1</dim>
					<dim>1</dim>
				</port>
			</output>
		</layer>
		<layer id="58" name="Div_14/reciprocal_" type="Power" version="opset1">
			<data auto_broadcast="numpy"/>
			<input>
				<port id="0" precision="FP32">
					<dim>32</dim>
					<dim>1</dim>
					<dim>1</dim>
				</port>
				<port id="1" precision="FP32">
					<dim>1</dim>
					<dim>1</dim>
					<dim>1</dim>
				</port>
			</input>
			<output>
				<port id="2" precision="FP32">
					<dim>32</dim>
					<dim>1</dim>
					<dim>1</dim>
				</port>
			</output>
		</layer>
		<layer id="59" name="Div_14/reciprocal_/EltwiseUnsqueeze_input_port_1/value2771069272" type="Const" version="opset1">
			<data element_type="i64" shape="1" offset="16464" size="8"/>
			<output>
				<port id="0" precision="I64">
					<dim>1</dim>
				</port>
			</output>
		</layer>
		<layer id="60" name="Div_14/reciprocal_/EltwiseUnsqueeze" type="Unsqueeze" version="opset1">
			<input>
				<port id="0" precision="FP32">
					<dim>32</dim>
					<dim>1</dim>
					<dim>1</dim>
				</port>
				<port id="1" precision="I64">
					<dim>1</dim>
				</port>
			</input>
			<output>
				<port id="2" precision="FP32" names="211,215">
					<dim>1</dim>
					<dim>32</dim>
					<dim>1</dim>
					<dim>1</dim>
				</port>
			</output>
		</layer>
		<layer id="61" name="Mul_21" type="Multiply" version="opset1">
			<data auto_broadcast="numpy"/>
			<input>
				<port id="0" precision="FP32">
					<dim>1</dim>
					<dim>32</dim>
					<dim>368</dim>
					<dim>656</dim>
				</port>
				<port id="1" precision="FP32">
					<dim>1</dim>
					<dim>32</dim>
					<dim>1</dim>
					<dim>1</dim>
				</port>
			</input>
			<output>
				<port id="2" precision="FP32" names="222">
					<dim>1</dim>
					<dim>32</dim>
					<dim>368</dim>
					<dim>656</dim>
				</port>
			</output>
		</layer>
		<layer id="62" name="1731" type="Const" version="opset1">
			<data element_type="f32" shape="1, 32, 1, 1" offset="16484" size="128"/>
			<output>
				<port id="0" precision="FP32" names="1731">
					<dim>1</dim>
					<dim>32</dim>
					<dim>1</dim>
					<dim>1</dim>
				</port>
			</output>
		</layer>
		<layer id="63" name="Add_22" type="Add" version="opset1">
			<data auto_broadcast="numpy"/>
			<input>
				<port id="0" precision="FP32">
					<dim>1</dim>
					<dim>32</dim>
					<dim>368</dim>
					<dim>656</dim>
				</port>
				<port id="1" precision="FP32">
					<dim>1</dim>
					<dim>32</dim>
					<dim>1</dim>
					<dim>1</dim>
				</port>
			</input>
			<output>
				<port id="2" precision="FP32" names="225">
					<dim>1</dim>
					<dim>32</dim>
					<dim>368</dim>
					<dim>656</dim>
				</port>
			</output>
		</layer>
		<layer id="64" name="Clip_25" type="Clamp" version="opset1">
			<data min="0" max="6"/>
			<input>
				<port id="0" precision="FP32">
					<dim>1</dim>
					<dim>32</dim>
					<dim>368</dim>
					<dim>656</dim>
				</port>
			</input>
			<output>
				<port id="1" precision="FP32" names="228">
					<dim>1</dim>
					<dim>32</dim>
					<dim>368</dim>
					<dim>656</dim>
				</port>
			</output>
		</layer>
		<layer id="65" name="impl.module.fpn.features.1.conv.0.weight" type="Const" version="opset1">
			<data element_type="f32" shape="32, 1, 1, 3, 3" offset="16612" size="1152"/>
			<output>
				<port id="0" precision="FP32" names="impl.module.fpn.features.1.conv.0.weight">
					<dim>32</dim>
					<dim>1</dim>
					<dim>1</dim>
					<dim>3</dim>
					<dim>3</dim>
				</port>
			</output>
		</layer>
		<layer id="66" name="Conv_26" type="GroupConvolution" version="opset1">
			<data strides="1, 1" pads_begin="1, 1" pads_end="1, 1" dilations="1, 1" auto_pad="explicit"/>
			<input>
				<port id="0" precision="FP32">
					<dim>1</dim>
					<dim>32</dim>
					<dim>368</dim>
					<dim>656</dim>
				</port>
				<port id="1" precision="FP32">
					<dim>32</dim>
					<dim>1</dim>
					<dim>1</dim>
					<dim>3</dim>
					<dim>3</dim>
				</port>
			</input>
			<output>
				<port id="2" precision="FP32" names="229">
					<dim>1</dim>
					<dim>32</dim>
					<dim>368</dim>
					<dim>656</dim>
				</port>
			</output>
		</layer>
		<layer id="67" name="ReduceMean_27/axis" type="Const" version="opset1">
			<data element_type="i64" shape="3" offset="16432" size="24"/>
			<output>
				<port id="0" precision="I64">
					<dim>3</dim>
				</port>
			</output>
		</layer>
		<layer id="68" name="ReduceMean_27" type="ReduceMean" version="opset1">
			<data keep_dims="false"/>
			<input>
				<port id="0" precision="FP32">
					<dim>1</dim>
					<dim>32</dim>
					<dim>368</dim>
					<dim>656</dim>
				</port>
				<port id="1" precision="I64">
					<dim>3</dim>
				</port>
			</input>
			<output>
				<port id="2" precision="FP32" names="230">
					<dim>32</dim>
				</port>
			</output>
		</layer>
		<layer id="69" name="Unsqueeze_43/Dims" type="Const" version="opset1">
			<data element_type="i64" shape="1" offset="12960" size="8"/>
			<output>
				<port id="0" precision="I64">
					<dim>1</dim>
				</port>
			</output>
		</layer>
		<layer id="70" name="Unsqueeze_43/Unsqueeze" type="Unsqueeze" version="opset1">
			<input>
				<port id="0" precision="FP32">
					<dim>32</dim>
				</port>
				<port id="1" precision="I64">
					<dim>1</dim>
				</port>
			</input>
			<output>
				<port id="2" precision="FP32" names="250">
					<dim>32</dim>
					<dim>1</dim>
				</port>
			</output>
		</layer>
		<layer id="71" name="Unsqueeze_44/Dims" type="Const" version="opset1">
			<data element_type="i64" shape="1" offset="16456" size="8"/>
			<output>
				<port id="0" precision="I64">
					<dim>1</dim>
				</port>
			</output>
		</layer>
		<layer id="72" name="Unsqueeze_44/Unsqueeze" type="Unsqueeze" version="opset1">
			<input>
				<port id="0" precision="FP32">
					<dim>32</dim>
					<dim>1</dim>
				</port>
				<port id="1" precision="I64">
					<dim>1</dim>
				</port>
			</input>
			<output>
				<port id="2" precision="FP32">
					<dim>32</dim>
					<dim>1</dim>
					<dim>1</dim>
				</port>
			</output>
		</layer>
		<layer id="73" name="Sub_45/neg_/Negate" type="Negative" version="opset1">
			<input>
				<port id="0" precision="FP32">
					<dim>32</dim>
					<dim>1</dim>
					<dim>1</dim>
				</port>
			</input>
			<output>
				<port id="1" precision="FP32">
					<dim>32</dim>
					<dim>1</dim>
					<dim>1</dim>
				</port>
			</output>
		</layer>
		<layer id="74" name="Sub_45/neg_/EltwiseUnsqueeze_input_port_1/value2917871405" type="Const" version="opset1">
			<data element_type="i64" shape="1" offset="16464" size="8"/>
			<output>
				<port id="0" precision="I64">
					<dim>1</dim>
				</port>
			</output>
		</layer>
		<layer id="75" name="Sub_45/neg_/EltwiseUnsqueeze" type="Unsqueeze" version="opset1">
			<input>
				<port id="0" precision="FP32">
					<dim>32</dim>
					<dim>1</dim>
					<dim>1</dim>
				</port>
				<port id="1" precision="I64">
					<dim>1</dim>
				</port>
			</input>
			<output>
				<port id="2" precision="FP32" names="251">
					<dim>1</dim>
					<dim>32</dim>
					<dim>1</dim>
					<dim>1</dim>
				</port>
			</output>
		</layer>
		<layer id="76" name="Sub_45" type="Add" version="opset1">
			<data auto_broadcast="numpy"/>
			<input>
				<port id="0" precision="FP32">
					<dim>1</dim>
					<dim>32</dim>
					<dim>368</dim>
					<dim>656</dim>
				</port>
				<port id="1" precision="FP32">
					<dim>1</dim>
					<dim>32</dim>
					<dim>1</dim>
					<dim>1</dim>
				</port>
			</input>
			<output>
				<port id="2" precision="FP32" names="252">
					<dim>1</dim>
					<dim>32</dim>
					<dim>368</dim>
					<dim>656</dim>
				</port>
			</output>
		</layer>
		<layer id="77" name="Mul_46" type="Multiply" version="opset1">
			<data auto_broadcast="numpy"/>
			<input>
				<port id="0" precision="FP32">
					<dim>1</dim>
					<dim>32</dim>
					<dim>1</dim>
					<dim>1</dim>
				</port>
				<port id="1" precision="FP32">
					<dim>1</dim>
					<dim>32</dim>
					<dim>368</dim>
					<dim>656</dim>
				</port>
			</input>
			<output>
				<port id="2" precision="FP32" names="253">
					<dim>1</dim>
					<dim>32</dim>
					<dim>368</dim>
					<dim>656</dim>
				</port>
			</output>
		</layer>
		<layer id="78" name="ReduceMean_28/axis" type="Const" version="opset1">
			<data element_type="i64" shape="3" offset="16432" size="24"/>
			<output>
				<port id="0" precision="I64">
					<dim>3</dim>
				</port>
			</output>
		</layer>
		<layer id="79" name="ReduceMean_28" type="ReduceMean" version="opset1">
			<data keep_dims="true"/>
			<input>
				<port id="0" precision="FP32">
					<dim>1</dim>
					<dim>32</dim>
					<dim>368</dim>
					<dim>656</dim>
				</port>
				<port id="1" precision="I64">
					<dim>3</dim>
				</port>
			</input>
			<output>
				<port id="2" precision="FP32">
					<dim>1</dim>
					<dim>32</dim>
					<dim>1</dim>
					<dim>1</dim>
				</port>
			</output>
		</layer>
		<layer id="80" name="Sub_29/sub" type="Subtract" version="opset1">
			<data auto_broadcast="numpy"/>
			<input>
				<port id="0" precision="FP32">
					<dim>1</dim>
					<dim>32</dim>
					<dim>368</dim>
					<dim>656</dim>
				</port>
				<port id="1" precision="FP32">
					<dim>1</dim>
					<dim>32</dim>
					<dim>1</dim>
					<dim>1</dim>
				</port>
			</input>
			<output>
				<port id="2" precision="FP32" names="232">
					<dim>1</dim>
					<dim>32</dim>
					<dim>368</dim>
					<dim>656</dim>
				</port>
			</output>
		</layer>
		<layer id="81" name="Mul_30" type="Multiply" version="opset1">
			<data auto_broadcast="numpy"/>
			<input>
				<port id="0" precision="FP32">
					<dim>1</dim>
					<dim>32</dim>
					<dim>368</dim>
					<dim>656</dim>
				</port>
				<port id="1" precision="FP32">
					<dim>1</dim>
					<dim>32</dim>
					<dim>368</dim>
					<dim>656</dim>
				</port>
			</input>
			<output>
				<port id="2" precision="FP32" names="233">
					<dim>1</dim>
					<dim>32</dim>
					<dim>368</dim>
					<dim>656</dim>
				</port>
			</output>
		</layer>
		<layer id="82" name="ReduceMean_31/axis" type="Const" version="opset1">
			<data element_type="i64" shape="3" offset="16432" size="24"/>
			<output>
				<port id="0" precision="I64">
					<dim>3</dim>
				</port>
			</output>
		</layer>
		<layer id="83" name="ReduceMean_31" type="ReduceMean" version="opset1">
			<data keep_dims="false"/>
			<input>
				<port id="0" precision="FP32">
					<dim>1</dim>
					<dim>32</dim>
					<dim>368</dim>
					<dim>656</dim>
				</port>
				<port id="1" precision="I64">
					<dim>3</dim>
				</port>
			</input>
			<output>
				<port id="2" precision="FP32">
					<dim>32</dim>
				</port>
			</output>
		</layer>
		<layer id="84" name="1589" type="Const" version="opset1">
			<data element_type="f32" shape="1" offset="16472" size="4"/>
			<output>
				<port id="0" precision="FP32">
					<dim>1</dim>
				</port>
			</output>
		</layer>
		<layer id="85" name="Sqrt_32/pow_" type="Power" version="opset1">
			<data auto_broadcast="numpy"/>
			<input>
				<port id="0" precision="FP32">
					<dim>32</dim>
				</port>
				<port id="1" precision="FP32">
					<dim>1</dim>
				</port>
			</input>
			<output>
				<port id="2" precision="FP32" names="235">
					<dim>32</dim>
				</port>
			</output>
		</layer>
		<layer id="86" name="1732" type="Const" version="opset1">
			<data element_type="f32" shape="1" offset="16476" size="4"/>
			<output>
				<port id="0" precision="FP32" names="1732">
					<dim>1</dim>
				</port>
			</output>
		</layer>
		<layer id="87" name="Pow_33" type="Power" version="opset1">
			<data auto_broadcast="numpy"/>
			<input>
				<port id="0" precision="FP32">
					<dim>32</dim>
				</port>
				<port id="1" precision="FP32">
					<dim>1</dim>
				</port>
			</input>
			<output>
				<port id="2" precision="FP32" names="238">
					<dim>32</dim>
				</port>
			</output>
		</layer>
		<layer id="88" name="Unsqueeze_34/Dims" type="Const" version="opset1">
			<data element_type="i64" shape="1" offset="12960" size="8"/>
			<output>
				<port id="0" precision="I64">
					<dim>1</dim>
				</port>
			</output>
		</layer>
		<layer id="89" name="Unsqueeze_34/Unsqueeze" type="Unsqueeze" version="opset1">
			<input>
				<port id="0" precision="FP32">
					<dim>32</dim>
				</port>
				<port id="1" precision="I64">
					<dim>1</dim>
				</port>
			</input>
			<output>
				<port id="2" precision="FP32" names="239">
					<dim>32</dim>
					<dim>1</dim>
				</port>
			</output>
		</layer>
		<layer id="90" name="Unsqueeze_35/Dims" type="Const" version="opset1">
			<data element_type="i64" shape="1" offset="16456" size="8"/>
			<output>
				<port id="0" precision="I64">
					<dim>1</dim>
				</port>
			</output>
		</layer>
		<layer id="91" name="Unsqueeze_35/Unsqueeze" type="Unsqueeze" version="opset1">
			<input>
				<port id="0" precision="FP32">
					<dim>32</dim>
					<dim>1</dim>
				</port>
				<port id="1" precision="I64">
					<dim>1</dim>
				</port>
			</input>
			<output>
				<port id="2" precision="FP32" names="240">
					<dim>32</dim>
					<dim>1</dim>
					<dim>1</dim>
				</port>
			</output>
		</layer>
		<layer id="92" name="Constant_36" type="Const" version="opset1">
			<data element_type="f32" shape="1, 1, 1" offset="16480" size="4"/>
			<output>
				<port id="0" precision="FP32" names="241">
					<dim>1</dim>
					<dim>1</dim>
					<dim>1</dim>
				</port>
			</output>
		</layer>
		<layer id="93" name="Add_37" type="Add" version="opset1">
			<data auto_broadcast="numpy"/>
			<input>
				<port id="0" precision="FP32">
					<dim>32</dim>
					<dim>1</dim>
					<dim>1</dim>
				</port>
				<port id="1" precision="FP32">
					<dim>1</dim>
					<dim>1</dim>
					<dim>1</dim>
				</port>
			</input>
			<output>
				<port id="2" precision="FP32">
					<dim>32</dim>
					<dim>1</dim>
					<dim>1</dim>
				</port>
			</output>
		</layer>
		<layer id="94" name="1625" type="Const" version="opset1">
			<data element_type="f32" shape="1, 1, 1" offset="16472" size="4"/>
			<output>
				<port id="0" precision="FP32">
					<dim>1</dim>
					<dim>1</dim>
					<dim>1</dim>
				</port>
			</output>
		</layer>
		<layer id="95" name="Sqrt_38/pow_" type="Power" version="opset1">
			<data auto_broadcast="numpy"/>
			<input>
				<port id="0" precision="FP32">
					<dim>32</dim>
					<dim>1</dim>
					<dim>1</dim>
				</port>
				<port id="1" precision="FP32">
					<dim>1</dim>
					<dim>1</dim>
					<dim>1</dim>
				</port>
			</input>
			<output>
				<port id="2" precision="FP32">
					<dim>32</dim>
					<dim>1</dim>
					<dim>1</dim>
				</port>
			</output>
		</layer>
		<layer id="96" name="Div_40/reciprocal__input_port_1/value23931" type="Const" version="opset1">
			<data element_type="f32" shape="1, 1, 1" offset="12972" size="4"/>
			<output>
				<port id="0" precision="FP32">
					<dim>1</dim>
					<dim>1</dim>
					<dim>1</dim>
				</port>
			</output>
		</layer>
		<layer id="97" name="Div_40/reciprocal_" type="Power" version="opset1">
			<data auto_broadcast="numpy"/>
			<input>
				<port id="0" precision="FP32">
					<dim>32</dim>
					<dim>1</dim>
					<dim>1</dim>
				</port>
				<port id="1" precision="FP32">
					<dim>1</dim>
					<dim>1</dim>
					<dim>1</dim>
				</port>
			</input>
			<output>
				<port id="2" precision="FP32">
					<dim>32</dim>
					<dim>1</dim>
					<dim>1</dim>
				</port>
			</output>
		</layer>
		<layer id="98" name="Div_40/reciprocal_/EltwiseUnsqueeze_input_port_1/value2773070703" type="Const" version="opset1">
			<data element_type="i64" shape="1" offset="16464" size="8"/>
			<output>
				<port id="0" precision="I64">
					<dim>1</dim>
				</port>
			</output>
		</layer>
		<layer id="99" name="Div_40/reciprocal_/EltwiseUnsqueeze" type="Unsqueeze" version="opset1">
			<input>
				<port id="0" precision="FP32">
					<dim>32</dim>
					<dim>1</dim>
					<dim>1</dim>
				</port>
				<port id="1" precision="I64">
					<dim>1</dim>
				</port>
			</input>
			<output>
				<port id="2" precision="FP32" names="243,247">
					<dim>1</dim>
					<dim>32</dim>
					<dim>1</dim>
					<dim>1</dim>
				</port>
			</output>
		</layer>
		<layer id="100" name="Mul_47" type="Multiply" version="opset1">
			<data auto_broadcast="numpy"/>
			<input>
				<port id="0" precision="FP32">
					<dim>1</dim>
					<dim>32</dim>
					<dim>368</dim>
					<dim>656</dim>
				</port>
				<port id="1" precision="FP32">
					<dim>1</dim>
					<dim>32</dim>
					<dim>1</dim>
					<dim>1</dim>
				</port>
			</input>
			<output>
				<port id="2" precision="FP32" names="254">
					<dim>1</dim>
					<dim>32</dim>
					<dim>368</dim>
					<dim>656</dim>
				</port>
			</output>
		</layer>
		<layer id="101" name="1736" type="Const" version="opset1">
			<data element_type="f32" shape="1, 32, 1, 1" offset="17764" size="128"/>
			<output>
				<port id="0" precision="FP32" names="1736">
					<dim>1</dim>
					<dim>32</dim>
					<dim>1</dim>
					<dim>1</dim>
				</port>
			</output>
		</layer>
		<layer id="102" name="Add_48" type="Add" version="opset1">
			<data auto_broadcast="numpy"/>
			<input>
				<port id="0" precision="FP32">
					<dim>1</dim>
					<dim>32</dim>
					<dim>368</dim>
					<dim>656</dim>
				</port>
				<port id="1" precision="FP32">
					<dim>1</dim>
					<dim>32</dim>
					<dim>1</dim>
					<dim>1</dim>
				</port>
			</input>
			<output>
				<port id="2" precision="FP32" names="257">
					<dim>1</dim>
					<dim>32</dim>
					<dim>368</dim>
					<dim>656</dim>
				</port>
			</output>
		</layer>
		<layer id="103" name="Clip_51" type="Clamp" version="opset1">
			<data min="0" max="6"/>
			<input>
				<port id="0" precision="FP32">
					<dim>1</dim>
					<dim>32</dim>
					<dim>368</dim>
					<dim>656</dim>
				</port>
			</input>
			<output>
				<port id="1" precision="FP32" names="260">
					<dim>1</dim>
					<dim>32</dim>
					<dim>368</dim>
					<dim>656</dim>
				</port>
			</output>
		</layer>
		<layer id="104" name="impl.module.fpn.features.1.conv.3.weight" type="Const" version="opset1">
			<data element_type="f32" shape="16, 32, 1, 1" offset="17892" size="2048"/>
			<output>
				<port id="0" precision="FP32" names="impl.module.fpn.features.1.conv.3.weight">
					<dim>16</dim>
					<dim>32</dim>
					<dim>1</dim>
					<dim>1</dim>
				</port>
			</output>
		</layer>
		<layer id="105" name="Conv_52" type="Convolution" version="opset1">
			<data strides="1, 1" dilations="1, 1" pads_begin="0, 0" pads_end="0, 0" auto_pad="explicit"/>
			<input>
				<port id="0" precision="FP32">
					<dim>1</dim>
					<dim>32</dim>
					<dim>368</dim>
					<dim>656</dim>
				</port>
				<port id="1" precision="FP32">
					<dim>16</dim>
					<dim>32</dim>
					<dim>1</dim>
					<dim>1</dim>
				</port>
			</input>
			<output>
				<port id="2" precision="FP32" names="261">
					<dim>1</dim>
					<dim>16</dim>
					<dim>368</dim>
					<dim>656</dim>
				</port>
			</output>
		</layer>
		<layer id="106" name="ReduceMean_53/axis" type="Const" version="opset1">
			<data element_type="i64" shape="3" offset="16432" size="24"/>
			<output>
				<port id="0" precision="I64">
					<dim>3</dim>
				</port>
			</output>
		</layer>
		<layer id="107" name="ReduceMean_53" type="ReduceMean" version="opset1">
			<data keep_dims="false"/>
			<input>
				<port id="0" precision="FP32">
					<dim>1</dim>
					<dim>16</dim>
					<dim>368</dim>
					<dim>656</dim>
				</port>
				<port id="1" precision="I64">
					<dim>3</dim>
				</port>
			</input>
			<output>
				<port id="2" precision="FP32" names="262">
					<dim>16</dim>
				</port>
			</output>
		</layer>
		<layer id="108" name="Unsqueeze_69/Dims" type="Const" version="opset1">
			<data element_type="i64" shape="1" offset="12960" size="8"/>
			<output>
				<port id="0" precision="I64">
					<dim>1</dim>
				</port>
			</output>
		</layer>
		<layer id="109" name="Unsqueeze_69/Unsqueeze" type="Unsqueeze" version="opset1">
			<input>
				<port id="0" precision="FP32">
					<dim>16</dim>
				</port>
				<port id="1" precision="I64">
					<dim>1</dim>
				</port>
			</input>
			<output>
				<port id="2" precision="FP32" names="282">
					<dim>16</dim>
					<dim>1</dim>
				</port>
			</output>
		</layer>
		<layer id="110" name="Unsqueeze_70/Dims" type="Const" version="opset1">
			<data element_type="i64" shape="1" offset="16456" size="8"/>
			<output>
				<port id="0" precision="I64">
					<dim>1</dim>
				</port>
			</output>
		</layer>
		<layer id="111" name="Unsqueeze_70/Unsqueeze" type="Unsqueeze" version="opset1">
			<input>
				<port id="0" precision="FP32">
					<dim>16</dim>
					<dim>1</dim>
				</port>
				<port id="1" precision="I64">
					<dim>1</dim>
				</port>
			</input>
			<output>
				<port id="2" precision="FP32">
					<dim>16</dim>
					<dim>1</dim>
					<dim>1</dim>
				</port>
			</output>
		</layer>
		<layer id="112" name="Sub_71/neg_/Negate" type="Negative" version="opset1">
			<input>
				<port id="0" precision="FP32">
					<dim>16</dim>
					<dim>1</dim>
					<dim>1</dim>
				</port>
			</input>
			<output>
				<port id="1" precision="FP32">
					<dim>16</dim>
					<dim>1</dim>
					<dim>1</dim>
				</port>
			</output>
		</layer>
		<layer id="113" name="Sub_71/neg_/EltwiseUnsqueeze_input_port_1/value2919069038" type="Const" version="opset1">
			<data element_type="i64" shape="1" offset="16464" size="8"/>
			<output>
				<port id="0" precision="I64">
					<dim>1</dim>
				</port>
			</output>
		</layer>
		<layer id="114" name="Sub_71/neg_/EltwiseUnsqueeze" type="Unsqueeze" version="opset1">
			<input>
				<port id="0" precision="FP32">
					<dim>16</dim>
					<dim>1</dim>
					<dim>1</dim>
				</port>
				<port id="1" precision="I64">
					<dim>1</dim>
				</port>
			</input>
			<output>
				<port id="2" precision="FP32" names="283">
					<dim>1</dim>
					<dim>16</dim>
					<dim>1</dim>
					<dim>1</dim>
				</port>
			</output>
		</layer>
		<layer id="115" name="Sub_71" type="Add" version="opset1">
			<data auto_broadcast="numpy"/>
			<input>
				<port id="0" precision="FP32">
					<dim>1</dim>
					<dim>16</dim>
					<dim>368</dim>
					<dim>656</dim>
				</port>
				<port id="1" precision="FP32">
					<dim>1</dim>
					<dim>16</dim>
					<dim>1</dim>
					<dim>1</dim>
				</port>
			</input>
			<output>
				<port id="2" precision="FP32" names="284">
					<dim>1</dim>
					<dim>16</dim>
					<dim>368</dim>
					<dim>656</dim>
				</port>
			</output>
		</layer>
		<layer id="116" name="Mul_72" type="Multiply" version="opset1">
			<data auto_broadcast="numpy"/>
			<input>
				<port id="0" precision="FP32">
					<dim>1</dim>
					<dim>16</dim>
					<dim>1</dim>
					<dim>1</dim>
				</port>
				<port id="1" precision="FP32">
					<dim>1</dim>
					<dim>16</dim>
					<dim>368</dim>
					<dim>656</dim>
				</port>
			</input>
			<output>
				<port id="2" precision="FP32" names="285">
					<dim>1</dim>
					<dim>16</dim>
					<dim>368</dim>
					<dim>656</dim>
				</port>
			</output>
		</layer>
		<layer id="117" name="ReduceMean_54/axis" type="Const" version="opset1">
			<data element_type="i64" shape="3" offset="16432" size="24"/>
			<output>
				<port id="0" precision="I64">
					<dim>3</dim>
				</port>
			</output>
		</layer>
		<layer id="118" name="ReduceMean_54" type="ReduceMean" version="opset1">
			<data keep_dims="true"/>
			<input>
				<port id="0" precision="FP32">
					<dim>1</dim>
					<dim>16</dim>
					<dim>368</dim>
					<dim>656</dim>
				</port>
				<port id="1" precision="I64">
					<dim>3</dim>
				</port>
			</input>
			<output>
				<port id="2" precision="FP32">
					<dim>1</dim>
					<dim>16</dim>
					<dim>1</dim>
					<dim>1</dim>
				</port>
			</output>
		</layer>
		<layer id="119" name="Sub_55/sub" type="Subtract" version="opset1">
			<data auto_broadcast="numpy"/>
			<input>
				<port id="0" precision="FP32">
					<dim>1</dim>
					<dim>16</dim>
					<dim>368</dim>
					<dim>656</dim>
				</port>
				<port id="1" precision="FP32">
					<dim>1</dim>
					<dim>16</dim>
					<dim>1</dim>
					<dim>1</dim>
				</port>
			</input>
			<output>
				<port id="2" precision="FP32" names="264">
					<dim>1</dim>
					<dim>16</dim>
					<dim>368</dim>
					<dim>656</dim>
				</port>
			</output>
		</layer>
		<layer id="120" name="Mul_56" type="Multiply" version="opset1">
			<data auto_broadcast="numpy"/>
			<input>
				<port id="0" precision="FP32">
					<dim>1</dim>
					<dim>16</dim>
					<dim>368</dim>
					<dim>656</dim>
				</port>
				<port id="1" precision="FP32">
					<dim>1</dim>
					<dim>16</dim>
					<dim>368</dim>
					<dim>656</dim>
				</port>
			</input>
			<output>
				<port id="2" precision="FP32" names="265">
					<dim>1</dim>
					<dim>16</dim>
					<dim>368</dim>
					<dim>656</dim>
				</port>
			</output>
		</layer>
		<layer id="121" name="ReduceMean_57/axis" type="Const" version="opset1">
			<data element_type="i64" shape="3" offset="16432" size="24"/>
			<output>
				<port id="0" precision="I64">
					<dim>3</dim>
				</port>
			</output>
		</layer>
		<layer id="122" name="ReduceMean_57" type="ReduceMean" version="opset1">
			<data keep_dims="false"/>
			<input>
				<port id="0" precision="FP32">
					<dim>1</dim>
					<dim>16</dim>
					<dim>368</dim>
					<dim>656</dim>
				</port>
				<port id="1" precision="I64">
					<dim>3</dim>
				</port>
			</input>
			<output>
				<port id="2" precision="FP32">
					<dim>16</dim>
				</port>
			</output>
		</layer>
		<layer id="123" name="1740" type="Const" version="opset1">
			<data element_type="f32" shape="1" offset="16472" size="4"/>
			<output>
				<port id="0" precision="FP32">
					<dim>1</dim>
				</port>
			</output>
		</layer>
		<layer id="124" name="Sqrt_58/pow_" type="Power" version="opset1">
			<data auto_broadcast="numpy"/>
			<input>
				<port id="0" precision="FP32">
					<dim>16</dim>
				</port>
				<port id="1" precision="FP32">
					<dim>1</dim>
				</port>
			</input>
			<output>
				<port id="2" precision="FP32" names="267">
					<dim>16</dim>
				</port>
			</output>
		</layer>
		<layer id="125" name="1737" type="Const" version="opset1">
			<data element_type="f32" shape="1" offset="16476" size="4"/>
			<output>
				<port id="0" precision="FP32" names="1737">
					<dim>1</dim>
				</port>
			</output>
		</layer>
		<layer id="126" name="Pow_59" type="Power" version="opset1">
			<data auto_broadcast="numpy"/>
			<input>
				<port id="0" precision="FP32">
					<dim>16</dim>
				</port>
				<port id="1" precision="FP32">
					<dim>1</dim>
				</port>
			</input>
			<output>
				<port id="2" precision="FP32" names="270">
					<dim>16</dim>
				</port>
			</output>
		</layer>
		<layer id="127" name="Unsqueeze_60/Dims" type="Const" version="opset1">
			<data element_type="i64" shape="1" offset="12960" size="8"/>
			<output>
				<port id="0" precision="I64">
					<dim>1</dim>
				</port>
			</output>
		</layer>
		<layer id="128" name="Unsqueeze_60/Unsqueeze" type="Unsqueeze" version="opset1">
			<input>
				<port id="0" precision="FP32">
					<dim>16</dim>
				</port>
				<port id="1" precision="I64">
					<dim>1</dim>
				</port>
			</input>
			<output>
				<port id="2" precision="FP32" names="271">
					<dim>16</dim>
					<dim>1</dim>
				</port>
			</output>
		</layer>
		<layer id="129" name="Unsqueeze_61/Dims" type="Const" version="opset1">
			<data element_type="i64" shape="1" offset="16456" size="8"/>
			<output>
				<port id="0" precision="I64">
					<dim>1</dim>
				</port>
			</output>
		</layer>
		<layer id="130" name="Unsqueeze_61/Unsqueeze" type="Unsqueeze" version="opset1">
			<input>
				<port id="0" precision="FP32">
					<dim>16</dim>
					<dim>1</dim>
				</port>
				<port id="1" precision="I64">
					<dim>1</dim>
				</port>
			</input>
			<output>
				<port id="2" precision="FP32" names="272">
					<dim>16</dim>
					<dim>1</dim>
					<dim>1</dim>
				</port>
			</output>
		</layer>
		<layer id="131" name="Constant_62" type="Const" version="opset1">
			<data element_type="f32" shape="1, 1, 1" offset="16480" size="4"/>
			<output>
				<port id="0" precision="FP32" names="273">
					<dim>1</dim>
					<dim>1</dim>
					<dim>1</dim>
				</port>
			</output>
		</layer>
		<layer id="132" name="Add_63" type="Add" version="opset1">
			<data auto_broadcast="numpy"/>
			<input>
				<port id="0" precision="FP32">
					<dim>16</dim>
					<dim>1</dim>
					<dim>1</dim>
				</port>
				<port id="1" precision="FP32">
					<dim>1</dim>
					<dim>1</dim>
					<dim>1</dim>
				</port>
			</input>
			<output>
				<port id="2" precision="FP32">
					<dim>16</dim>
					<dim>1</dim>
					<dim>1</dim>
				</port>
			</output>
		</layer>
		<layer id="133" name="1611" type="Const" version="opset1">
			<data element_type="f32" shape="1, 1, 1" offset="16472" size="4"/>
			<output>
				<port id="0" precision="FP32">
					<dim>1</dim>
					<dim>1</dim>
					<dim>1</dim>
				</port>
			</output>
		</layer>
		<layer id="134" name="Sqrt_64/pow_" type="Power" version="opset1">
			<data auto_broadcast="numpy"/>
			<input>
				<port id="0" precision="FP32">
					<dim>16</dim>
					<dim>1</dim>
					<dim>1</dim>
				</port>
				<port id="1" precision="FP32">
					<dim>1</dim>
					<dim>1</dim>
					<dim>1</dim>
				</port>
			</input>
			<output>
				<port id="2" precision="FP32">
					<dim>16</dim>
					<dim>1</dim>
					<dim>1</dim>
				</port>
			</output>
		</layer>
		<layer id="135" name="Div_66/reciprocal__input_port_1/value23937" type="Const" version="opset1">
			<data element_type="f32" shape="1, 1, 1" offset="12972" size="4"/>
			<output>
				<port id="0" precision="FP32">
					<dim>1</dim>
					<dim>1</dim>
					<dim>1</dim>
				</port>
			</output>
		</layer>
		<layer id="136" name="Div_66/reciprocal_" type="Power" version="opset1">
			<data auto_broadcast="numpy"/>
			<input>
				<port id="0" precision="FP32">
					<dim>16</dim>
					<dim>1</dim>
					<dim>1</dim>
				</port>
				<port id="1" precision="FP32">
					<dim>1</dim>
					<dim>1</dim>
					<dim>1</dim>
				</port>
			</input>
			<output>
				<port id="2" precision="FP32">
					<dim>16</dim>
					<dim>1</dim>
					<dim>1</dim>
				</port>
			</output>
		</layer>
		<layer id="137" name="Div_66/reciprocal_/EltwiseUnsqueeze_input_port_1/value2775068894" type="Const" version="opset1">
			<data element_type="i64" shape="1" offset="16464" size="8"/>
			<output>
				<port id="0" precision="I64">
					<dim>1</dim>
				</port>
			</output>
		</layer>
		<layer id="138" name="Div_66/reciprocal_/EltwiseUnsqueeze" type="Unsqueeze" version="opset1">
			<input>
				<port id="0" precision="FP32">
					<dim>16</dim>
					<dim>1</dim>
					<dim>1</dim>
				</port>
				<port id="1" precision="I64">
					<dim>1</dim>
				</port>
			</input>
			<output>
				<port id="2" precision="FP32" names="275,279">
					<dim>1</dim>
					<dim>16</dim>
					<dim>1</dim>
					<dim>1</dim>
				</port>
			</output>
		</layer>
		<layer id="139" name="Mul_73" type="Multiply" version="opset1">
			<data auto_broadcast="numpy"/>
			<input>
				<port id="0" precision="FP32">
					<dim>1</dim>
					<dim>16</dim>
					<dim>368</dim>
					<dim>656</dim>
				</port>
				<port id="1" precision="FP32">
					<dim>1</dim>
					<dim>16</dim>
					<dim>1</dim>
					<dim>1</dim>
				</port>
			</input>
			<output>
				<port id="2" precision="FP32" names="286">
					<dim>1</dim>
					<dim>16</dim>
					<dim>368</dim>
					<dim>656</dim>
				</port>
			</output>
		</layer>
		<layer id="140" name="1741" type="Const" version="opset1">
			<data element_type="f32" shape="1, 16, 1, 1" offset="19940" size="64"/>
			<output>
				<port id="0" precision="FP32" names="1741">
					<dim>1</dim>
					<dim>16</dim>
					<dim>1</dim>
					<dim>1</dim>
				</port>
			</output>
		</layer>
		<layer id="141" name="Add_74" type="Add" version="opset1">
			<data auto_broadcast="numpy"/>
			<input>
				<port id="0" precision="FP32">
					<dim>1</dim>
					<dim>16</dim>
					<dim>368</dim>
					<dim>656</dim>
				</port>
				<port id="1" precision="FP32">
					<dim>1</dim>
					<dim>16</dim>
					<dim>1</dim>
					<dim>1</dim>
				</port>
			</input>
			<output>
				<port id="2" precision="FP32" names="289">
					<dim>1</dim>
					<dim>16</dim>
					<dim>368</dim>
					<dim>656</dim>
				</port>
			</output>
		</layer>
		<layer id="142" name="impl.module.fpn.features.2.conv.0.weight" type="Const" version="opset1">
			<data element_type="f32" shape="96, 16, 1, 1" offset="20004" size="6144"/>
			<output>
				<port id="0" precision="FP32" names="impl.module.fpn.features.2.conv.0.weight">
					<dim>96</dim>
					<dim>16</dim>
					<dim>1</dim>
					<dim>1</dim>
				</port>
			</output>
		</layer>
		<layer id="143" name="Conv_75" type="Convolution" version="opset1">
			<data strides="1, 1" dilations="1, 1" pads_begin="0, 0" pads_end="0, 0" auto_pad="explicit"/>
			<input>
				<port id="0" precision="FP32">
					<dim>1</dim>
					<dim>16</dim>
					<dim>368</dim>
					<dim>656</dim>
				</port>
				<port id="1" precision="FP32">
					<dim>96</dim>
					<dim>16</dim>
					<dim>1</dim>
					<dim>1</dim>
				</port>
			</input>
			<output>
				<port id="2" precision="FP32" names="290">
					<dim>1</dim>
					<dim>96</dim>
					<dim>368</dim>
					<dim>656</dim>
				</port>
			</output>
		</layer>
		<layer id="144" name="ReduceMean_76/axis" type="Const" version="opset1">
			<data element_type="i64" shape="3" offset="16432" size="24"/>
			<output>
				<port id="0" precision="I64">
					<dim>3</dim>
				</port>
			</output>
		</layer>
		<layer id="145" name="ReduceMean_76" type="ReduceMean" version="opset1">
			<data keep_dims="false"/>
			<input>
				<port id="0" precision="FP32">
					<dim>1</dim>
					<dim>96</dim>
					<dim>368</dim>
					<dim>656</dim>
				</port>
				<port id="1" precision="I64">
					<dim>3</dim>
				</port>
			</input>
			<output>
				<port id="2" precision="FP32" names="291">
					<dim>96</dim>
				</port>
			</output>
		</layer>
		<layer id="146" name="Unsqueeze_92/Dims" type="Const" version="opset1">
			<data element_type="i64" shape="1" offset="12960" size="8"/>
			<output>
				<port id="0" precision="I64">
					<dim>1</dim>
				</port>
			</output>
		</layer>
		<layer id="147" name="Unsqueeze_92/Unsqueeze" type="Unsqueeze" version="opset1">
			<input>
				<port id="0" precision="FP32">
					<dim>96</dim>
				</port>
				<port id="1" precision="I64">
					<dim>1</dim>
				</port>
			</input>
			<output>
				<port id="2" precision="FP32" names="311">
					<dim>96</dim>
					<dim>1</dim>
				</port>
			</output>
		</layer>
		<layer id="148" name="Unsqueeze_93/Dims" type="Const" version="opset1">
			<data element_type="i64" shape="1" offset="16456" size="8"/>
			<output>
				<port id="0" precision="I64">
					<dim>1</dim>
				</port>
			</output>
		</layer>
		<layer id="149" name="Unsqueeze_93/Unsqueeze" type="Unsqueeze" version="opset1">
			<input>
				<port id="0" precision="FP32">
					<dim>96</dim>
					<dim>1</dim>
				</port>
				<port id="1" precision="I64">
					<dim>1</dim>
				</port>
			</input>
			<output>
				<port id="2" precision="FP32">
					<dim>96</dim>
					<dim>1</dim>
					<dim>1</dim>
				</port>
			</output>
		</layer>
		<layer id="150" name="Sub_94/neg_/Negate" type="Negative" version="opset1">
			<input>
				<port id="0" precision="FP32">
					<dim>96</dim>
					<dim>1</dim>
					<dim>1</dim>
				</port>
			</input>
			<output>
				<port id="1" precision="FP32">
					<dim>96</dim>
					<dim>1</dim>
					<dim>1</dim>
				</port>
			</output>
		</layer>
		<layer id="151" name="Sub_94/neg_/EltwiseUnsqueeze_input_port_1/value2920271276" type="Const" version="opset1">
			<data element_type="i64" shape="1" offset="16464" size="8"/>
			<output>
				<port id="0" precision="I64">
					<dim>1</dim>
				</port>
			</output>
		</layer>
		<layer id="152" name="Sub_94/neg_/EltwiseUnsqueeze" type="Unsqueeze" version="opset1">
			<input>
				<port id="0" precision="FP32">
					<dim>96</dim>
					<dim>1</dim>
					<dim>1</dim>
				</port>
				<port id="1" precision="I64">
					<dim>1</dim>
				</port>
			</input>
			<output>
				<port id="2" precision="FP32" names="312">
					<dim>1</dim>
					<dim>96</dim>
					<dim>1</dim>
					<dim>1</dim>
				</port>
			</output>
		</layer>
		<layer id="153" name="Sub_94" type="Add" version="opset1">
			<data auto_broadcast="numpy"/>
			<input>
				<port id="0" precision="FP32">
					<dim>1</dim>
					<dim>96</dim>
					<dim>368</dim>
					<dim>656</dim>
				</port>
				<port id="1" precision="FP32">
					<dim>1</dim>
					<dim>96</dim>
					<dim>1</dim>
					<dim>1</dim>
				</port>
			</input>
			<output>
				<port id="2" precision="FP32" names="313">
					<dim>1</dim>
					<dim>96</dim>
					<dim>368</dim>
					<dim>656</dim>
				</port>
			</output>
		</layer>
		<layer id="154" name="Mul_95" type="Multiply" version="opset1">
			<data auto_broadcast="numpy"/>
			<input>
				<port id="0" precision="FP32">
					<dim>1</dim>
					<dim>96</dim>
					<dim>1</dim>
					<dim>1</dim>
				</port>
				<port id="1" precision="FP32">
					<dim>1</dim>
					<dim>96</dim>
					<dim>368</dim>
					<dim>656</dim>
				</port>
			</input>
			<output>
				<port id="2" precision="FP32" names="314">
					<dim>1</dim>
					<dim>96</dim>
					<dim>368</dim>
					<dim>656</dim>
				</port>
			</output>
		</layer>
		<layer id="155" name="ReduceMean_77/axis" type="Const" version="opset1">
			<data element_type="i64" shape="3" offset="16432" size="24"/>
			<output>
				<port id="0" precision="I64">
					<dim>3</dim>
				</port>
			</output>
		</layer>
		<layer id="156" name="ReduceMean_77" type="ReduceMean" version="opset1">
			<data keep_dims="true"/>
			<input>
				<port id="0" precision="FP32">
					<dim>1</dim>
					<dim>96</dim>
					<dim>368</dim>
					<dim>656</dim>
				</port>
				<port id="1" precision="I64">
					<dim>3</dim>
				</port>
			</input>
			<output>
				<port id="2" precision="FP32">
					<dim>1</dim>
					<dim>96</dim>
					<dim>1</dim>
					<dim>1</dim>
				</port>
			</output>
		</layer>
		<layer id="157" name="Sub_78/sub" type="Subtract" version="opset1">
			<data auto_broadcast="numpy"/>
			<input>
				<port id="0" precision="FP32">
					<dim>1</dim>
					<dim>96</dim>
					<dim>368</dim>
					<dim>656</dim>
				</port>
				<port id="1" precision="FP32">
					<dim>1</dim>
					<dim>96</dim>
					<dim>1</dim>
					<dim>1</dim>
				</port>
			</input>
			<output>
				<port id="2" precision="FP32" names="293">
					<dim>1</dim>
					<dim>96</dim>
					<dim>368</dim>
					<dim>656</dim>
				</port>
			</output>
		</layer>
		<layer id="158" name="Mul_79" type="Multiply" version="opset1">
			<data auto_broadcast="numpy"/>
			<input>
				<port id="0" precision="FP32">
					<dim>1</dim>
					<dim>96</dim>
					<dim>368</dim>
					<dim>656</dim>
				</port>
				<port id="1" precision="FP32">
					<dim>1</dim>
					<dim>96</dim>
					<dim>368</dim>
					<dim>656</dim>
				</port>
			</input>
			<output>
				<port id="2" precision="FP32" names="294">
					<dim>1</dim>
					<dim>96</dim>
					<dim>368</dim>
					<dim>656</dim>
				</port>
			</output>
		</layer>
		<layer id="159" name="ReduceMean_80/axis" type="Const" version="opset1">
			<data element_type="i64" shape="3" offset="16432" size="24"/>
			<output>
				<port id="0" precision="I64">
					<dim>3</dim>
				</port>
			</output>
		</layer>
		<layer id="160" name="ReduceMean_80" type="ReduceMean" version="opset1">
			<data keep_dims="false"/>
			<input>
				<port id="0" precision="FP32">
					<dim>1</dim>
					<dim>96</dim>
					<dim>368</dim>
					<dim>656</dim>
				</port>
				<port id="1" precision="I64">
					<dim>3</dim>
				</port>
			</input>
			<output>
				<port id="2" precision="FP32">
					<dim>96</dim>
				</port>
			</output>
		</layer>
		<layer id="161" name="1645" type="Const" version="opset1">
			<data element_type="f32" shape="1" offset="16472" size="4"/>
			<output>
				<port id="0" precision="FP32">
					<dim>1</dim>
				</port>
			</output>
		</layer>
		<layer id="162" name="Sqrt_81/pow_" type="Power" version="opset1">
			<data auto_broadcast="numpy"/>
			<input>
				<port id="0" precision="FP32">
					<dim>96</dim>
				</port>
				<port id="1" precision="FP32">
					<dim>1</dim>
				</port>
			</input>
			<output>
				<port id="2" precision="FP32" names="296">
					<dim>96</dim>
				</port>
			</output>
		</layer>
		<layer id="163" name="1742" type="Const" version="opset1">
			<data element_type="f32" shape="1" offset="16476" size="4"/>
			<output>
				<port id="0" precision="FP32" names="1742">
					<dim>1</dim>
				</port>
			</output>
		</layer>
		<layer id="164" name="Pow_82" type="Power" version="opset1">
			<data auto_broadcast="numpy"/>
			<input>
				<port id="0" precision="FP32">
					<dim>96</dim>
				</port>
				<port id="1" precision="FP32">
					<dim>1</dim>
				</port>
			</input>
			<output>
				<port id="2" precision="FP32" names="299">
					<dim>96</dim>
				</port>
			</output>
		</layer>
		<layer id="165" name="Unsqueeze_83/Dims" type="Const" version="opset1">
			<data element_type="i64" shape="1" offset="12960" size="8"/>
			<output>
				<port id="0" precision="I64">
					<dim>1</dim>
				</port>
			</output>
		</layer>
		<layer id="166" name="Unsqueeze_83/Unsqueeze" type="Unsqueeze" version="opset1">
			<input>
				<port id="0" precision="FP32">
					<dim>96</dim>
				</port>
				<port id="1" precision="I64">
					<dim>1</dim>
				</port>
			</input>
			<output>
				<port id="2" precision="FP32" names="300">
					<dim>96</dim>
					<dim>1</dim>
				</port>
			</output>
		</layer>
		<layer id="167" name="Unsqueeze_84/Dims" type="Const" version="opset1">
			<data element_type="i64" shape="1" offset="16456" size="8"/>
			<output>
				<port id="0" precision="I64">
					<dim>1</dim>
				</port>
			</output>
		</layer>
		<layer id="168" name="Unsqueeze_84/Unsqueeze" type="Unsqueeze" version="opset1">
			<input>
				<port id="0" precision="FP32">
					<dim>96</dim>
					<dim>1</dim>
				</port>
				<port id="1" precision="I64">
					<dim>1</dim>
				</port>
			</input>
			<output>
				<port id="2" precision="FP32" names="301">
					<dim>96</dim>
					<dim>1</dim>
					<dim>1</dim>
				</port>
			</output>
		</layer>
		<layer id="169" name="Constant_85" type="Const" version="opset1">
			<data element_type="f32" shape="1, 1, 1" offset="16480" size="4"/>
			<output>
				<port id="0" precision="FP32" names="302">
					<dim>1</dim>
					<dim>1</dim>
					<dim>1</dim>
				</port>
			</output>
		</layer>
		<layer id="170" name="Add_86" type="Add" version="opset1">
			<data auto_broadcast="numpy"/>
			<input>
				<port id="0" precision="FP32">
					<dim>96</dim>
					<dim>1</dim>
					<dim>1</dim>
				</port>
				<port id="1" precision="FP32">
					<dim>1</dim>
					<dim>1</dim>
					<dim>1</dim>
				</port>
			</input>
			<output>
				<port id="2" precision="FP32">
					<dim>96</dim>
					<dim>1</dim>
					<dim>1</dim>
				</port>
			</output>
		</layer>
		<layer id="171" name="1697" type="Const" version="opset1">
			<data element_type="f32" shape="1, 1, 1" offset="16472" size="4"/>
			<output>
				<port id="0" precision="FP32">
					<dim>1</dim>
					<dim>1</dim>
					<dim>1</dim>
				</port>
			</output>
		</layer>
		<layer id="172" name="Sqrt_87/pow_" type="Power" version="opset1">
			<data auto_broadcast="numpy"/>
			<input>
				<port id="0" precision="FP32">
					<dim>96</dim>
					<dim>1</dim>
					<dim>1</dim>
				</port>
				<port id="1" precision="FP32">
					<dim>1</dim>
					<dim>1</dim>
					<dim>1</dim>
				</port>
			</input>
			<output>
				<port id="2" precision="FP32">
					<dim>96</dim>
					<dim>1</dim>
					<dim>1</dim>
				</port>
			</output>
		</layer>
		<layer id="173" name="Div_89/reciprocal__input_port_1/value23943" type="Const" version="opset1">
			<data element_type="f32" shape="1, 1, 1" offset="12972" size="4"/>
			<output>
				<port id="0" precision="FP32">
					<dim>1</dim>
					<dim>1</dim>
					<dim>1</dim>
				</port>
			</output>
		</layer>
		<layer id="174" name="Div_89/reciprocal_" type="Power" version="opset1">
			<data auto_broadcast="numpy"/>
			<input>
				<port id="0" precision="FP32">
					<dim>96</dim>
					<dim>1</dim>
					<dim>1</dim>
				</port>
				<port id="1" precision="FP32">
					<dim>1</dim>
					<dim>1</dim>
					<dim>1</dim>
				</port>
			</input>
			<output>
				<port id="2" precision="FP32">
					<dim>96</dim>
					<dim>1</dim>
					<dim>1</dim>
				</port>
			</output>
		</layer>
		<layer id="175" name="Div_89/reciprocal_/EltwiseUnsqueeze_input_port_1/value2777071396" type="Const" version="opset1">
			<data element_type="i64" shape="1" offset="16464" size="8"/>
			<output>
				<port id="0" precision="I64">
					<dim>1</dim>
				</port>
			</output>
		</layer>
		<layer id="176" name="Div_89/reciprocal_/EltwiseUnsqueeze" type="Unsqueeze" version="opset1">
			<input>
				<port id="0" precision="FP32">
					<dim>96</dim>
					<dim>1</dim>
					<dim>1</dim>
				</port>
				<port id="1" precision="I64">
					<dim>1</dim>
				</port>
			</input>
			<output>
				<port id="2" precision="FP32" names="304,308">
					<dim>1</dim>
					<dim>96</dim>
					<dim>1</dim>
					<dim>1</dim>
				</port>
			</output>
		</layer>
		<layer id="177" name="Mul_96" type="Multiply" version="opset1">
			<data auto_broadcast="numpy"/>
			<input>
				<port id="0" precision="FP32">
					<dim>1</dim>
					<dim>96</dim>
					<dim>368</dim>
					<dim>656</dim>
				</port>
				<port id="1" precision="FP32">
					<dim>1</dim>
					<dim>96</dim>
					<dim>1</dim>
					<dim>1</dim>
				</port>
			</input>
			<output>
				<port id="2" precision="FP32" names="315">
					<dim>1</dim>
					<dim>96</dim>
					<dim>368</dim>
					<dim>656</dim>
				</port>
			</output>
		</layer>
		<layer id="178" name="1746" type="Const" version="opset1">
			<data element_type="f32" shape="1, 96, 1, 1" offset="26148" size="384"/>
			<output>
				<port id="0" precision="FP32" names="1746">
					<dim>1</dim>
					<dim>96</dim>
					<dim>1</dim>
					<dim>1</dim>
				</port>
			</output>
		</layer>
		<layer id="179" name="Add_97" type="Add" version="opset1">
			<data auto_broadcast="numpy"/>
			<input>
				<port id="0" precision="FP32">
					<dim>1</dim>
					<dim>96</dim>
					<dim>368</dim>
					<dim>656</dim>
				</port>
				<port id="1" precision="FP32">
					<dim>1</dim>
					<dim>96</dim>
					<dim>1</dim>
					<dim>1</dim>
				</port>
			</input>
			<output>
				<port id="2" precision="FP32" names="318">
					<dim>1</dim>
					<dim>96</dim>
					<dim>368</dim>
					<dim>656</dim>
				</port>
			</output>
		</layer>
		<layer id="180" name="Clip_100" type="Clamp" version="opset1">
			<data min="0" max="6"/>
			<input>
				<port id="0" precision="FP32">
					<dim>1</dim>
					<dim>96</dim>
					<dim>368</dim>
					<dim>656</dim>
				</port>
			</input>
			<output>
				<port id="1" precision="FP32" names="321">
					<dim>1</dim>
					<dim>96</dim>
					<dim>368</dim>
					<dim>656</dim>
				</port>
			</output>
		</layer>
		<layer id="181" name="impl.module.fpn.features.2.conv.3.weight" type="Const" version="opset1">
			<data element_type="f32" shape="96, 1, 1, 3, 3" offset="26532" size="3456"/>
			<output>
				<port id="0" precision="FP32" names="impl.module.fpn.features.2.conv.3.weight">
					<dim>96</dim>
					<dim>1</dim>
					<dim>1</dim>
					<dim>3</dim>
					<dim>3</dim>
				</port>
			</output>
		</layer>
		<layer id="182" name="Conv_101" type="GroupConvolution" version="opset1">
			<data strides="2, 2" pads_begin="1, 1" pads_end="1, 1" dilations="1, 1" auto_pad="explicit"/>
			<input>
				<port id="0" precision="FP32">
					<dim>1</dim>
					<dim>96</dim>
					<dim>368</dim>
					<dim>656</dim>
				</port>
				<port id="1" precision="FP32">
					<dim>96</dim>
					<dim>1</dim>
					<dim>1</dim>
					<dim>3</dim>
					<dim>3</dim>
				</port>
			</input>
			<output>
				<port id="2" precision="FP32" names="322">
					<dim>1</dim>
					<dim>96</dim>
					<dim>184</dim>
					<dim>328</dim>
				</port>
			</output>
		</layer>
		<layer id="183" name="ReduceMean_102/axis" type="Const" version="opset1">
			<data element_type="i64" shape="3" offset="16432" size="24"/>
			<output>
				<port id="0" precision="I64">
					<dim>3</dim>
				</port>
			</output>
		</layer>
		<layer id="184" name="ReduceMean_102" type="ReduceMean" version="opset1">
			<data keep_dims="false"/>
			<input>
				<port id="0" precision="FP32">
					<dim>1</dim>
					<dim>96</dim>
					<dim>184</dim>
					<dim>328</dim>
				</port>
				<port id="1" precision="I64">
					<dim>3</dim>
				</port>
			</input>
			<output>
				<port id="2" precision="FP32" names="323">
					<dim>96</dim>
				</port>
			</output>
		</layer>
		<layer id="185" name="Unsqueeze_118/Dims" type="Const" version="opset1">
			<data element_type="i64" shape="1" offset="12960" size="8"/>
			<output>
				<port id="0" precision="I64">
					<dim>1</dim>
				</port>
			</output>
		</layer>
		<layer id="186" name="Unsqueeze_118/Unsqueeze" type="Unsqueeze" version="opset1">
			<input>
				<port id="0" precision="FP32">
					<dim>96</dim>
				</port>
				<port id="1" precision="I64">
					<dim>1</dim>
				</port>
			</input>
			<output>
				<port id="2" precision="FP32" names="343">
					<dim>96</dim>
					<dim>1</dim>
				</port>
			</output>
		</layer>
		<layer id="187" name="Unsqueeze_119/Dims" type="Const" version="opset1">
			<data element_type="i64" shape="1" offset="16456" size="8"/>
			<output>
				<port id="0" precision="I64">
					<dim>1</dim>
				</port>
			</output>
		</layer>
		<layer id="188" name="Unsqueeze_119/Unsqueeze" type="Unsqueeze" version="opset1">
			<input>
				<port id="0" precision="FP32">
					<dim>96</dim>
					<dim>1</dim>
				</port>
				<port id="1" precision="I64">
					<dim>1</dim>
				</port>
			</input>
			<output>
				<port id="2" precision="FP32">
					<dim>96</dim>
					<dim>1</dim>
					<dim>1</dim>
				</port>
			</output>
		</layer>
		<layer id="189" name="Sub_120/neg_/Negate" type="Negative" version="opset1">
			<input>
				<port id="0" precision="FP32">
					<dim>96</dim>
					<dim>1</dim>
					<dim>1</dim>
				</port>
			</input>
			<output>
				<port id="1" precision="FP32">
					<dim>96</dim>
					<dim>1</dim>
					<dim>1</dim>
				</port>
			</output>
		</layer>
		<layer id="190" name="Sub_120/neg_/EltwiseUnsqueeze_input_port_1/value2921470886" type="Const" version="opset1">
			<data element_type="i64" shape="1" offset="16464" size="8"/>
			<output>
				<port id="0" precision="I64">
					<dim>1</dim>
				</port>
			</output>
		</layer>
		<layer id="191" name="Sub_120/neg_/EltwiseUnsqueeze" type="Unsqueeze" version="opset1">
			<input>
				<port id="0" precision="FP32">
					<dim>96</dim>
					<dim>1</dim>
					<dim>1</dim>
				</port>
				<port id="1" precision="I64">
					<dim>1</dim>
				</port>
			</input>
			<output>
				<port id="2" precision="FP32" names="344">
					<dim>1</dim>
					<dim>96</dim>
					<dim>1</dim>
					<dim>1</dim>
				</port>
			</output>
		</layer>
		<layer id="192" name="Sub_120" type="Add" version="opset1">
			<data auto_broadcast="numpy"/>
			<input>
				<port id="0" precision="FP32">
					<dim>1</dim>
					<dim>96</dim>
					<dim>184</dim>
					<dim>328</dim>
				</port>
				<port id="1" precision="FP32">
					<dim>1</dim>
					<dim>96</dim>
					<dim>1</dim>
					<dim>1</dim>
				</port>
			</input>
			<output>
				<port id="2" precision="FP32" names="345">
					<dim>1</dim>
					<dim>96</dim>
					<dim>184</dim>
					<dim>328</dim>
				</port>
			</output>
		</layer>
		<layer id="193" name="Mul_121" type="Multiply" version="opset1">
			<data auto_broadcast="numpy"/>
			<input>
				<port id="0" precision="FP32">
					<dim>1</dim>
					<dim>96</dim>
					<dim>1</dim>
					<dim>1</dim>
				</port>
				<port id="1" precision="FP32">
					<dim>1</dim>
					<dim>96</dim>
					<dim>184</dim>
					<dim>328</dim>
				</port>
			</input>
			<output>
				<port id="2" precision="FP32" names="346">
					<dim>1</dim>
					<dim>96</dim>
					<dim>184</dim>
					<dim>328</dim>
				</port>
			</output>
		</layer>
		<layer id="194" name="ReduceMean_103/axis" type="Const" version="opset1">
			<data element_type="i64" shape="3" offset="16432" size="24"/>
			<output>
				<port id="0" precision="I64">
					<dim>3</dim>
				</port>
			</output>
		</layer>
		<layer id="195" name="ReduceMean_103" type="ReduceMean" version="opset1">
			<data keep_dims="true"/>
			<input>
				<port id="0" precision="FP32">
					<dim>1</dim>
					<dim>96</dim>
					<dim>184</dim>
					<dim>328</dim>
				</port>
				<port id="1" precision="I64">
					<dim>3</dim>
				</port>
			</input>
			<output>
				<port id="2" precision="FP32">
					<dim>1</dim>
					<dim>96</dim>
					<dim>1</dim>
					<dim>1</dim>
				</port>
			</output>
		</layer>
		<layer id="196" name="Sub_104/sub" type="Subtract" version="opset1">
			<data auto_broadcast="numpy"/>
			<input>
				<port id="0" precision="FP32">
					<dim>1</dim>
					<dim>96</dim>
					<dim>184</dim>
					<dim>328</dim>
				</port>
				<port id="1" precision="FP32">
					<dim>1</dim>
					<dim>96</dim>
					<dim>1</dim>
					<dim>1</dim>
				</port>
			</input>
			<output>
				<port id="2" precision="FP32" names="325">
					<dim>1</dim>
					<dim>96</dim>
					<dim>184</dim>
					<dim>328</dim>
				</port>
			</output>
		</layer>
		<layer id="197" name="Mul_105" type="Multiply" version="opset1">
			<data auto_broadcast="numpy"/>
			<input>
				<port id="0" precision="FP32">
					<dim>1</dim>
					<dim>96</dim>
					<dim>184</dim>
					<dim>328</dim>
				</port>
				<port id="1" precision="FP32">
					<dim>1</dim>
					<dim>96</dim>
					<dim>184</dim>
					<dim>328</dim>
				</port>
			</input>
			<output>
				<port id="2" precision="FP32" names="326">
					<dim>1</dim>
					<dim>96</dim>
					<dim>184</dim>
					<dim>328</dim>
				</port>
			</output>
		</layer>
		<layer id="198" name="ReduceMean_106/axis" type="Const" version="opset1">
			<data element_type="i64" shape="3" offset="16432" size="24"/>
			<output>
				<port id="0" precision="I64">
					<dim>3</dim>
				</port>
			</output>
		</layer>
		<layer id="199" name="ReduceMean_106" type="ReduceMean" version="opset1">
			<data keep_dims="false"/>
			<input>
				<port id="0" precision="FP32">
					<dim>1</dim>
					<dim>96</dim>
					<dim>184</dim>
					<dim>328</dim>
				</port>
				<port id="1" precision="I64">
					<dim>3</dim>
				</port>
			</input>
			<output>
				<port id="2" precision="FP32">
					<dim>96</dim>
				</port>
			</output>
		</layer>
		<layer id="200" name="1573" type="Const" version="opset1">
			<data element_type="f32" shape="1" offset="16472" size="4"/>
			<output>
				<port id="0" precision="FP32">
					<dim>1</dim>
				</port>
			</output>
		</layer>
		<layer id="201" name="Sqrt_107/pow_" type="Power" version="opset1">
			<data auto_broadcast="numpy"/>
			<input>
				<port id="0" precision="FP32">
					<dim>96</dim>
				</port>
				<port id="1" precision="FP32">
					<dim>1</dim>
				</port>
			</input>
			<output>
				<port id="2" precision="FP32" names="328">
					<dim>96</dim>
				</port>
			</output>
		</layer>
		<layer id="202" name="1747" type="Const" version="opset1">
			<data element_type="f32" shape="1" offset="16476" size="4"/>
			<output>
				<port id="0" precision="FP32" names="1747">
					<dim>1</dim>
				</port>
			</output>
		</layer>
		<layer id="203" name="Pow_108" type="Power" version="opset1">
			<data auto_broadcast="numpy"/>
			<input>
				<port id="0" precision="FP32">
					<dim>96</dim>
				</port>
				<port id="1" precision="FP32">
					<dim>1</dim>
				</port>
			</input>
			<output>
				<port id="2" precision="FP32" names="331">
					<dim>96</dim>
				</port>
			</output>
		</layer>
		<layer id="204" name="Unsqueeze_109/Dims" type="Const" version="opset1">
			<data element_type="i64" shape="1" offset="12960" size="8"/>
			<output>
				<port id="0" precision="I64">
					<dim>1</dim>
				</port>
			</output>
		</layer>
		<layer id="205" name="Unsqueeze_109/Unsqueeze" type="Unsqueeze" version="opset1">
			<input>
				<port id="0" precision="FP32">
					<dim>96</dim>
				</port>
				<port id="1" precision="I64">
					<dim>1</dim>
				</port>
			</input>
			<output>
				<port id="2" precision="FP32" names="332">
					<dim>96</dim>
					<dim>1</dim>
				</port>
			</output>
		</layer>
		<layer id="206" name="Unsqueeze_110/Dims" type="Const" version="opset1">
			<data element_type="i64" shape="1" offset="16456" size="8"/>
			<output>
				<port id="0" precision="I64">
					<dim>1</dim>
				</port>
			</output>
		</layer>
		<layer id="207" name="Unsqueeze_110/Unsqueeze" type="Unsqueeze" version="opset1">
			<input>
				<port id="0" precision="FP32">
					<dim>96</dim>
					<dim>1</dim>
				</port>
				<port id="1" precision="I64">
					<dim>1</dim>
				</port>
			</input>
			<output>
				<port id="2" precision="FP32" names="333">
					<dim>96</dim>
					<dim>1</dim>
					<dim>1</dim>
				</port>
			</output>
		</layer>
		<layer id="208" name="Constant_111" type="Const" version="opset1">
			<data element_type="f32" shape="1, 1, 1" offset="16480" size="4"/>
			<output>
				<port id="0" precision="FP32" names="334">
					<dim>1</dim>
					<dim>1</dim>
					<dim>1</dim>
				</port>
			</output>
		</layer>
		<layer id="209" name="Add_112" type="Add" version="opset1">
			<data auto_broadcast="numpy"/>
			<input>
				<port id="0" precision="FP32">
					<dim>96</dim>
					<dim>1</dim>
					<dim>1</dim>
				</port>
				<port id="1" precision="FP32">
					<dim>1</dim>
					<dim>1</dim>
					<dim>1</dim>
				</port>
			</input>
			<output>
				<port id="2" precision="FP32">
					<dim>96</dim>
					<dim>1</dim>
					<dim>1</dim>
				</port>
			</output>
		</layer>
		<layer id="210" name="1593" type="Const" version="opset1">
			<data element_type="f32" shape="1, 1, 1" offset="16472" size="4"/>
			<output>
				<port id="0" precision="FP32">
					<dim>1</dim>
					<dim>1</dim>
					<dim>1</dim>
				</port>
			</output>
		</layer>
		<layer id="211" name="Sqrt_113/pow_" type="Power" version="opset1">
			<data auto_broadcast="numpy"/>
			<input>
				<port id="0" precision="FP32">
					<dim>96</dim>
					<dim>1</dim>
					<dim>1</dim>
				</port>
				<port id="1" precision="FP32">
					<dim>1</dim>
					<dim>1</dim>
					<dim>1</dim>
				</port>
			</input>
			<output>
				<port id="2" precision="FP32">
					<dim>96</dim>
					<dim>1</dim>
					<dim>1</dim>
				</port>
			</output>
		</layer>
		<layer id="212" name="Div_115/reciprocal__input_port_1/value23949" type="Const" version="opset1">
			<data element_type="f32" shape="1, 1, 1" offset="12972" size="4"/>
			<output>
				<port id="0" precision="FP32">
					<dim>1</dim>
					<dim>1</dim>
					<dim>1</dim>
				</port>
			</output>
		</layer>
		<layer id="213" name="Div_115/reciprocal_" type="Power" version="opset1">
			<data auto_broadcast="numpy"/>
			<input>
				<port id="0" precision="FP32">
					<dim>96</dim>
					<dim>1</dim>
					<dim>1</dim>
				</port>
				<port id="1" precision="FP32">
					<dim>1</dim>
					<dim>1</dim>
					<dim>1</dim>
				</port>
			</input>
			<output>
				<port id="2" precision="FP32">
					<dim>96</dim>
					<dim>1</dim>
					<dim>1</dim>
				</port>
			</output>
		</layer>
		<layer id="214" name="Div_115/reciprocal_/EltwiseUnsqueeze_input_port_1/value2779070151" type="Const" version="opset1">
			<data element_type="i64" shape="1" offset="16464" size="8"/>
			<output>
				<port id="0" precision="I64">
					<dim>1</dim>
				</port>
			</output>
		</layer>
		<layer id="215" name="Div_115/reciprocal_/EltwiseUnsqueeze" type="Unsqueeze" version="opset1">
			<input>
				<port id="0" precision="FP32">
					<dim>96</dim>
					<dim>1</dim>
					<dim>1</dim>
				</port>
				<port id="1" precision="I64">
					<dim>1</dim>
				</port>
			</input>
			<output>
				<port id="2" precision="FP32" names="336,340">
					<dim>1</dim>
					<dim>96</dim>
					<dim>1</dim>
					<dim>1</dim>
				</port>
			</output>
		</layer>
		<layer id="216" name="Mul_122" type="Multiply" version="opset1">
			<data auto_broadcast="numpy"/>
			<input>
				<port id="0" precision="FP32">
					<dim>1</dim>
					<dim>96</dim>
					<dim>184</dim>
					<dim>328</dim>
				</port>
				<port id="1" precision="FP32">
					<dim>1</dim>
					<dim>96</dim>
					<dim>1</dim>
					<dim>1</dim>
				</port>
			</input>
			<output>
				<port id="2" precision="FP32" names="347">
					<dim>1</dim>
					<dim>96</dim>
					<dim>184</dim>
					<dim>328</dim>
				</port>
			</output>
		</layer>
		<layer id="217" name="1751" type="Const" version="opset1">
			<data element_type="f32" shape="1, 96, 1, 1" offset="29988" size="384"/>
			<output>
				<port id="0" precision="FP32" names="1751">
					<dim>1</dim>
					<dim>96</dim>
					<dim>1</dim>
					<dim>1</dim>
				</port>
			</output>
		</layer>
		<layer id="218" name="Add_123" type="Add" version="opset1">
			<data auto_broadcast="numpy"/>
			<input>
				<port id="0" precision="FP32">
					<dim>1</dim>
					<dim>96</dim>
					<dim>184</dim>
					<dim>328</dim>
				</port>
				<port id="1" precision="FP32">
					<dim>1</dim>
					<dim>96</dim>
					<dim>1</dim>
					<dim>1</dim>
				</port>
			</input>
			<output>
				<port id="2" precision="FP32" names="350">
					<dim>1</dim>
					<dim>96</dim>
					<dim>184</dim>
					<dim>328</dim>
				</port>
			</output>
		</layer>
		<layer id="219" name="Clip_126" type="Clamp" version="opset1">
			<data min="0" max="6"/>
			<input>
				<port id="0" precision="FP32">
					<dim>1</dim>
					<dim>96</dim>
					<dim>184</dim>
					<dim>328</dim>
				</port>
			</input>
			<output>
				<port id="1" precision="FP32" names="353">
					<dim>1</dim>
					<dim>96</dim>
					<dim>184</dim>
					<dim>328</dim>
				</port>
			</output>
		</layer>
		<layer id="220" name="impl.module.fpn.features.2.conv.6.weight" type="Const" version="opset1">
			<data element_type="f32" shape="24, 96, 1, 1" offset="30372" size="9216"/>
			<output>
				<port id="0" precision="FP32" names="impl.module.fpn.features.2.conv.6.weight">
					<dim>24</dim>
					<dim>96</dim>
					<dim>1</dim>
					<dim>1</dim>
				</port>
			</output>
		</layer>
		<layer id="221" name="Conv_127" type="Convolution" version="opset1">
			<data strides="1, 1" dilations="1, 1" pads_begin="0, 0" pads_end="0, 0" auto_pad="explicit"/>
			<input>
				<port id="0" precision="FP32">
					<dim>1</dim>
					<dim>96</dim>
					<dim>184</dim>
					<dim>328</dim>
				</port>
				<port id="1" precision="FP32">
					<dim>24</dim>
					<dim>96</dim>
					<dim>1</dim>
					<dim>1</dim>
				</port>
			</input>
			<output>
				<port id="2" precision="FP32" names="354">
					<dim>1</dim>
					<dim>24</dim>
					<dim>184</dim>
					<dim>328</dim>
				</port>
			</output>
		</layer>
		<layer id="222" name="ReduceMean_128/axis" type="Const" version="opset1">
			<data element_type="i64" shape="3" offset="16432" size="24"/>
			<output>
				<port id="0" precision="I64">
					<dim>3</dim>
				</port>
			</output>
		</layer>
		<layer id="223" name="ReduceMean_128" type="ReduceMean" version="opset1">
			<data keep_dims="false"/>
			<input>
				<port id="0" precision="FP32">
					<dim>1</dim>
					<dim>24</dim>
					<dim>184</dim>
					<dim>328</dim>
				</port>
				<port id="1" precision="I64">
					<dim>3</dim>
				</port>
			</input>
			<output>
				<port id="2" precision="FP32" names="355">
					<dim>24</dim>
				</port>
			</output>
		</layer>
		<layer id="224" name="Unsqueeze_144/Dims" type="Const" version="opset1">
			<data element_type="i64" shape="1" offset="12960" size="8"/>
			<output>
				<port id="0" precision="I64">
					<dim>1</dim>
				</port>
			</output>
		</layer>
		<layer id="225" name="Unsqueeze_144/Unsqueeze" type="Unsqueeze" version="opset1">
			<input>
				<port id="0" precision="FP32">
					<dim>24</dim>
				</port>
				<port id="1" precision="I64">
					<dim>1</dim>
				</port>
			</input>
			<output>
				<port id="2" precision="FP32" names="375">
					<dim>24</dim>
					<dim>1</dim>
				</port>
			</output>
		</layer>
		<layer id="226" name="Unsqueeze_145/Dims" type="Const" version="opset1">
			<data element_type="i64" shape="1" offset="16456" size="8"/>
			<output>
				<port id="0" precision="I64">
					<dim>1</dim>
				</port>
			</output>
		</layer>
		<layer id="227" name="Unsqueeze_145/Unsqueeze" type="Unsqueeze" version="opset1">
			<input>
				<port id="0" precision="FP32">
					<dim>24</dim>
					<dim>1</dim>
				</port>
				<port id="1" precision="I64">
					<dim>1</dim>
				</port>
			</input>
			<output>
				<port id="2" precision="FP32">
					<dim>24</dim>
					<dim>1</dim>
					<dim>1</dim>
				</port>
			</output>
		</layer>
		<layer id="228" name="Sub_146/neg_/Negate" type="Negative" version="opset1">
			<input>
				<port id="0" precision="FP32">
					<dim>24</dim>
					<dim>1</dim>
					<dim>1</dim>
				</port>
			</input>
			<output>
				<port id="1" precision="FP32">
					<dim>24</dim>
					<dim>1</dim>
					<dim>1</dim>
				</port>
			</output>
		</layer>
		<layer id="229" name="Sub_146/neg_/EltwiseUnsqueeze_input_port_1/value2922669593" type="Const" version="opset1">
			<data element_type="i64" shape="1" offset="16464" size="8"/>
			<output>
				<port id="0" precision="I64">
					<dim>1</dim>
				</port>
			</output>
		</layer>
		<layer id="230" name="Sub_146/neg_/EltwiseUnsqueeze" type="Unsqueeze" version="opset1">
			<input>
				<port id="0" precision="FP32">
					<dim>24</dim>
					<dim>1</dim>
					<dim>1</dim>
				</port>
				<port id="1" precision="I64">
					<dim>1</dim>
				</port>
			</input>
			<output>
				<port id="2" precision="FP32" names="376">
					<dim>1</dim>
					<dim>24</dim>
					<dim>1</dim>
					<dim>1</dim>
				</port>
			</output>
		</layer>
		<layer id="231" name="Sub_146" type="Add" version="opset1">
			<data auto_broadcast="numpy"/>
			<input>
				<port id="0" precision="FP32">
					<dim>1</dim>
					<dim>24</dim>
					<dim>184</dim>
					<dim>328</dim>
				</port>
				<port id="1" precision="FP32">
					<dim>1</dim>
					<dim>24</dim>
					<dim>1</dim>
					<dim>1</dim>
				</port>
			</input>
			<output>
				<port id="2" precision="FP32" names="377">
					<dim>1</dim>
					<dim>24</dim>
					<dim>184</dim>
					<dim>328</dim>
				</port>
			</output>
		</layer>
		<layer id="232" name="Mul_147" type="Multiply" version="opset1">
			<data auto_broadcast="numpy"/>
			<input>
				<port id="0" precision="FP32">
					<dim>1</dim>
					<dim>24</dim>
					<dim>1</dim>
					<dim>1</dim>
				</port>
				<port id="1" precision="FP32">
					<dim>1</dim>
					<dim>24</dim>
					<dim>184</dim>
					<dim>328</dim>
				</port>
			</input>
			<output>
				<port id="2" precision="FP32" names="378">
					<dim>1</dim>
					<dim>24</dim>
					<dim>184</dim>
					<dim>328</dim>
				</port>
			</output>
		</layer>
		<layer id="233" name="ReduceMean_129/axis" type="Const" version="opset1">
			<data element_type="i64" shape="3" offset="16432" size="24"/>
			<output>
				<port id="0" precision="I64">
					<dim>3</dim>
				</port>
			</output>
		</layer>
		<layer id="234" name="ReduceMean_129" type="ReduceMean" version="opset1">
			<data keep_dims="true"/>
			<input>
				<port id="0" precision="FP32">
					<dim>1</dim>
					<dim>24</dim>
					<dim>184</dim>
					<dim>328</dim>
				</port>
				<port id="1" precision="I64">
					<dim>3</dim>
				</port>
			</input>
			<output>
				<port id="2" precision="FP32">
					<dim>1</dim>
					<dim>24</dim>
					<dim>1</dim>
					<dim>1</dim>
				</port>
			</output>
		</layer>
		<layer id="235" name="Sub_130/sub" type="Subtract" version="opset1">
			<data auto_broadcast="numpy"/>
			<input>
				<port id="0" precision="FP32">
					<dim>1</dim>
					<dim>24</dim>
					<dim>184</dim>
					<dim>328</dim>
				</port>
				<port id="1" precision="FP32">
					<dim>1</dim>
					<dim>24</dim>
					<dim>1</dim>
					<dim>1</dim>
				</port>
			</input>
			<output>
				<port id="2" precision="FP32" names="357">
					<dim>1</dim>
					<dim>24</dim>
					<dim>184</dim>
					<dim>328</dim>
				</port>
			</output>
		</layer>
		<layer id="236" name="Mul_131" type="Multiply" version="opset1">
			<data auto_broadcast="numpy"/>
			<input>
				<port id="0" precision="FP32">
					<dim>1</dim>
					<dim>24</dim>
					<dim>184</dim>
					<dim>328</dim>
				</port>
				<port id="1" precision="FP32">
					<dim>1</dim>
					<dim>24</dim>
					<dim>184</dim>
					<dim>328</dim>
				</port>
			</input>
			<output>
				<port id="2" precision="FP32" names="358">
					<dim>1</dim>
					<dim>24</dim>
					<dim>184</dim>
					<dim>328</dim>
				</port>
			</output>
		</layer>
		<layer id="237" name="ReduceMean_132/axis" type="Const" version="opset1">
			<data element_type="i64" shape="3" offset="16432" size="24"/>
			<output>
				<port id="0" precision="I64">
					<dim>3</dim>
				</port>
			</output>
		</layer>
		<layer id="238" name="ReduceMean_132" type="ReduceMean" version="opset1">
			<data keep_dims="false"/>
			<input>
				<port id="0" precision="FP32">
					<dim>1</dim>
					<dim>24</dim>
					<dim>184</dim>
					<dim>328</dim>
				</port>
				<port id="1" precision="I64">
					<dim>3</dim>
				</port>
			</input>
			<output>
				<port id="2" precision="FP32">
					<dim>24</dim>
				</port>
			</output>
		</layer>
		<layer id="239" name="1671" type="Const" version="opset1">
			<data element_type="f32" shape="1" offset="16472" size="4"/>
			<output>
				<port id="0" precision="FP32">
					<dim>1</dim>
				</port>
			</output>
		</layer>
		<layer id="240" name="Sqrt_133/pow_" type="Power" version="opset1">
			<data auto_broadcast="numpy"/>
			<input>
				<port id="0" precision="FP32">
					<dim>24</dim>
				</port>
				<port id="1" precision="FP32">
					<dim>1</dim>
				</port>
			</input>
			<output>
				<port id="2" precision="FP32" names="360">
					<dim>24</dim>
				</port>
			</output>
		</layer>
		<layer id="241" name="1752" type="Const" version="opset1">
			<data element_type="f32" shape="1" offset="16476" size="4"/>
			<output>
				<port id="0" precision="FP32" names="1752">
					<dim>1</dim>
				</port>
			</output>
		</layer>
		<layer id="242" name="Pow_134" type="Power" version="opset1">
			<data auto_broadcast="numpy"/>
			<input>
				<port id="0" precision="FP32">
					<dim>24</dim>
				</port>
				<port id="1" precision="FP32">
					<dim>1</dim>
				</port>
			</input>
			<output>
				<port id="2" precision="FP32" names="363">
					<dim>24</dim>
				</port>
			</output>
		</layer>
		<layer id="243" name="Unsqueeze_135/Dims" type="Const" version="opset1">
			<data element_type="i64" shape="1" offset="12960" size="8"/>
			<output>
				<port id="0" precision="I64">
					<dim>1</dim>
				</port>
			</output>
		</layer>
		<layer id="244" name="Unsqueeze_135/Unsqueeze" type="Unsqueeze" version="opset1">
			<input>
				<port id="0" precision="FP32">
					<dim>24</dim>
				</port>
				<port id="1" precision="I64">
					<dim>1</dim>
				</port>
			</input>
			<output>
				<port id="2" precision="FP32" names="364">
					<dim>24</dim>
					<dim>1</dim>
				</port>
			</output>
		</layer>
		<layer id="245" name="Unsqueeze_136/Dims" type="Const" version="opset1">
			<data element_type="i64" shape="1" offset="16456" size="8"/>
			<output>
				<port id="0" precision="I64">
					<dim>1</dim>
				</port>
			</output>
		</layer>
		<layer id="246" name="Unsqueeze_136/Unsqueeze" type="Unsqueeze" version="opset1">
			<input>
				<port id="0" precision="FP32">
					<dim>24</dim>
					<dim>1</dim>
				</port>
				<port id="1" precision="I64">
					<dim>1</dim>
				</port>
			</input>
			<output>
				<port id="2" precision="FP32" names="365">
					<dim>24</dim>
					<dim>1</dim>
					<dim>1</dim>
				</port>
			</output>
		</layer>
		<layer id="247" name="Constant_137" type="Const" version="opset1">
			<data element_type="f32" shape="1, 1, 1" offset="16480" size="4"/>
			<output>
				<port id="0" precision="FP32" names="366">
					<dim>1</dim>
					<dim>1</dim>
					<dim>1</dim>
				</port>
			</output>
		</layer>
		<layer id="248" name="Add_138" type="Add" version="opset1">
			<data auto_broadcast="numpy"/>
			<input>
				<port id="0" precision="FP32">
					<dim>24</dim>
					<dim>1</dim>
					<dim>1</dim>
				</port>
				<port id="1" precision="FP32">
					<dim>1</dim>
					<dim>1</dim>
					<dim>1</dim>
				</port>
			</input>
			<output>
				<port id="2" precision="FP32">
					<dim>24</dim>
					<dim>1</dim>
					<dim>1</dim>
				</port>
			</output>
		</layer>
		<layer id="249" name="1637" type="Const" version="opset1">
			<data element_type="f32" shape="1, 1, 1" offset="16472" size="4"/>
			<output>
				<port id="0" precision="FP32">
					<dim>1</dim>
					<dim>1</dim>
					<dim>1</dim>
				</port>
			</output>
		</layer>
		<layer id="250" name="Sqrt_139/pow_" type="Power" version="opset1">
			<data auto_broadcast="numpy"/>
			<input>
				<port id="0" precision="FP32">
					<dim>24</dim>
					<dim>1</dim>
					<dim>1</dim>
				</port>
				<port id="1" precision="FP32">
					<dim>1</dim>
					<dim>1</dim>
					<dim>1</dim>
				</port>
			</input>
			<output>
				<port id="2" precision="FP32">
					<dim>24</dim>
					<dim>1</dim>
					<dim>1</dim>
				</port>
			</output>
		</layer>
		<layer id="251" name="Div_141/reciprocal__input_port_1/value23955" type="Const" version="opset1">
			<data element_type="f32" shape="1, 1, 1" offset="12972" size="4"/>
			<output>
				<port id="0" precision="FP32">
					<dim>1</dim>
					<dim>1</dim>
					<dim>1</dim>
				</port>
			</output>
		</layer>
		<layer id="252" name="Div_141/reciprocal_" type="Power" version="opset1">
			<data auto_broadcast="numpy"/>
			<input>
				<port id="0" precision="FP32">
					<dim>24</dim>
					<dim>1</dim>
					<dim>1</dim>
				</port>
				<port id="1" precision="FP32">
					<dim>1</dim>
					<dim>1</dim>
					<dim>1</dim>
				</port>
			</input>
			<output>
				<port id="2" precision="FP32">
					<dim>24</dim>
					<dim>1</dim>
					<dim>1</dim>
				</port>
			</output>
		</layer>
		<layer id="253" name="Div_141/reciprocal_/EltwiseUnsqueeze_input_port_1/value2781069203" type="Const" version="opset1">
			<data element_type="i64" shape="1" offset="16464" size="8"/>
			<output>
				<port id="0" precision="I64">
					<dim>1</dim>
				</port>
			</output>
		</layer>
		<layer id="254" name="Div_141/reciprocal_/EltwiseUnsqueeze" type="Unsqueeze" version="opset1">
			<input>
				<port id="0" precision="FP32">
					<dim>24</dim>
					<dim>1</dim>
					<dim>1</dim>
				</port>
				<port id="1" precision="I64">
					<dim>1</dim>
				</port>
			</input>
			<output>
				<port id="2" precision="FP32" names="368,372">
					<dim>1</dim>
					<dim>24</dim>
					<dim>1</dim>
					<dim>1</dim>
				</port>
			</output>
		</layer>
		<layer id="255" name="Mul_148" type="Multiply" version="opset1">
			<data auto_broadcast="numpy"/>
			<input>
				<port id="0" precision="FP32">
					<dim>1</dim>
					<dim>24</dim>
					<dim>184</dim>
					<dim>328</dim>
				</port>
				<port id="1" precision="FP32">
					<dim>1</dim>
					<dim>24</dim>
					<dim>1</dim>
					<dim>1</dim>
				</port>
			</input>
			<output>
				<port id="2" precision="FP32" names="379">
					<dim>1</dim>
					<dim>24</dim>
					<dim>184</dim>
					<dim>328</dim>
				</port>
			</output>
		</layer>
		<layer id="256" name="1756" type="Const" version="opset1">
			<data element_type="f32" shape="1, 24, 1, 1" offset="39588" size="96"/>
			<output>
				<port id="0" precision="FP32" names="1756">
					<dim>1</dim>
					<dim>24</dim>
					<dim>1</dim>
					<dim>1</dim>
				</port>
			</output>
		</layer>
		<layer id="257" name="Add_149" type="Add" version="opset1">
			<data auto_broadcast="numpy"/>
			<input>
				<port id="0" precision="FP32">
					<dim>1</dim>
					<dim>24</dim>
					<dim>184</dim>
					<dim>328</dim>
				</port>
				<port id="1" precision="FP32">
					<dim>1</dim>
					<dim>24</dim>
					<dim>1</dim>
					<dim>1</dim>
				</port>
			</input>
			<output>
				<port id="2" precision="FP32" names="382">
					<dim>1</dim>
					<dim>24</dim>
					<dim>184</dim>
					<dim>328</dim>
				</port>
			</output>
		</layer>
		<layer id="258" name="1769" type="Const" version="opset1">
			<data element_type="f32" shape="1, 24, 1, 1" offset="39684" size="96"/>
			<output>
				<port id="0" precision="FP32" names="1769">
					<dim>1</dim>
					<dim>24</dim>
					<dim>1</dim>
					<dim>1</dim>
				</port>
			</output>
		</layer>
		<layer id="259" name="1764" type="Const" version="opset1">
			<data element_type="f32" shape="1, 144, 1, 1" offset="39780" size="576"/>
			<output>
				<port id="0" precision="FP32" names="1764">
					<dim>1</dim>
					<dim>144</dim>
					<dim>1</dim>
					<dim>1</dim>
				</port>
			</output>
		</layer>
		<layer id="260" name="1759" type="Const" version="opset1">
			<data element_type="f32" shape="1, 144, 1, 1" offset="40356" size="576"/>
			<output>
				<port id="0" precision="FP32" names="1759">
					<dim>1</dim>
					<dim>144</dim>
					<dim>1</dim>
					<dim>1</dim>
				</port>
			</output>
		</layer>
		<layer id="261" name="impl.module.fpn.features.3.conv.0.weight" type="Const" version="opset1">
			<data element_type="f32" shape="144, 24, 1, 1" offset="40932" size="13824"/>
			<output>
				<port id="0" precision="FP32" names="impl.module.fpn.features.3.conv.0.weight">
					<dim>144</dim>
					<dim>24</dim>
					<dim>1</dim>
					<dim>1</dim>
				</port>
			</output>
		</layer>
		<layer id="262" name="Conv_150" type="Convolution" version="opset1">
			<data strides="1, 1" dilations="1, 1" pads_begin="0, 0" pads_end="0, 0" auto_pad="explicit"/>
			<input>
				<port id="0" precision="FP32">
					<dim>1</dim>
					<dim>24</dim>
					<dim>184</dim>
					<dim>328</dim>
				</port>
				<port id="1" precision="FP32">
					<dim>144</dim>
					<dim>24</dim>
					<dim>1</dim>
					<dim>1</dim>
				</port>
			</input>
			<output>
				<port id="2" precision="FP32" names="383">
					<dim>1</dim>
					<dim>144</dim>
					<dim>184</dim>
					<dim>328</dim>
				</port>
			</output>
		</layer>
		<layer id="263" name="ReduceMean_151/axis" type="Const" version="opset1">
			<data element_type="i64" shape="3" offset="16432" size="24"/>
			<output>
				<port id="0" precision="I64">
					<dim>3</dim>
				</port>
			</output>
		</layer>
		<layer id="264" name="ReduceMean_151" type="ReduceMean" version="opset1">
			<data keep_dims="false"/>
			<input>
				<port id="0" precision="FP32">
					<dim>1</dim>
					<dim>144</dim>
					<dim>184</dim>
					<dim>328</dim>
				</port>
				<port id="1" precision="I64">
					<dim>3</dim>
				</port>
			</input>
			<output>
				<port id="2" precision="FP32" names="384">
					<dim>144</dim>
				</port>
			</output>
		</layer>
		<layer id="265" name="Unsqueeze_167/Dims" type="Const" version="opset1">
			<data element_type="i64" shape="1" offset="12960" size="8"/>
			<output>
				<port id="0" precision="I64">
					<dim>1</dim>
				</port>
			</output>
		</layer>
		<layer id="266" name="Unsqueeze_167/Unsqueeze" type="Unsqueeze" version="opset1">
			<input>
				<port id="0" precision="FP32">
					<dim>144</dim>
				</port>
				<port id="1" precision="I64">
					<dim>1</dim>
				</port>
			</input>
			<output>
				<port id="2" precision="FP32" names="404">
					<dim>144</dim>
					<dim>1</dim>
				</port>
			</output>
		</layer>
		<layer id="267" name="Unsqueeze_168/Dims" type="Const" version="opset1">
			<data element_type="i64" shape="1" offset="16456" size="8"/>
			<output>
				<port id="0" precision="I64">
					<dim>1</dim>
				</port>
			</output>
		</layer>
		<layer id="268" name="Unsqueeze_168/Unsqueeze" type="Unsqueeze" version="opset1">
			<input>
				<port id="0" precision="FP32">
					<dim>144</dim>
					<dim>1</dim>
				</port>
				<port id="1" precision="I64">
					<dim>1</dim>
				</port>
			</input>
			<output>
				<port id="2" precision="FP32">
					<dim>144</dim>
					<dim>1</dim>
					<dim>1</dim>
				</port>
			</output>
		</layer>
		<layer id="269" name="Sub_169/neg_/Negate" type="Negative" version="opset1">
			<input>
				<port id="0" precision="FP32">
					<dim>144</dim>
					<dim>1</dim>
					<dim>1</dim>
				</port>
			</input>
			<output>
				<port id="1" precision="FP32">
					<dim>144</dim>
					<dim>1</dim>
					<dim>1</dim>
				</port>
			</output>
		</layer>
		<layer id="270" name="Sub_169/neg_/EltwiseUnsqueeze_input_port_1/value2923869635" type="Const" version="opset1">
			<data element_type="i64" shape="1" offset="16464" size="8"/>
			<output>
				<port id="0" precision="I64">
					<dim>1</dim>
				</port>
			</output>
		</layer>
		<layer id="271" name="Sub_169/neg_/EltwiseUnsqueeze" type="Unsqueeze" version="opset1">
			<input>
				<port id="0" precision="FP32">
					<dim>144</dim>
					<dim>1</dim>
					<dim>1</dim>
				</port>
				<port id="1" precision="I64">
					<dim>1</dim>
				</port>
			</input>
			<output>
				<port id="2" precision="FP32" names="405">
					<dim>1</dim>
					<dim>144</dim>
					<dim>1</dim>
					<dim>1</dim>
				</port>
			</output>
		</layer>
		<layer id="272" name="Sub_169" type="Add" version="opset1">
			<data auto_broadcast="numpy"/>
			<input>
				<port id="0" precision="FP32">
					<dim>1</dim>
					<dim>144</dim>
					<dim>184</dim>
					<dim>328</dim>
				</port>
				<port id="1" precision="FP32">
					<dim>1</dim>
					<dim>144</dim>
					<dim>1</dim>
					<dim>1</dim>
				</port>
			</input>
			<output>
				<port id="2" precision="FP32" names="406">
					<dim>1</dim>
					<dim>144</dim>
					<dim>184</dim>
					<dim>328</dim>
				</port>
			</output>
		</layer>
		<layer id="273" name="Mul_170" type="Multiply" version="opset1">
			<data auto_broadcast="numpy"/>
			<input>
				<port id="0" precision="FP32">
					<dim>1</dim>
					<dim>144</dim>
					<dim>1</dim>
					<dim>1</dim>
				</port>
				<port id="1" precision="FP32">
					<dim>1</dim>
					<dim>144</dim>
					<dim>184</dim>
					<dim>328</dim>
				</port>
			</input>
			<output>
				<port id="2" precision="FP32" names="407">
					<dim>1</dim>
					<dim>144</dim>
					<dim>184</dim>
					<dim>328</dim>
				</port>
			</output>
		</layer>
		<layer id="274" name="ReduceMean_152/axis" type="Const" version="opset1">
			<data element_type="i64" shape="3" offset="16432" size="24"/>
			<output>
				<port id="0" precision="I64">
					<dim>3</dim>
				</port>
			</output>
		</layer>
		<layer id="275" name="ReduceMean_152" type="ReduceMean" version="opset1">
			<data keep_dims="true"/>
			<input>
				<port id="0" precision="FP32">
					<dim>1</dim>
					<dim>144</dim>
					<dim>184</dim>
					<dim>328</dim>
				</port>
				<port id="1" precision="I64">
					<dim>3</dim>
				</port>
			</input>
			<output>
				<port id="2" precision="FP32">
					<dim>1</dim>
					<dim>144</dim>
					<dim>1</dim>
					<dim>1</dim>
				</port>
			</output>
		</layer>
		<layer id="276" name="Sub_153/sub" type="Subtract" version="opset1">
			<data auto_broadcast="numpy"/>
			<input>
				<port id="0" precision="FP32">
					<dim>1</dim>
					<dim>144</dim>
					<dim>184</dim>
					<dim>328</dim>
				</port>
				<port id="1" precision="FP32">
					<dim>1</dim>
					<dim>144</dim>
					<dim>1</dim>
					<dim>1</dim>
				</port>
			</input>
			<output>
				<port id="2" precision="FP32" names="386">
					<dim>1</dim>
					<dim>144</dim>
					<dim>184</dim>
					<dim>328</dim>
				</port>
			</output>
		</layer>
		<layer id="277" name="Mul_154" type="Multiply" version="opset1">
			<data auto_broadcast="numpy"/>
			<input>
				<port id="0" precision="FP32">
					<dim>1</dim>
					<dim>144</dim>
					<dim>184</dim>
					<dim>328</dim>
				</port>
				<port id="1" precision="FP32">
					<dim>1</dim>
					<dim>144</dim>
					<dim>184</dim>
					<dim>328</dim>
				</port>
			</input>
			<output>
				<port id="2" precision="FP32" names="387">
					<dim>1</dim>
					<dim>144</dim>
					<dim>184</dim>
					<dim>328</dim>
				</port>
			</output>
		</layer>
		<layer id="278" name="ReduceMean_155/axis" type="Const" version="opset1">
			<data element_type="i64" shape="3" offset="16432" size="24"/>
			<output>
				<port id="0" precision="I64">
					<dim>3</dim>
				</port>
			</output>
		</layer>
		<layer id="279" name="ReduceMean_155" type="ReduceMean" version="opset1">
			<data keep_dims="false"/>
			<input>
				<port id="0" precision="FP32">
					<dim>1</dim>
					<dim>144</dim>
					<dim>184</dim>
					<dim>328</dim>
				</port>
				<port id="1" precision="I64">
					<dim>3</dim>
				</port>
			</input>
			<output>
				<port id="2" precision="FP32">
					<dim>144</dim>
				</port>
			</output>
		</layer>
		<layer id="280" name="1601" type="Const" version="opset1">
			<data element_type="f32" shape="1" offset="16472" size="4"/>
			<output>
				<port id="0" precision="FP32">
					<dim>1</dim>
				</port>
			</output>
		</layer>
		<layer id="281" name="Sqrt_156/pow_" type="Power" version="opset1">
			<data auto_broadcast="numpy"/>
			<input>
				<port id="0" precision="FP32">
					<dim>144</dim>
				</port>
				<port id="1" precision="FP32">
					<dim>1</dim>
				</port>
			</input>
			<output>
				<port id="2" precision="FP32" names="389">
					<dim>144</dim>
				</port>
			</output>
		</layer>
		<layer id="282" name="1757" type="Const" version="opset1">
			<data element_type="f32" shape="1" offset="16476" size="4"/>
			<output>
				<port id="0" precision="FP32" names="1757">
					<dim>1</dim>
				</port>
			</output>
		</layer>
		<layer id="283" name="Pow_157" type="Power" version="opset1">
			<data auto_broadcast="numpy"/>
			<input>
				<port id="0" precision="FP32">
					<dim>144</dim>
				</port>
				<port id="1" precision="FP32">
					<dim>1</dim>
				</port>
			</input>
			<output>
				<port id="2" precision="FP32" names="392">
					<dim>144</dim>
				</port>
			</output>
		</layer>
		<layer id="284" name="Unsqueeze_158/Dims" type="Const" version="opset1">
			<data element_type="i64" shape="1" offset="12960" size="8"/>
			<output>
				<port id="0" precision="I64">
					<dim>1</dim>
				</port>
			</output>
		</layer>
		<layer id="285" name="Unsqueeze_158/Unsqueeze" type="Unsqueeze" version="opset1">
			<input>
				<port id="0" precision="FP32">
					<dim>144</dim>
				</port>
				<port id="1" precision="I64">
					<dim>1</dim>
				</port>
			</input>
			<output>
				<port id="2" precision="FP32" names="393">
					<dim>144</dim>
					<dim>1</dim>
				</port>
			</output>
		</layer>
		<layer id="286" name="Unsqueeze_159/Dims" type="Const" version="opset1">
			<data element_type="i64" shape="1" offset="16456" size="8"/>
			<output>
				<port id="0" precision="I64">
					<dim>1</dim>
				</port>
			</output>
		</layer>
		<layer id="287" name="Unsqueeze_159/Unsqueeze" type="Unsqueeze" version="opset1">
			<input>
				<port id="0" precision="FP32">
					<dim>144</dim>
					<dim>1</dim>
				</port>
				<port id="1" precision="I64">
					<dim>1</dim>
				</port>
			</input>
			<output>
				<port id="2" precision="FP32" names="394">
					<dim>144</dim>
					<dim>1</dim>
					<dim>1</dim>
				</port>
			</output>
		</layer>
		<layer id="288" name="Constant_160" type="Const" version="opset1">
			<data element_type="f32" shape="1, 1, 1" offset="16480" size="4"/>
			<output>
				<port id="0" precision="FP32" names="395">
					<dim>1</dim>
					<dim>1</dim>
					<dim>1</dim>
				</port>
			</output>
		</layer>
		<layer id="289" name="Add_161" type="Add" version="opset1">
			<data auto_broadcast="numpy"/>
			<input>
				<port id="0" precision="FP32">
					<dim>144</dim>
					<dim>1</dim>
					<dim>1</dim>
				</port>
				<port id="1" precision="FP32">
					<dim>1</dim>
					<dim>1</dim>
					<dim>1</dim>
				</port>
			</input>
			<output>
				<port id="2" precision="FP32">
					<dim>144</dim>
					<dim>1</dim>
					<dim>1</dim>
				</port>
			</output>
		</layer>
		<layer id="290" name="1587" type="Const" version="opset1">
			<data element_type="f32" shape="1, 1, 1" offset="16472" size="4"/>
			<output>
				<port id="0" precision="FP32">
					<dim>1</dim>
					<dim>1</dim>
					<dim>1</dim>
				</port>
			</output>
		</layer>
		<layer id="291" name="Sqrt_162/pow_" type="Power" version="opset1">
			<data auto_broadcast="numpy"/>
			<input>
				<port id="0" precision="FP32">
					<dim>144</dim>
					<dim>1</dim>
					<dim>1</dim>
				</port>
				<port id="1" precision="FP32">
					<dim>1</dim>
					<dim>1</dim>
					<dim>1</dim>
				</port>
			</input>
			<output>
				<port id="2" precision="FP32">
					<dim>144</dim>
					<dim>1</dim>
					<dim>1</dim>
				</port>
			</output>
		</layer>
		<layer id="292" name="Div_164/reciprocal__input_port_1/value23961" type="Const" version="opset1">
			<data element_type="f32" shape="1, 1, 1" offset="12972" size="4"/>
			<output>
				<port id="0" precision="FP32">
					<dim>1</dim>
					<dim>1</dim>
					<dim>1</dim>
				</port>
			</output>
		</layer>
		<layer id="293" name="Div_164/reciprocal_" type="Power" version="opset1">
			<data auto_broadcast="numpy"/>
			<input>
				<port id="0" precision="FP32">
					<dim>144</dim>
					<dim>1</dim>
					<dim>1</dim>
				</port>
				<port id="1" precision="FP32">
					<dim>1</dim>
					<dim>1</dim>
					<dim>1</dim>
				</port>
			</input>
			<output>
				<port id="2" precision="FP32">
					<dim>144</dim>
					<dim>1</dim>
					<dim>1</dim>
				</port>
			</output>
		</layer>
		<layer id="294" name="Div_164/reciprocal_/EltwiseUnsqueeze_input_port_1/value2783069500" type="Const" version="opset1">
			<data element_type="i64" shape="1" offset="16464" size="8"/>
			<output>
				<port id="0" precision="I64">
					<dim>1</dim>
				</port>
			</output>
		</layer>
		<layer id="295" name="Div_164/reciprocal_/EltwiseUnsqueeze" type="Unsqueeze" version="opset1">
			<input>
				<port id="0" precision="FP32">
					<dim>144</dim>
					<dim>1</dim>
					<dim>1</dim>
				</port>
				<port id="1" precision="I64">
					<dim>1</dim>
				</port>
			</input>
			<output>
				<port id="2" precision="FP32" names="397,401">
					<dim>1</dim>
					<dim>144</dim>
					<dim>1</dim>
					<dim>1</dim>
				</port>
			</output>
		</layer>
		<layer id="296" name="Mul_171" type="Multiply" version="opset1">
			<data auto_broadcast="numpy"/>
			<input>
				<port id="0" precision="FP32">
					<dim>1</dim>
					<dim>144</dim>
					<dim>184</dim>
					<dim>328</dim>
				</port>
				<port id="1" precision="FP32">
					<dim>1</dim>
					<dim>144</dim>
					<dim>1</dim>
					<dim>1</dim>
				</port>
			</input>
			<output>
				<port id="2" precision="FP32" names="408">
					<dim>1</dim>
					<dim>144</dim>
					<dim>184</dim>
					<dim>328</dim>
				</port>
			</output>
		</layer>
		<layer id="297" name="1761" type="Const" version="opset1">
			<data element_type="f32" shape="1, 144, 1, 1" offset="54756" size="576"/>
			<output>
				<port id="0" precision="FP32" names="1761">
					<dim>1</dim>
					<dim>144</dim>
					<dim>1</dim>
					<dim>1</dim>
				</port>
			</output>
		</layer>
		<layer id="298" name="Add_172" type="Add" version="opset1">
			<data auto_broadcast="numpy"/>
			<input>
				<port id="0" precision="FP32">
					<dim>1</dim>
					<dim>144</dim>
					<dim>184</dim>
					<dim>328</dim>
				</port>
				<port id="1" precision="FP32">
					<dim>1</dim>
					<dim>144</dim>
					<dim>1</dim>
					<dim>1</dim>
				</port>
			</input>
			<output>
				<port id="2" precision="FP32" names="411">
					<dim>1</dim>
					<dim>144</dim>
					<dim>184</dim>
					<dim>328</dim>
				</port>
			</output>
		</layer>
		<layer id="299" name="Clip_175" type="Clamp" version="opset1">
			<data min="0" max="6"/>
			<input>
				<port id="0" precision="FP32">
					<dim>1</dim>
					<dim>144</dim>
					<dim>184</dim>
					<dim>328</dim>
				</port>
			</input>
			<output>
				<port id="1" precision="FP32" names="414">
					<dim>1</dim>
					<dim>144</dim>
					<dim>184</dim>
					<dim>328</dim>
				</port>
			</output>
		</layer>
		<layer id="300" name="impl.module.fpn.features.3.conv.3.weight" type="Const" version="opset1">
			<data element_type="f32" shape="144, 1, 1, 3, 3" offset="55332" size="5184"/>
			<output>
				<port id="0" precision="FP32" names="impl.module.fpn.features.3.conv.3.weight">
					<dim>144</dim>
					<dim>1</dim>
					<dim>1</dim>
					<dim>3</dim>
					<dim>3</dim>
				</port>
			</output>
		</layer>
		<layer id="301" name="Conv_176" type="GroupConvolution" version="opset1">
			<data strides="1, 1" pads_begin="1, 1" pads_end="1, 1" dilations="1, 1" auto_pad="explicit"/>
			<input>
				<port id="0" precision="FP32">
					<dim>1</dim>
					<dim>144</dim>
					<dim>184</dim>
					<dim>328</dim>
				</port>
				<port id="1" precision="FP32">
					<dim>144</dim>
					<dim>1</dim>
					<dim>1</dim>
					<dim>3</dim>
					<dim>3</dim>
				</port>
			</input>
			<output>
				<port id="2" precision="FP32" names="415">
					<dim>1</dim>
					<dim>144</dim>
					<dim>184</dim>
					<dim>328</dim>
				</port>
			</output>
		</layer>
		<layer id="302" name="ReduceMean_177/axis" type="Const" version="opset1">
			<data element_type="i64" shape="3" offset="16432" size="24"/>
			<output>
				<port id="0" precision="I64">
					<dim>3</dim>
				</port>
			</output>
		</layer>
		<layer id="303" name="ReduceMean_177" type="ReduceMean" version="opset1">
			<data keep_dims="false"/>
			<input>
				<port id="0" precision="FP32">
					<dim>1</dim>
					<dim>144</dim>
					<dim>184</dim>
					<dim>328</dim>
				</port>
				<port id="1" precision="I64">
					<dim>3</dim>
				</port>
			</input>
			<output>
				<port id="2" precision="FP32" names="416">
					<dim>144</dim>
				</port>
			</output>
		</layer>
		<layer id="304" name="Unsqueeze_193/Dims" type="Const" version="opset1">
			<data element_type="i64" shape="1" offset="12960" size="8"/>
			<output>
				<port id="0" precision="I64">
					<dim>1</dim>
				</port>
			</output>
		</layer>
		<layer id="305" name="Unsqueeze_193/Unsqueeze" type="Unsqueeze" version="opset1">
			<input>
				<port id="0" precision="FP32">
					<dim>144</dim>
				</port>
				<port id="1" precision="I64">
					<dim>1</dim>
				</port>
			</input>
			<output>
				<port id="2" precision="FP32" names="436">
					<dim>144</dim>
					<dim>1</dim>
				</port>
			</output>
		</layer>
		<layer id="306" name="Unsqueeze_194/Dims" type="Const" version="opset1">
			<data element_type="i64" shape="1" offset="16456" size="8"/>
			<output>
				<port id="0" precision="I64">
					<dim>1</dim>
				</port>
			</output>
		</layer>
		<layer id="307" name="Unsqueeze_194/Unsqueeze" type="Unsqueeze" version="opset1">
			<input>
				<port id="0" precision="FP32">
					<dim>144</dim>
					<dim>1</dim>
				</port>
				<port id="1" precision="I64">
					<dim>1</dim>
				</port>
			</input>
			<output>
				<port id="2" precision="FP32">
					<dim>144</dim>
					<dim>1</dim>
					<dim>1</dim>
				</port>
			</output>
		</layer>
		<layer id="308" name="Sub_195/neg_/Negate" type="Negative" version="opset1">
			<input>
				<port id="0" precision="FP32">
					<dim>144</dim>
					<dim>1</dim>
					<dim>1</dim>
				</port>
			</input>
			<output>
				<port id="1" precision="FP32">
					<dim>144</dim>
					<dim>1</dim>
					<dim>1</dim>
				</port>
			</output>
		</layer>
		<layer id="309" name="Sub_195/neg_/EltwiseUnsqueeze_input_port_1/value2925071411" type="Const" version="opset1">
			<data element_type="i64" shape="1" offset="16464" size="8"/>
			<output>
				<port id="0" precision="I64">
					<dim>1</dim>
				</port>
			</output>
		</layer>
		<layer id="310" name="Sub_195/neg_/EltwiseUnsqueeze" type="Unsqueeze" version="opset1">
			<input>
				<port id="0" precision="FP32">
					<dim>144</dim>
					<dim>1</dim>
					<dim>1</dim>
				</port>
				<port id="1" precision="I64">
					<dim>1</dim>
				</port>
			</input>
			<output>
				<port id="2" precision="FP32" names="437">
					<dim>1</dim>
					<dim>144</dim>
					<dim>1</dim>
					<dim>1</dim>
				</port>
			</output>
		</layer>
		<layer id="311" name="Sub_195" type="Add" version="opset1">
			<data auto_broadcast="numpy"/>
			<input>
				<port id="0" precision="FP32">
					<dim>1</dim>
					<dim>144</dim>
					<dim>184</dim>
					<dim>328</dim>
				</port>
				<port id="1" precision="FP32">
					<dim>1</dim>
					<dim>144</dim>
					<dim>1</dim>
					<dim>1</dim>
				</port>
			</input>
			<output>
				<port id="2" precision="FP32" names="438">
					<dim>1</dim>
					<dim>144</dim>
					<dim>184</dim>
					<dim>328</dim>
				</port>
			</output>
		</layer>
		<layer id="312" name="Mul_196" type="Multiply" version="opset1">
			<data auto_broadcast="numpy"/>
			<input>
				<port id="0" precision="FP32">
					<dim>1</dim>
					<dim>144</dim>
					<dim>1</dim>
					<dim>1</dim>
				</port>
				<port id="1" precision="FP32">
					<dim>1</dim>
					<dim>144</dim>
					<dim>184</dim>
					<dim>328</dim>
				</port>
			</input>
			<output>
				<port id="2" precision="FP32" names="439">
					<dim>1</dim>
					<dim>144</dim>
					<dim>184</dim>
					<dim>328</dim>
				</port>
			</output>
		</layer>
		<layer id="313" name="ReduceMean_178/axis" type="Const" version="opset1">
			<data element_type="i64" shape="3" offset="16432" size="24"/>
			<output>
				<port id="0" precision="I64">
					<dim>3</dim>
				</port>
			</output>
		</layer>
		<layer id="314" name="ReduceMean_178" type="ReduceMean" version="opset1">
			<data keep_dims="true"/>
			<input>
				<port id="0" precision="FP32">
					<dim>1</dim>
					<dim>144</dim>
					<dim>184</dim>
					<dim>328</dim>
				</port>
				<port id="1" precision="I64">
					<dim>3</dim>
				</port>
			</input>
			<output>
				<port id="2" precision="FP32">
					<dim>1</dim>
					<dim>144</dim>
					<dim>1</dim>
					<dim>1</dim>
				</port>
			</output>
		</layer>
		<layer id="315" name="Sub_179/sub" type="Subtract" version="opset1">
			<data auto_broadcast="numpy"/>
			<input>
				<port id="0" precision="FP32">
					<dim>1</dim>
					<dim>144</dim>
					<dim>184</dim>
					<dim>328</dim>
				</port>
				<port id="1" precision="FP32">
					<dim>1</dim>
					<dim>144</dim>
					<dim>1</dim>
					<dim>1</dim>
				</port>
			</input>
			<output>
				<port id="2" precision="FP32" names="418">
					<dim>1</dim>
					<dim>144</dim>
					<dim>184</dim>
					<dim>328</dim>
				</port>
			</output>
		</layer>
		<layer id="316" name="Mul_180" type="Multiply" version="opset1">
			<data auto_broadcast="numpy"/>
			<input>
				<port id="0" precision="FP32">
					<dim>1</dim>
					<dim>144</dim>
					<dim>184</dim>
					<dim>328</dim>
				</port>
				<port id="1" precision="FP32">
					<dim>1</dim>
					<dim>144</dim>
					<dim>184</dim>
					<dim>328</dim>
				</port>
			</input>
			<output>
				<port id="2" precision="FP32" names="419">
					<dim>1</dim>
					<dim>144</dim>
					<dim>184</dim>
					<dim>328</dim>
				</port>
			</output>
		</layer>
		<layer id="317" name="ReduceMean_181/axis" type="Const" version="opset1">
			<data element_type="i64" shape="3" offset="16432" size="24"/>
			<output>
				<port id="0" precision="I64">
					<dim>3</dim>
				</port>
			</output>
		</layer>
		<layer id="318" name="ReduceMean_181" type="ReduceMean" version="opset1">
			<data keep_dims="false"/>
			<input>
				<port id="0" precision="FP32">
					<dim>1</dim>
					<dim>144</dim>
					<dim>184</dim>
					<dim>328</dim>
				</port>
				<port id="1" precision="I64">
					<dim>3</dim>
				</port>
			</input>
			<output>
				<port id="2" precision="FP32">
					<dim>144</dim>
				</port>
			</output>
		</layer>
		<layer id="319" name="1724" type="Const" version="opset1">
			<data element_type="f32" shape="1" offset="16472" size="4"/>
			<output>
				<port id="0" precision="FP32">
					<dim>1</dim>
				</port>
			</output>
		</layer>
		<layer id="320" name="Sqrt_182/pow_" type="Power" version="opset1">
			<data auto_broadcast="numpy"/>
			<input>
				<port id="0" precision="FP32">
					<dim>144</dim>
				</port>
				<port id="1" precision="FP32">
					<dim>1</dim>
				</port>
			</input>
			<output>
				<port id="2" precision="FP32" names="421">
					<dim>144</dim>
				</port>
			</output>
		</layer>
		<layer id="321" name="1762" type="Const" version="opset1">
			<data element_type="f32" shape="1" offset="16476" size="4"/>
			<output>
				<port id="0" precision="FP32" names="1762">
					<dim>1</dim>
				</port>
			</output>
		</layer>
		<layer id="322" name="Pow_183" type="Power" version="opset1">
			<data auto_broadcast="numpy"/>
			<input>
				<port id="0" precision="FP32">
					<dim>144</dim>
				</port>
				<port id="1" precision="FP32">
					<dim>1</dim>
				</port>
			</input>
			<output>
				<port id="2" precision="FP32" names="424">
					<dim>144</dim>
				</port>
			</output>
		</layer>
		<layer id="323" name="Unsqueeze_184/Dims" type="Const" version="opset1">
			<data element_type="i64" shape="1" offset="12960" size="8"/>
			<output>
				<port id="0" precision="I64">
					<dim>1</dim>
				</port>
			</output>
		</layer>
		<layer id="324" name="Unsqueeze_184/Unsqueeze" type="Unsqueeze" version="opset1">
			<input>
				<port id="0" precision="FP32">
					<dim>144</dim>
				</port>
				<port id="1" precision="I64">
					<dim>1</dim>
				</port>
			</input>
			<output>
				<port id="2" precision="FP32" names="425">
					<dim>144</dim>
					<dim>1</dim>
				</port>
			</output>
		</layer>
		<layer id="325" name="Unsqueeze_185/Dims" type="Const" version="opset1">
			<data element_type="i64" shape="1" offset="16456" size="8"/>
			<output>
				<port id="0" precision="I64">
					<dim>1</dim>
				</port>
			</output>
		</layer>
		<layer id="326" name="Unsqueeze_185/Unsqueeze" type="Unsqueeze" version="opset1">
			<input>
				<port id="0" precision="FP32">
					<dim>144</dim>
					<dim>1</dim>
				</port>
				<port id="1" precision="I64">
					<dim>1</dim>
				</port>
			</input>
			<output>
				<port id="2" precision="FP32" names="426">
					<dim>144</dim>
					<dim>1</dim>
					<dim>1</dim>
				</port>
			</output>
		</layer>
		<layer id="327" name="Constant_186" type="Const" version="opset1">
			<data element_type="f32" shape="1, 1, 1" offset="16480" size="4"/>
			<output>
				<port id="0" precision="FP32" names="427">
					<dim>1</dim>
					<dim>1</dim>
					<dim>1</dim>
				</port>
			</output>
		</layer>
		<layer id="328" name="Add_187" type="Add" version="opset1">
			<data auto_broadcast="numpy"/>
			<input>
				<port id="0" precision="FP32">
					<dim>144</dim>
					<dim>1</dim>
					<dim>1</dim>
				</port>
				<port id="1" precision="FP32">
					<dim>1</dim>
					<dim>1</dim>
					<dim>1</dim>
				</port>
			</input>
			<output>
				<port id="2" precision="FP32">
					<dim>144</dim>
					<dim>1</dim>
					<dim>1</dim>
				</port>
			</output>
		</layer>
		<layer id="329" name="1615" type="Const" version="opset1">
			<data element_type="f32" shape="1, 1, 1" offset="16472" size="4"/>
			<output>
				<port id="0" precision="FP32">
					<dim>1</dim>
					<dim>1</dim>
					<dim>1</dim>
				</port>
			</output>
		</layer>
		<layer id="330" name="Sqrt_188/pow_" type="Power" version="opset1">
			<data auto_broadcast="numpy"/>
			<input>
				<port id="0" precision="FP32">
					<dim>144</dim>
					<dim>1</dim>
					<dim>1</dim>
				</port>
				<port id="1" precision="FP32">
					<dim>1</dim>
					<dim>1</dim>
					<dim>1</dim>
				</port>
			</input>
			<output>
				<port id="2" precision="FP32">
					<dim>144</dim>
					<dim>1</dim>
					<dim>1</dim>
				</port>
			</output>
		</layer>
		<layer id="331" name="Div_190/reciprocal__input_port_1/value23967" type="Const" version="opset1">
			<data element_type="f32" shape="1, 1, 1" offset="12972" size="4"/>
			<output>
				<port id="0" precision="FP32">
					<dim>1</dim>
					<dim>1</dim>
					<dim>1</dim>
				</port>
			</output>
		</layer>
		<layer id="332" name="Div_190/reciprocal_" type="Power" version="opset1">
			<data auto_broadcast="numpy"/>
			<input>
				<port id="0" precision="FP32">
					<dim>144</dim>
					<dim>1</dim>
					<dim>1</dim>
				</port>
				<port id="1" precision="FP32">
					<dim>1</dim>
					<dim>1</dim>
					<dim>1</dim>
				</port>
			</input>
			<output>
				<port id="2" precision="FP32">
					<dim>144</dim>
					<dim>1</dim>
					<dim>1</dim>
				</port>
			</output>
		</layer>
		<layer id="333" name="Div_190/reciprocal_/EltwiseUnsqueeze_input_port_1/value2785069866" type="Const" version="opset1">
			<data element_type="i64" shape="1" offset="16464" size="8"/>
			<output>
				<port id="0" precision="I64">
					<dim>1</dim>
				</port>
			</output>
		</layer>
		<layer id="334" name="Div_190/reciprocal_/EltwiseUnsqueeze" type="Unsqueeze" version="opset1">
			<input>
				<port id="0" precision="FP32">
					<dim>144</dim>
					<dim>1</dim>
					<dim>1</dim>
				</port>
				<port id="1" precision="I64">
					<dim>1</dim>
				</port>
			</input>
			<output>
				<port id="2" precision="FP32" names="429,433">
					<dim>1</dim>
					<dim>144</dim>
					<dim>1</dim>
					<dim>1</dim>
				</port>
			</output>
		</layer>
		<layer id="335" name="Mul_197" type="Multiply" version="opset1">
			<data auto_broadcast="numpy"/>
			<input>
				<port id="0" precision="FP32">
					<dim>1</dim>
					<dim>144</dim>
					<dim>184</dim>
					<dim>328</dim>
				</port>
				<port id="1" precision="FP32">
					<dim>1</dim>
					<dim>144</dim>
					<dim>1</dim>
					<dim>1</dim>
				</port>
			</input>
			<output>
				<port id="2" precision="FP32" names="440">
					<dim>1</dim>
					<dim>144</dim>
					<dim>184</dim>
					<dim>328</dim>
				</port>
			</output>
		</layer>
		<layer id="336" name="1766" type="Const" version="opset1">
			<data element_type="f32" shape="1, 144, 1, 1" offset="60516" size="576"/>
			<output>
				<port id="0" precision="FP32" names="1766">
					<dim>1</dim>
					<dim>144</dim>
					<dim>1</dim>
					<dim>1</dim>
				</port>
			</output>
		</layer>
		<layer id="337" name="Add_198" type="Add" version="opset1">
			<data auto_broadcast="numpy"/>
			<input>
				<port id="0" precision="FP32">
					<dim>1</dim>
					<dim>144</dim>
					<dim>184</dim>
					<dim>328</dim>
				</port>
				<port id="1" precision="FP32">
					<dim>1</dim>
					<dim>144</dim>
					<dim>1</dim>
					<dim>1</dim>
				</port>
			</input>
			<output>
				<port id="2" precision="FP32" names="443">
					<dim>1</dim>
					<dim>144</dim>
					<dim>184</dim>
					<dim>328</dim>
				</port>
			</output>
		</layer>
		<layer id="338" name="Clip_201" type="Clamp" version="opset1">
			<data min="0" max="6"/>
			<input>
				<port id="0" precision="FP32">
					<dim>1</dim>
					<dim>144</dim>
					<dim>184</dim>
					<dim>328</dim>
				</port>
			</input>
			<output>
				<port id="1" precision="FP32" names="446">
					<dim>1</dim>
					<dim>144</dim>
					<dim>184</dim>
					<dim>328</dim>
				</port>
			</output>
		</layer>
		<layer id="339" name="impl.module.fpn.features.3.conv.6.weight" type="Const" version="opset1">
			<data element_type="f32" shape="24, 144, 1, 1" offset="61092" size="13824"/>
			<output>
				<port id="0" precision="FP32" names="impl.module.fpn.features.3.conv.6.weight">
					<dim>24</dim>
					<dim>144</dim>
					<dim>1</dim>
					<dim>1</dim>
				</port>
			</output>
		</layer>
		<layer id="340" name="Conv_202" type="Convolution" version="opset1">
			<data strides="1, 1" dilations="1, 1" pads_begin="0, 0" pads_end="0, 0" auto_pad="explicit"/>
			<input>
				<port id="0" precision="FP32">
					<dim>1</dim>
					<dim>144</dim>
					<dim>184</dim>
					<dim>328</dim>
				</port>
				<port id="1" precision="FP32">
					<dim>24</dim>
					<dim>144</dim>
					<dim>1</dim>
					<dim>1</dim>
				</port>
			</input>
			<output>
				<port id="2" precision="FP32" names="447">
					<dim>1</dim>
					<dim>24</dim>
					<dim>184</dim>
					<dim>328</dim>
				</port>
			</output>
		</layer>
		<layer id="341" name="ReduceMean_203/axis" type="Const" version="opset1">
			<data element_type="i64" shape="3" offset="16432" size="24"/>
			<output>
				<port id="0" precision="I64">
					<dim>3</dim>
				</port>
			</output>
		</layer>
		<layer id="342" name="ReduceMean_203" type="ReduceMean" version="opset1">
			<data keep_dims="false"/>
			<input>
				<port id="0" precision="FP32">
					<dim>1</dim>
					<dim>24</dim>
					<dim>184</dim>
					<dim>328</dim>
				</port>
				<port id="1" precision="I64">
					<dim>3</dim>
				</port>
			</input>
			<output>
				<port id="2" precision="FP32" names="448">
					<dim>24</dim>
				</port>
			</output>
		</layer>
		<layer id="343" name="Unsqueeze_219/Dims" type="Const" version="opset1">
			<data element_type="i64" shape="1" offset="12960" size="8"/>
			<output>
				<port id="0" precision="I64">
					<dim>1</dim>
				</port>
			</output>
		</layer>
		<layer id="344" name="Unsqueeze_219/Unsqueeze" type="Unsqueeze" version="opset1">
			<input>
				<port id="0" precision="FP32">
					<dim>24</dim>
				</port>
				<port id="1" precision="I64">
					<dim>1</dim>
				</port>
			</input>
			<output>
				<port id="2" precision="FP32" names="468">
					<dim>24</dim>
					<dim>1</dim>
				</port>
			</output>
		</layer>
		<layer id="345" name="Unsqueeze_220/Dims" type="Const" version="opset1">
			<data element_type="i64" shape="1" offset="16456" size="8"/>
			<output>
				<port id="0" precision="I64">
					<dim>1</dim>
				</port>
			</output>
		</layer>
		<layer id="346" name="Unsqueeze_220/Unsqueeze" type="Unsqueeze" version="opset1">
			<input>
				<port id="0" precision="FP32">
					<dim>24</dim>
					<dim>1</dim>
				</port>
				<port id="1" precision="I64">
					<dim>1</dim>
				</port>
			</input>
			<output>
				<port id="2" precision="FP32">
					<dim>24</dim>
					<dim>1</dim>
					<dim>1</dim>
				</port>
			</output>
		</layer>
		<layer id="347" name="Sub_221/neg_/Negate" type="Negative" version="opset1">
			<input>
				<port id="0" precision="FP32">
					<dim>24</dim>
					<dim>1</dim>
					<dim>1</dim>
				</port>
			</input>
			<output>
				<port id="1" precision="FP32">
					<dim>24</dim>
					<dim>1</dim>
					<dim>1</dim>
				</port>
			</output>
		</layer>
		<layer id="348" name="Sub_221/neg_/EltwiseUnsqueeze_input_port_1/value2926270013" type="Const" version="opset1">
			<data element_type="i64" shape="1" offset="16464" size="8"/>
			<output>
				<port id="0" precision="I64">
					<dim>1</dim>
				</port>
			</output>
		</layer>
		<layer id="349" name="Sub_221/neg_/EltwiseUnsqueeze" type="Unsqueeze" version="opset1">
			<input>
				<port id="0" precision="FP32">
					<dim>24</dim>
					<dim>1</dim>
					<dim>1</dim>
				</port>
				<port id="1" precision="I64">
					<dim>1</dim>
				</port>
			</input>
			<output>
				<port id="2" precision="FP32" names="469">
					<dim>1</dim>
					<dim>24</dim>
					<dim>1</dim>
					<dim>1</dim>
				</port>
			</output>
		</layer>
		<layer id="350" name="Sub_221" type="Add" version="opset1">
			<data auto_broadcast="numpy"/>
			<input>
				<port id="0" precision="FP32">
					<dim>1</dim>
					<dim>24</dim>
					<dim>184</dim>
					<dim>328</dim>
				</port>
				<port id="1" precision="FP32">
					<dim>1</dim>
					<dim>24</dim>
					<dim>1</dim>
					<dim>1</dim>
				</port>
			</input>
			<output>
				<port id="2" precision="FP32" names="470">
					<dim>1</dim>
					<dim>24</dim>
					<dim>184</dim>
					<dim>328</dim>
				</port>
			</output>
		</layer>
		<layer id="351" name="Mul_222" type="Multiply" version="opset1">
			<data auto_broadcast="numpy"/>
			<input>
				<port id="0" precision="FP32">
					<dim>1</dim>
					<dim>24</dim>
					<dim>1</dim>
					<dim>1</dim>
				</port>
				<port id="1" precision="FP32">
					<dim>1</dim>
					<dim>24</dim>
					<dim>184</dim>
					<dim>328</dim>
				</port>
			</input>
			<output>
				<port id="2" precision="FP32" names="471">
					<dim>1</dim>
					<dim>24</dim>
					<dim>184</dim>
					<dim>328</dim>
				</port>
			</output>
		</layer>
		<layer id="352" name="ReduceMean_204/axis" type="Const" version="opset1">
			<data element_type="i64" shape="3" offset="16432" size="24"/>
			<output>
				<port id="0" precision="I64">
					<dim>3</dim>
				</port>
			</output>
		</layer>
		<layer id="353" name="ReduceMean_204" type="ReduceMean" version="opset1">
			<data keep_dims="true"/>
			<input>
				<port id="0" precision="FP32">
					<dim>1</dim>
					<dim>24</dim>
					<dim>184</dim>
					<dim>328</dim>
				</port>
				<port id="1" precision="I64">
					<dim>3</dim>
				</port>
			</input>
			<output>
				<port id="2" precision="FP32">
					<dim>1</dim>
					<dim>24</dim>
					<dim>1</dim>
					<dim>1</dim>
				</port>
			</output>
		</layer>
		<layer id="354" name="Sub_205/sub" type="Subtract" version="opset1">
			<data auto_broadcast="numpy"/>
			<input>
				<port id="0" precision="FP32">
					<dim>1</dim>
					<dim>24</dim>
					<dim>184</dim>
					<dim>328</dim>
				</port>
				<port id="1" precision="FP32">
					<dim>1</dim>
					<dim>24</dim>
					<dim>1</dim>
					<dim>1</dim>
				</port>
			</input>
			<output>
				<port id="2" precision="FP32" names="450">
					<dim>1</dim>
					<dim>24</dim>
					<dim>184</dim>
					<dim>328</dim>
				</port>
			</output>
		</layer>
		<layer id="355" name="Mul_206" type="Multiply" version="opset1">
			<data auto_broadcast="numpy"/>
			<input>
				<port id="0" precision="FP32">
					<dim>1</dim>
					<dim>24</dim>
					<dim>184</dim>
					<dim>328</dim>
				</port>
				<port id="1" precision="FP32">
					<dim>1</dim>
					<dim>24</dim>
					<dim>184</dim>
					<dim>328</dim>
				</port>
			</input>
			<output>
				<port id="2" precision="FP32" names="451">
					<dim>1</dim>
					<dim>24</dim>
					<dim>184</dim>
					<dim>328</dim>
				</port>
			</output>
		</layer>
		<layer id="356" name="ReduceMean_207/axis" type="Const" version="opset1">
			<data element_type="i64" shape="3" offset="16432" size="24"/>
			<output>
				<port id="0" precision="I64">
					<dim>3</dim>
				</port>
			</output>
		</layer>
		<layer id="357" name="ReduceMean_207" type="ReduceMean" version="opset1">
			<data keep_dims="false"/>
			<input>
				<port id="0" precision="FP32">
					<dim>1</dim>
					<dim>24</dim>
					<dim>184</dim>
					<dim>328</dim>
				</port>
				<port id="1" precision="I64">
					<dim>3</dim>
				</port>
			</input>
			<output>
				<port id="2" precision="FP32">
					<dim>24</dim>
				</port>
			</output>
		</layer>
		<layer id="358" name="1563" type="Const" version="opset1">
			<data element_type="f32" shape="1" offset="16472" size="4"/>
			<output>
				<port id="0" precision="FP32">
					<dim>1</dim>
				</port>
			</output>
		</layer>
		<layer id="359" name="Sqrt_208/pow_" type="Power" version="opset1">
			<data auto_broadcast="numpy"/>
			<input>
				<port id="0" precision="FP32">
					<dim>24</dim>
				</port>
				<port id="1" precision="FP32">
					<dim>1</dim>
				</port>
			</input>
			<output>
				<port id="2" precision="FP32" names="453">
					<dim>24</dim>
				</port>
			</output>
		</layer>
		<layer id="360" name="1767" type="Const" version="opset1">
			<data element_type="f32" shape="1" offset="16476" size="4"/>
			<output>
				<port id="0" precision="FP32" names="1767">
					<dim>1</dim>
				</port>
			</output>
		</layer>
		<layer id="361" name="Pow_209" type="Power" version="opset1">
			<data auto_broadcast="numpy"/>
			<input>
				<port id="0" precision="FP32">
					<dim>24</dim>
				</port>
				<port id="1" precision="FP32">
					<dim>1</dim>
				</port>
			</input>
			<output>
				<port id="2" precision="FP32" names="456">
					<dim>24</dim>
				</port>
			</output>
		</layer>
		<layer id="362" name="Unsqueeze_210/Dims" type="Const" version="opset1">
			<data element_type="i64" shape="1" offset="12960" size="8"/>
			<output>
				<port id="0" precision="I64">
					<dim>1</dim>
				</port>
			</output>
		</layer>
		<layer id="363" name="Unsqueeze_210/Unsqueeze" type="Unsqueeze" version="opset1">
			<input>
				<port id="0" precision="FP32">
					<dim>24</dim>
				</port>
				<port id="1" precision="I64">
					<dim>1</dim>
				</port>
			</input>
			<output>
				<port id="2" precision="FP32" names="457">
					<dim>24</dim>
					<dim>1</dim>
				</port>
			</output>
		</layer>
		<layer id="364" name="Unsqueeze_211/Dims" type="Const" version="opset1">
			<data element_type="i64" shape="1" offset="16456" size="8"/>
			<output>
				<port id="0" precision="I64">
					<dim>1</dim>
				</port>
			</output>
		</layer>
		<layer id="365" name="Unsqueeze_211/Unsqueeze" type="Unsqueeze" version="opset1">
			<input>
				<port id="0" precision="FP32">
					<dim>24</dim>
					<dim>1</dim>
				</port>
				<port id="1" precision="I64">
					<dim>1</dim>
				</port>
			</input>
			<output>
				<port id="2" precision="FP32" names="458">
					<dim>24</dim>
					<dim>1</dim>
					<dim>1</dim>
				</port>
			</output>
		</layer>
		<layer id="366" name="Constant_212" type="Const" version="opset1">
			<data element_type="f32" shape="1, 1, 1" offset="16480" size="4"/>
			<output>
				<port id="0" precision="FP32" names="459">
					<dim>1</dim>
					<dim>1</dim>
					<dim>1</dim>
				</port>
			</output>
		</layer>
		<layer id="367" name="Add_213" type="Add" version="opset1">
			<data auto_broadcast="numpy"/>
			<input>
				<port id="0" precision="FP32">
					<dim>24</dim>
					<dim>1</dim>
					<dim>1</dim>
				</port>
				<port id="1" precision="FP32">
					<dim>1</dim>
					<dim>1</dim>
					<dim>1</dim>
				</port>
			</input>
			<output>
				<port id="2" precision="FP32">
					<dim>24</dim>
					<dim>1</dim>
					<dim>1</dim>
				</port>
			</output>
		</layer>
		<layer id="368" name="1663" type="Const" version="opset1">
			<data element_type="f32" shape="1, 1, 1" offset="16472" size="4"/>
			<output>
				<port id="0" precision="FP32">
					<dim>1</dim>
					<dim>1</dim>
					<dim>1</dim>
				</port>
			</output>
		</layer>
		<layer id="369" name="Sqrt_214/pow_" type="Power" version="opset1">
			<data auto_broadcast="numpy"/>
			<input>
				<port id="0" precision="FP32">
					<dim>24</dim>
					<dim>1</dim>
					<dim>1</dim>
				</port>
				<port id="1" precision="FP32">
					<dim>1</dim>
					<dim>1</dim>
					<dim>1</dim>
				</port>
			</input>
			<output>
				<port id="2" precision="FP32">
					<dim>24</dim>
					<dim>1</dim>
					<dim>1</dim>
				</port>
			</output>
		</layer>
		<layer id="370" name="Div_216/reciprocal__input_port_1/value23973" type="Const" version="opset1">
			<data element_type="f32" shape="1, 1, 1" offset="12972" size="4"/>
			<output>
				<port id="0" precision="FP32">
					<dim>1</dim>
					<dim>1</dim>
					<dim>1</dim>
				</port>
			</output>
		</layer>
		<layer id="371" name="Div_216/reciprocal_" type="Power" version="opset1">
			<data auto_broadcast="numpy"/>
			<input>
				<port id="0" precision="FP32">
					<dim>24</dim>
					<dim>1</dim>
					<dim>1</dim>
				</port>
				<port id="1" precision="FP32">
					<dim>1</dim>
					<dim>1</dim>
					<dim>1</dim>
				</port>
			</input>
			<output>
				<port id="2" precision="FP32">
					<dim>24</dim>
					<dim>1</dim>
					<dim>1</dim>
				</port>
			</output>
		</layer>
		<layer id="372" name="Div_216/reciprocal_/EltwiseUnsqueeze_input_port_1/value2787070451" type="Const" version="opset1">
			<data element_type="i64" shape="1" offset="16464" size="8"/>
			<output>
				<port id="0" precision="I64">
					<dim>1</dim>
				</port>
			</output>
		</layer>
		<layer id="373" name="Div_216/reciprocal_/EltwiseUnsqueeze" type="Unsqueeze" version="opset1">
			<input>
				<port id="0" precision="FP32">
					<dim>24</dim>
					<dim>1</dim>
					<dim>1</dim>
				</port>
				<port id="1" precision="I64">
					<dim>1</dim>
				</port>
			</input>
			<output>
				<port id="2" precision="FP32" names="461,465">
					<dim>1</dim>
					<dim>24</dim>
					<dim>1</dim>
					<dim>1</dim>
				</port>
			</output>
		</layer>
		<layer id="374" name="Mul_223" type="Multiply" version="opset1">
			<data auto_broadcast="numpy"/>
			<input>
				<port id="0" precision="FP32">
					<dim>1</dim>
					<dim>24</dim>
					<dim>184</dim>
					<dim>328</dim>
				</port>
				<port id="1" precision="FP32">
					<dim>1</dim>
					<dim>24</dim>
					<dim>1</dim>
					<dim>1</dim>
				</port>
			</input>
			<output>
				<port id="2" precision="FP32" names="472">
					<dim>1</dim>
					<dim>24</dim>
					<dim>184</dim>
					<dim>328</dim>
				</port>
			</output>
		</layer>
		<layer id="375" name="1771" type="Const" version="opset1">
			<data element_type="f32" shape="1, 24, 1, 1" offset="74916" size="96"/>
			<output>
				<port id="0" precision="FP32" names="1771">
					<dim>1</dim>
					<dim>24</dim>
					<dim>1</dim>
					<dim>1</dim>
				</port>
			</output>
		</layer>
		<layer id="376" name="Add_224" type="Add" version="opset1">
			<data auto_broadcast="numpy"/>
			<input>
				<port id="0" precision="FP32">
					<dim>1</dim>
					<dim>24</dim>
					<dim>184</dim>
					<dim>328</dim>
				</port>
				<port id="1" precision="FP32">
					<dim>1</dim>
					<dim>24</dim>
					<dim>1</dim>
					<dim>1</dim>
				</port>
			</input>
			<output>
				<port id="2" precision="FP32" names="475">
					<dim>1</dim>
					<dim>24</dim>
					<dim>184</dim>
					<dim>328</dim>
				</port>
			</output>
		</layer>
		<layer id="377" name="Add_225" type="Add" version="opset1">
			<data auto_broadcast="numpy"/>
			<input>
				<port id="0" precision="FP32">
					<dim>1</dim>
					<dim>24</dim>
					<dim>184</dim>
					<dim>328</dim>
				</port>
				<port id="1" precision="FP32">
					<dim>1</dim>
					<dim>24</dim>
					<dim>184</dim>
					<dim>328</dim>
				</port>
			</input>
			<output>
				<port id="2" precision="FP32" names="476">
					<dim>1</dim>
					<dim>24</dim>
					<dim>184</dim>
					<dim>328</dim>
				</port>
			</output>
		</layer>
		<layer id="378" name="impl.module.fpn.features.4.conv.0.weight" type="Const" version="opset1">
			<data element_type="f32" shape="144, 24, 1, 1" offset="75012" size="13824"/>
			<output>
				<port id="0" precision="FP32" names="impl.module.fpn.features.4.conv.0.weight">
					<dim>144</dim>
					<dim>24</dim>
					<dim>1</dim>
					<dim>1</dim>
				</port>
			</output>
		</layer>
		<layer id="379" name="Conv_226" type="Convolution" version="opset1">
			<data strides="1, 1" dilations="1, 1" pads_begin="0, 0" pads_end="0, 0" auto_pad="explicit"/>
			<input>
				<port id="0" precision="FP32">
					<dim>1</dim>
					<dim>24</dim>
					<dim>184</dim>
					<dim>328</dim>
				</port>
				<port id="1" precision="FP32">
					<dim>144</dim>
					<dim>24</dim>
					<dim>1</dim>
					<dim>1</dim>
				</port>
			</input>
			<output>
				<port id="2" precision="FP32" names="477">
					<dim>1</dim>
					<dim>144</dim>
					<dim>184</dim>
					<dim>328</dim>
				</port>
			</output>
		</layer>
		<layer id="380" name="ReduceMean_227/axis" type="Const" version="opset1">
			<data element_type="i64" shape="3" offset="16432" size="24"/>
			<output>
				<port id="0" precision="I64">
					<dim>3</dim>
				</port>
			</output>
		</layer>
		<layer id="381" name="ReduceMean_227" type="ReduceMean" version="opset1">
			<data keep_dims="false"/>
			<input>
				<port id="0" precision="FP32">
					<dim>1</dim>
					<dim>144</dim>
					<dim>184</dim>
					<dim>328</dim>
				</port>
				<port id="1" precision="I64">
					<dim>3</dim>
				</port>
			</input>
			<output>
				<port id="2" precision="FP32" names="478">
					<dim>144</dim>
				</port>
			</output>
		</layer>
		<layer id="382" name="Unsqueeze_243/Dims" type="Const" version="opset1">
			<data element_type="i64" shape="1" offset="12960" size="8"/>
			<output>
				<port id="0" precision="I64">
					<dim>1</dim>
				</port>
			</output>
		</layer>
		<layer id="383" name="Unsqueeze_243/Unsqueeze" type="Unsqueeze" version="opset1">
			<input>
				<port id="0" precision="FP32">
					<dim>144</dim>
				</port>
				<port id="1" precision="I64">
					<dim>1</dim>
				</port>
			</input>
			<output>
				<port id="2" precision="FP32" names="498">
					<dim>144</dim>
					<dim>1</dim>
				</port>
			</output>
		</layer>
		<layer id="384" name="Unsqueeze_244/Dims" type="Const" version="opset1">
			<data element_type="i64" shape="1" offset="16456" size="8"/>
			<output>
				<port id="0" precision="I64">
					<dim>1</dim>
				</port>
			</output>
		</layer>
		<layer id="385" name="Unsqueeze_244/Unsqueeze" type="Unsqueeze" version="opset1">
			<input>
				<port id="0" precision="FP32">
					<dim>144</dim>
					<dim>1</dim>
				</port>
				<port id="1" precision="I64">
					<dim>1</dim>
				</port>
			</input>
			<output>
				<port id="2" precision="FP32">
					<dim>144</dim>
					<dim>1</dim>
					<dim>1</dim>
				</port>
			</output>
		</layer>
		<layer id="386" name="Sub_245/neg_/Negate" type="Negative" version="opset1">
			<input>
				<port id="0" precision="FP32">
					<dim>144</dim>
					<dim>1</dim>
					<dim>1</dim>
				</port>
			</input>
			<output>
				<port id="1" precision="FP32">
					<dim>144</dim>
					<dim>1</dim>
					<dim>1</dim>
				</port>
			</output>
		</layer>
		<layer id="387" name="Sub_245/neg_/EltwiseUnsqueeze_input_port_1/value2927469362" type="Const" version="opset1">
			<data element_type="i64" shape="1" offset="16464" size="8"/>
			<output>
				<port id="0" precision="I64">
					<dim>1</dim>
				</port>
			</output>
		</layer>
		<layer id="388" name="Sub_245/neg_/EltwiseUnsqueeze" type="Unsqueeze" version="opset1">
			<input>
				<port id="0" precision="FP32">
					<dim>144</dim>
					<dim>1</dim>
					<dim>1</dim>
				</port>
				<port id="1" precision="I64">
					<dim>1</dim>
				</port>
			</input>
			<output>
				<port id="2" precision="FP32" names="499">
					<dim>1</dim>
					<dim>144</dim>
					<dim>1</dim>
					<dim>1</dim>
				</port>
			</output>
		</layer>
		<layer id="389" name="Sub_245" type="Add" version="opset1">
			<data auto_broadcast="numpy"/>
			<input>
				<port id="0" precision="FP32">
					<dim>1</dim>
					<dim>144</dim>
					<dim>184</dim>
					<dim>328</dim>
				</port>
				<port id="1" precision="FP32">
					<dim>1</dim>
					<dim>144</dim>
					<dim>1</dim>
					<dim>1</dim>
				</port>
			</input>
			<output>
				<port id="2" precision="FP32" names="500">
					<dim>1</dim>
					<dim>144</dim>
					<dim>184</dim>
					<dim>328</dim>
				</port>
			</output>
		</layer>
		<layer id="390" name="Mul_246" type="Multiply" version="opset1">
			<data auto_broadcast="numpy"/>
			<input>
				<port id="0" precision="FP32">
					<dim>1</dim>
					<dim>144</dim>
					<dim>1</dim>
					<dim>1</dim>
				</port>
				<port id="1" precision="FP32">
					<dim>1</dim>
					<dim>144</dim>
					<dim>184</dim>
					<dim>328</dim>
				</port>
			</input>
			<output>
				<port id="2" precision="FP32" names="501">
					<dim>1</dim>
					<dim>144</dim>
					<dim>184</dim>
					<dim>328</dim>
				</port>
			</output>
		</layer>
		<layer id="391" name="ReduceMean_228/axis" type="Const" version="opset1">
			<data element_type="i64" shape="3" offset="16432" size="24"/>
			<output>
				<port id="0" precision="I64">
					<dim>3</dim>
				</port>
			</output>
		</layer>
		<layer id="392" name="ReduceMean_228" type="ReduceMean" version="opset1">
			<data keep_dims="true"/>
			<input>
				<port id="0" precision="FP32">
					<dim>1</dim>
					<dim>144</dim>
					<dim>184</dim>
					<dim>328</dim>
				</port>
				<port id="1" precision="I64">
					<dim>3</dim>
				</port>
			</input>
			<output>
				<port id="2" precision="FP32">
					<dim>1</dim>
					<dim>144</dim>
					<dim>1</dim>
					<dim>1</dim>
				</port>
			</output>
		</layer>
		<layer id="393" name="Sub_229/sub" type="Subtract" version="opset1">
			<data auto_broadcast="numpy"/>
			<input>
				<port id="0" precision="FP32">
					<dim>1</dim>
					<dim>144</dim>
					<dim>184</dim>
					<dim>328</dim>
				</port>
				<port id="1" precision="FP32">
					<dim>1</dim>
					<dim>144</dim>
					<dim>1</dim>
					<dim>1</dim>
				</port>
			</input>
			<output>
				<port id="2" precision="FP32" names="480">
					<dim>1</dim>
					<dim>144</dim>
					<dim>184</dim>
					<dim>328</dim>
				</port>
			</output>
		</layer>
		<layer id="394" name="Mul_230" type="Multiply" version="opset1">
			<data auto_broadcast="numpy"/>
			<input>
				<port id="0" precision="FP32">
					<dim>1</dim>
					<dim>144</dim>
					<dim>184</dim>
					<dim>328</dim>
				</port>
				<port id="1" precision="FP32">
					<dim>1</dim>
					<dim>144</dim>
					<dim>184</dim>
					<dim>328</dim>
				</port>
			</input>
			<output>
				<port id="2" precision="FP32" names="481">
					<dim>1</dim>
					<dim>144</dim>
					<dim>184</dim>
					<dim>328</dim>
				</port>
			</output>
		</layer>
		<layer id="395" name="ReduceMean_231/axis" type="Const" version="opset1">
			<data element_type="i64" shape="3" offset="16432" size="24"/>
			<output>
				<port id="0" precision="I64">
					<dim>3</dim>
				</port>
			</output>
		</layer>
		<layer id="396" name="ReduceMean_231" type="ReduceMean" version="opset1">
			<data keep_dims="false"/>
			<input>
				<port id="0" precision="FP32">
					<dim>1</dim>
					<dim>144</dim>
					<dim>184</dim>
					<dim>328</dim>
				</port>
				<port id="1" precision="I64">
					<dim>3</dim>
				</port>
			</input>
			<output>
				<port id="2" precision="FP32">
					<dim>144</dim>
				</port>
			</output>
		</layer>
		<layer id="397" name="1617" type="Const" version="opset1">
			<data element_type="f32" shape="1" offset="16472" size="4"/>
			<output>
				<port id="0" precision="FP32">
					<dim>1</dim>
…
		<edge from-layer="1387" from-port="0" to-layer="1388" to-port="1"/>
		<edge from-layer="1388" from-port="2" to-layer="1390" to-port="0"/>
		<edge from-layer="1389" from-port="0" to-layer="1390" to-port="1"/>
		<edge from-layer="1390" from-port="2" to-layer="1392" to-port="0"/>
		<edge from-layer="1391" from-port="0" to-layer="1392" to-port="1"/>
		<edge from-layer="1392" from-port="2" to-layer="1394" to-port="0"/>
		<edge from-layer="1393" from-port="0" to-layer="1394" to-port="1"/>
		<edge from-layer="1394" from-port="2" to-layer="1396" to-port="0"/>
		<edge from-layer="1395" from-port="0" to-layer="1396" to-port="1"/>
		<edge from-layer="1396" from-port="2" to-layer="1398" to-port="0"/>
		<edge from-layer="1397" from-port="0" to-layer="1398" to-port="1"/>
		<edge from-layer="1398" from-port="2" to-layer="1400" to-port="0"/>
		<edge from-layer="1399" from-port="0" to-layer="1400" to-port="1"/>
		<edge from-layer="1400" from-port="2" to-layer="1402" to-port="0"/>
		<edge from-layer="1401" from-port="0" to-layer="1402" to-port="1"/>
		<edge from-layer="1402" from-port="2" to-layer="1403" to-port="1"/>
		<edge from-layer="1403" from-port="2" to-layer="1405" to-port="0"/>
		<edge from-layer="1404" from-port="0" to-layer="1405" to-port="1"/>
		<edge from-layer="1405" from-port="2" to-layer="1406" to-port="0"/>
		<edge from-layer="1406" from-port="1" to-layer="1408" to-port="0"/>
		<edge from-layer="1407" from-port="0" to-layer="1408" to-port="1"/>
		<edge from-layer="1408" from-port="2" to-layer="1418" to-port="0"/>
		<edge from-layer="1408" from-port="2" to-layer="1421" to-port="0"/>
		<edge from-layer="1408" from-port="2" to-layer="1422" to-port="0"/>
		<edge from-layer="1408" from-port="2" to-layer="1410" to-port="0"/>
		<edge from-layer="1409" from-port="0" to-layer="1410" to-port="1"/>
		<edge from-layer="1410" from-port="2" to-layer="1412" to-port="0"/>
		<edge from-layer="1411" from-port="0" to-layer="1412" to-port="1"/>
		<edge from-layer="1412" from-port="2" to-layer="1414" to-port="0"/>
		<edge from-layer="1413" from-port="0" to-layer="1414" to-port="1"/>
		<edge from-layer="1414" from-port="2" to-layer="1415" to-port="0"/>
		<edge from-layer="1415" from-port="1" to-layer="1417" to-port="0"/>
		<edge from-layer="1416" from-port="0" to-layer="1417" to-port="1"/>
		<edge from-layer="1417" from-port="2" to-layer="1418" to-port="1"/>
		<edge from-layer="1418" from-port="2" to-layer="1419" to-port="1"/>
		<edge from-layer="1419" from-port="2" to-layer="1442" to-port="0"/>
		<edge from-layer="1420" from-port="0" to-layer="1421" to-port="1"/>
		<edge from-layer="1421" from-port="2" to-layer="1422" to-port="1"/>
		<edge from-layer="1422" from-port="2" to-layer="1423" to-port="0"/>
		<edge from-layer="1422" from-port="2" to-layer="1423" to-port="1"/>
		<edge from-layer="1423" from-port="2" to-layer="1425" to-port="0"/>
		<edge from-layer="1424" from-port="0" to-layer="1425" to-port="1"/>
		<edge from-layer="1425" from-port="2" to-layer="1427" to-port="0"/>
		<edge from-layer="1426" from-port="0" to-layer="1427" to-port="1"/>
		<edge from-layer="1427" from-port="2" to-layer="1429" to-port="0"/>
		<edge from-layer="1428" from-port="0" to-layer="1429" to-port="1"/>
		<edge from-layer="1429" from-port="2" to-layer="1431" to-port="0"/>
		<edge from-layer="1430" from-port="0" to-layer="1431" to-port="1"/>
		<edge from-layer="1431" from-port="2" to-layer="1433" to-port="0"/>
		<edge from-layer="1432" from-port="0" to-layer="1433" to-port="1"/>
		<edge from-layer="1433" from-port="2" to-layer="1435" to-port="0"/>
		<edge from-layer="1434" from-port="0" to-layer="1435" to-port="1"/>
		<edge from-layer="1435" from-port="2" to-layer="1437" to-port="0"/>
		<edge from-layer="1436" from-port="0" to-layer="1437" to-port="1"/>
		<edge from-layer="1437" from-port="2" to-layer="1439" to-port="0"/>
		<edge from-layer="1438" from-port="0" to-layer="1439" to-port="1"/>
		<edge from-layer="1439" from-port="2" to-layer="1441" to-port="0"/>
		<edge from-layer="1440" from-port="0" to-layer="1441" to-port="1"/>
		<edge from-layer="1441" from-port="2" to-layer="1442" to-port="1"/>
		<edge from-layer="1442" from-port="2" to-layer="1444" to-port="0"/>
		<edge from-layer="1443" from-port="0" to-layer="1444" to-port="1"/>
		<edge from-layer="1444" from-port="2" to-layer="1445" to-port="1"/>
		<edge from-layer="1445" from-port="2" to-layer="1450" to-port="0"/>
		<edge from-layer="1445" from-port="2" to-layer="1565" to-port="0"/>
		<edge from-layer="1446" from-port="0" to-layer="1539" to-port="0"/>
		<edge from-layer="1447" from-port="0" to-layer="1500" to-port="0"/>
		<edge from-layer="1448" from-port="0" to-layer="1461" to-port="0"/>
		<edge from-layer="1449" from-port="0" to-layer="1450" to-port="1"/>
		<edge from-layer="1450" from-port="2" to-layer="1460" to-port="0"/>
		<edge from-layer="1450" from-port="2" to-layer="1463" to-port="0"/>
		<edge from-layer="1450" from-port="2" to-layer="1452" to-port="0"/>
		<edge from-layer="1450" from-port="2" to-layer="1464" to-port="0"/>
		<edge from-layer="1451" from-port="0" to-layer="1452" to-port="1"/>
		<edge from-layer="1452" from-port="2" to-layer="1454" to-port="0"/>
		<edge from-layer="1453" from-port="0" to-layer="1454" to-port="1"/>
		<edge from-layer="1454" from-port="2" to-layer="1456" to-port="0"/>
		<edge from-layer="1455" from-port="0" to-layer="1456" to-port="1"/>
		<edge from-layer="1456" from-port="2" to-layer="1457" to-port="0"/>
		<edge from-layer="1457" from-port="1" to-layer="1459" to-port="0"/>
		<edge from-layer="1458" from-port="0" to-layer="1459" to-port="1"/>
		<edge from-layer="1459" from-port="2" to-layer="1460" to-port="1"/>
		<edge from-layer="1460" from-port="2" to-layer="1461" to-port="1"/>
		<edge from-layer="1461" from-port="2" to-layer="1484" to-port="0"/>
		<edge from-layer="1462" from-port="0" to-layer="1463" to-port="1"/>
		<edge from-layer="1463" from-port="2" to-layer="1464" to-port="1"/>
		<edge from-layer="1464" from-port="2" to-layer="1465" to-port="0"/>
		<edge from-layer="1464" from-port="2" to-layer="1465" to-port="1"/>
		<edge from-layer="1465" from-port="2" to-layer="1467" to-port="0"/>
		<edge from-layer="1466" from-port="0" to-layer="1467" to-port="1"/>
		<edge from-layer="1467" from-port="2" to-layer="1469" to-port="0"/>
		<edge from-layer="1468" from-port="0" to-layer="1469" to-port="1"/>
		<edge from-layer="1469" from-port="2" to-layer="1471" to-port="0"/>
		<edge from-layer="1470" from-port="0" to-layer="1471" to-port="1"/>
		<edge from-layer="1471" from-port="2" to-layer="1473" to-port="0"/>
		<edge from-layer="1472" from-port="0" to-layer="1473" to-port="1"/>
		<edge from-layer="1473" from-port="2" to-layer="1475" to-port="0"/>
		<edge from-layer="1474" from-port="0" to-layer="1475" to-port="1"/>
		<edge from-layer="1475" from-port="2" to-layer="1477" to-port="0"/>
		<edge from-layer="1476" from-port="0" to-layer="1477" to-port="1"/>
		<edge from-layer="1477" from-port="2" to-layer="1479" to-port="0"/>
		<edge from-layer="1478" from-port="0" to-layer="1479" to-port="1"/>
		<edge from-layer="1479" from-port="2" to-layer="1481" to-port="0"/>
		<edge from-layer="1480" from-port="0" to-layer="1481" to-port="1"/>
		<edge from-layer="1481" from-port="2" to-layer="1483" to-port="0"/>
		<edge from-layer="1482" from-port="0" to-layer="1483" to-port="1"/>
		<edge from-layer="1483" from-port="2" to-layer="1484" to-port="1"/>
		<edge from-layer="1484" from-port="2" to-layer="1486" to-port="0"/>
		<edge from-layer="1485" from-port="0" to-layer="1486" to-port="1"/>
		<edge from-layer="1486" from-port="2" to-layer="1487" to-port="0"/>
		<edge from-layer="1487" from-port="1" to-layer="1489" to-port="0"/>
		<edge from-layer="1488" from-port="0" to-layer="1489" to-port="1"/>
		<edge from-layer="1489" from-port="2" to-layer="1499" to-port="0"/>
		<edge from-layer="1489" from-port="2" to-layer="1491" to-port="0"/>
		<edge from-layer="1489" from-port="2" to-layer="1503" to-port="0"/>
		<edge from-layer="1489" from-port="2" to-layer="1502" to-port="0"/>
		<edge from-layer="1490" from-port="0" to-layer="1491" to-port="1"/>
		<edge from-layer="1491" from-port="2" to-layer="1493" to-port="0"/>
		<edge from-layer="1492" from-port="0" to-layer="1493" to-port="1"/>
		<edge from-layer="1493" from-port="2" to-layer="1495" to-port="0"/>
		<edge from-layer="1494" from-port="0" to-layer="1495" to-port="1"/>
		<edge from-layer="1495" from-port="2" to-layer="1496" to-port="0"/>
		<edge from-layer="1496" from-port="1" to-layer="1498" to-port="0"/>
		<edge from-layer="1497" from-port="0" to-layer="1498" to-port="1"/>
		<edge from-layer="1498" from-port="2" to-layer="1499" to-port="1"/>
		<edge from-layer="1499" from-port="2" to-layer="1500" to-port="1"/>
		<edge from-layer="1500" from-port="2" to-layer="1523" to-port="0"/>
		<edge from-layer="1501" from-port="0" to-layer="1502" to-port="1"/>
		<edge from-layer="1502" from-port="2" to-layer="1503" to-port="1"/>
		<edge from-layer="1503" from-port="2" to-layer="1504" to-port="0"/>
		<edge from-layer="1503" from-port="2" to-layer="1504" to-port="1"/>
		<edge from-layer="1504" from-port="2" to-layer="1506" to-port="0"/>
		<edge from-layer="1505" from-port="0" to-layer="1506" to-port="1"/>
		<edge from-layer="1506" from-port="2" to-layer="1508" to-port="0"/>
		<edge from-layer="1507" from-port="0" to-layer="1508" to-port="1"/>
		<edge from-layer="1508" from-port="2" to-layer="1510" to-port="0"/>
		<edge from-layer="1509" from-port="0" to-layer="1510" to-port="1"/>
		<edge from-layer="1510" from-port="2" to-layer="1512" to-port="0"/>
		<edge from-layer="1511" from-port="0" to-layer="1512" to-port="1"/>
		<edge from-layer="1512" from-port="2" to-layer="1514" to-port="0"/>
		<edge from-layer="1513" from-port="0" to-layer="1514" to-port="1"/>
		<edge from-layer="1514" from-port="2" to-layer="1516" to-port="0"/>
		<edge from-layer="1515" from-port="0" to-layer="1516" to-port="1"/>
		<edge from-layer="1516" from-port="2" to-layer="1518" to-port="0"/>
		<edge from-layer="1517" from-port="0" to-layer="1518" to-port="1"/>
		<edge from-layer="1518" from-port="2" to-layer="1520" to-port="0"/>
		<edge from-layer="1519" from-port="0" to-layer="1520" to-port="1"/>
		<edge from-layer="1520" from-port="2" to-layer="1522" to-port="0"/>
		<edge from-layer="1521" from-port="0" to-layer="1522" to-port="1"/>
		<edge from-layer="1522" from-port="2" to-layer="1523" to-port="1"/>
		<edge from-layer="1523" from-port="2" to-layer="1525" to-port="0"/>
		<edge from-layer="1524" from-port="0" to-layer="1525" to-port="1"/>
		<edge from-layer="1525" from-port="2" to-layer="1526" to-port="0"/>
		<edge from-layer="1526" from-port="1" to-layer="1528" to-port="0"/>
		<edge from-layer="1527" from-port="0" to-layer="1528" to-port="1"/>
		<edge from-layer="1528" from-port="2" to-layer="1538" to-port="0"/>
		<edge from-layer="1528" from-port="2" to-layer="1530" to-port="0"/>
		<edge from-layer="1528" from-port="2" to-layer="1541" to-port="0"/>
		<edge from-layer="1528" from-port="2" to-layer="1542" to-port="0"/>
		<edge from-layer="1529" from-port="0" to-layer="1530" to-port="1"/>
		<edge from-layer="1530" from-port="2" to-layer="1532" to-port="0"/>
		<edge from-layer="1531" from-port="0" to-layer="1532" to-port="1"/>
		<edge from-layer="1532" from-port="2" to-layer="1534" to-port="0"/>
		<edge from-layer="1533" from-port="0" to-layer="1534" to-port="1"/>
		<edge from-layer="1534" from-port="2" to-layer="1535" to-port="0"/>
		<edge from-layer="1535" from-port="1" to-layer="1537" to-port="0"/>
		<edge from-layer="1536" from-port="0" to-layer="1537" to-port="1"/>
		<edge from-layer="1537" from-port="2" to-layer="1538" to-port="1"/>
		<edge from-layer="1538" from-port="2" to-layer="1539" to-port="1"/>
		<edge from-layer="1539" from-port="2" to-layer="1562" to-port="0"/>
		<edge from-layer="1540" from-port="0" to-layer="1541" to-port="1"/>
		<edge from-layer="1541" from-port="2" to-layer="1542" to-port="1"/>
		<edge from-layer="1542" from-port="2" to-layer="1543" to-port="0"/>
		<edge from-layer="1542" from-port="2" to-layer="1543" to-port="1"/>
		<edge from-layer="1543" from-port="2" to-layer="1545" to-port="0"/>
		<edge from-layer="1544" from-port="0" to-layer="1545" to-port="1"/>
		<edge from-layer="1545" from-port="2" to-layer="1547" to-port="0"/>
		<edge from-layer="1546" from-port="0" to-layer="1547" to-port="1"/>
		<edge from-layer="1547" from-port="2" to-layer="1549" to-port="0"/>
		<edge from-layer="1548" from-port="0" to-layer="1549" to-port="1"/>
		<edge from-layer="1549" from-port="2" to-layer="1551" to-port="0"/>
		<edge from-layer="1550" from-port="0" to-layer="1551" to-port="1"/>
		<edge from-layer="1551" from-port="2" to-layer="1553" to-port="0"/>
		<edge from-layer="1552" from-port="0" to-layer="1553" to-port="1"/>
		<edge from-layer="1553" from-port="2" to-layer="1555" to-port="0"/>
		<edge from-layer="1554" from-port="0" to-layer="1555" to-port="1"/>
		<edge from-layer="1555" from-port="2" to-layer="1557" to-port="0"/>
		<edge from-layer="1556" from-port="0" to-layer="1557" to-port="1"/>
		<edge from-layer="1557" from-port="2" to-layer="1559" to-port="0"/>
		<edge from-layer="1558" from-port="0" to-layer="1559" to-port="1"/>
		<edge from-layer="1559" from-port="2" to-layer="1561" to-port="0"/>
		<edge from-layer="1560" from-port="0" to-layer="1561" to-port="1"/>
		<edge from-layer="1561" from-port="2" to-layer="1562" to-port="1"/>
		<edge from-layer="1562" from-port="2" to-layer="1564" to-port="0"/>
		<edge from-layer="1563" from-port="0" to-layer="1564" to-port="1"/>
		<edge from-layer="1564" from-port="2" to-layer="1565" to-port="1"/>
		<edge from-layer="1565" from-port="2" to-layer="1567" to-port="0"/>
		<edge from-layer="1566" from-port="0" to-layer="1567" to-port="1"/>
		<edge from-layer="1567" from-port="2" to-layer="1569" to-port="0"/>
		<edge from-layer="1567" from-port="2" to-layer="1577" to-port="0"/>
		<edge from-layer="1567" from-port="2" to-layer="1581" to-port="0"/>
		<edge from-layer="1567" from-port="2" to-layer="1580" to-port="0"/>
		<edge from-layer="1568" from-port="0" to-layer="1569" to-port="1"/>
		<edge from-layer="1569" from-port="2" to-layer="1571" to-port="0"/>
		<edge from-layer="1570" from-port="0" to-layer="1571" to-port="1"/>
		<edge from-layer="1571" from-port="2" to-layer="1573" to-port="0"/>
		<edge from-layer="1572" from-port="0" to-layer="1573" to-port="1"/>
		<edge from-layer="1573" from-port="2" to-layer="1574" to-port="0"/>
		<edge from-layer="1574" from-port="1" to-layer="1576" to-port="0"/>
		<edge from-layer="1575" from-port="0" to-layer="1576" to-port="1"/>
		<edge from-layer="1576" from-port="2" to-layer="1577" to-port="1"/>
		<edge from-layer="1577" from-port="2" to-layer="1578" to-port="1"/>
		<edge from-layer="1578" from-port="2" to-layer="1601" to-port="0"/>
		<edge from-layer="1579" from-port="0" to-layer="1580" to-port="1"/>
		<edge from-layer="1580" from-port="2" to-layer="1581" to-port="1"/>
		<edge from-layer="1581" from-port="2" to-layer="1582" to-port="0"/>
		<edge from-layer="1581" from-port="2" to-layer="1582" to-port="1"/>
		<edge from-layer="1582" from-port="2" to-layer="1584" to-port="0"/>
		<edge from-layer="1583" from-port="0" to-layer="1584" to-port="1"/>
		<edge from-layer="1584" from-port="2" to-layer="1586" to-port="0"/>
		<edge from-layer="1585" from-port="0" to-layer="1586" to-port="1"/>
		<edge from-layer="1586" from-port="2" to-layer="1588" to-port="0"/>
		<edge from-layer="1587" from-port="0" to-layer="1588" to-port="1"/>
		<edge from-layer="1588" from-port="2" to-layer="1590" to-port="0"/>
		<edge from-layer="1589" from-port="0" to-layer="1590" to-port="1"/>
		<edge from-layer="1590" from-port="2" to-layer="1592" to-port="0"/>
		<edge from-layer="1591" from-port="0" to-layer="1592" to-port="1"/>
		<edge from-layer="1592" from-port="2" to-layer="1594" to-port="0"/>
		<edge from-layer="1593" from-port="0" to-layer="1594" to-port="1"/>
		<edge from-layer="1594" from-port="2" to-layer="1596" to-port="0"/>
		<edge from-layer="1595" from-port="0" to-layer="1596" to-port="1"/>
		<edge from-layer="1596" from-port="2" to-layer="1598" to-port="0"/>
		<edge from-layer="1597" from-port="0" to-layer="1598" to-port="1"/>
		<edge from-layer="1598" from-port="2" to-layer="1600" to-port="0"/>
		<edge from-layer="1599" from-port="0" to-layer="1600" to-port="1"/>
		<edge from-layer="1600" from-port="2" to-layer="1601" to-port="1"/>
		<edge from-layer="1601" from-port="2" to-layer="1603" to-port="0"/>
		<edge from-layer="1602" from-port="0" to-layer="1603" to-port="1"/>
		<edge from-layer="1603" from-port="2" to-layer="1604" to-port="0"/>
		<edge from-layer="1604" from-port="1" to-layer="1606" to-port="0"/>
		<edge from-layer="1605" from-port="0" to-layer="1606" to-port="1"/>
		<edge from-layer="1606" from-port="2" to-layer="1608" to-port="0"/>
		<edge from-layer="1606" from-port="2" to-layer="1616" to-port="0"/>
		<edge from-layer="1606" from-port="2" to-layer="1620" to-port="0"/>
		<edge from-layer="1606" from-port="2" to-layer="1619" to-port="0"/>
		<edge from-layer="1607" from-port="0" to-layer="1608" to-port="1"/>
		<edge from-layer="1608" from-port="2" to-layer="1610" to-port="0"/>
		<edge from-layer="1609" from-port="0" to-layer="1610" to-port="1"/>
		<edge from-layer="1610" from-port="2" to-layer="1612" to-port="0"/>
		<edge from-layer="1611" from-port="0" to-layer="1612" to-port="1"/>
		<edge from-layer="1612" from-port="2" to-layer="1613" to-port="0"/>
		<edge from-layer="1613" from-port="1" to-layer="1615" to-port="0"/>
		<edge from-layer="1614" from-port="0" to-layer="1615" to-port="1"/>
		<edge from-layer="1615" from-port="2" to-layer="1616" to-port="1"/>
		<edge from-layer="1616" from-port="2" to-layer="1617" to-port="1"/>
		<edge from-layer="1617" from-port="2" to-layer="1640" to-port="0"/>
		<edge from-layer="1618" from-port="0" to-layer="1619" to-port="1"/>
		<edge from-layer="1619" from-port="2" to-layer="1620" to-port="1"/>
		<edge from-layer="1620" from-port="2" to-layer="1621" to-port="1"/>
		<edge from-layer="1620" from-port="2" to-layer="1621" to-port="0"/>
		<edge from-layer="1621" from-port="2" to-layer="1623" to-port="0"/>
		<edge from-layer="1622" from-port="0" to-layer="1623" to-port="1"/>
		<edge from-layer="1623" from-port="2" to-layer="1625" to-port="0"/>
		<edge from-layer="1624" from-port="0" to-layer="1625" to-port="1"/>
		<edge from-layer="1625" from-port="2" to-layer="1627" to-port="0"/>
		<edge from-layer="1626" from-port="0" to-layer="1627" to-port="1"/>
		<edge from-layer="1627" from-port="2" to-layer="1629" to-port="0"/>
		<edge from-layer="1628" from-port="0" to-layer="1629" to-port="1"/>
		<edge from-layer="1629" from-port="2" to-layer="1631" to-port="0"/>
		<edge from-layer="1630" from-port="0" to-layer="1631" to-port="1"/>
		<edge from-layer="1631" from-port="2" to-layer="1633" to-port="0"/>
		<edge from-layer="1632" from-port="0" to-layer="1633" to-port="1"/>
		<edge from-layer="1633" from-port="2" to-layer="1635" to-port="0"/>
		<edge from-layer="1634" from-port="0" to-layer="1635" to-port="1"/>
		<edge from-layer="1635" from-port="2" to-layer="1637" to-port="0"/>
		<edge from-layer="1636" from-port="0" to-layer="1637" to-port="1"/>
		<edge from-layer="1637" from-port="2" to-layer="1639" to-port="0"/>
		<edge from-layer="1638" from-port="0" to-layer="1639" to-port="1"/>
		<edge from-layer="1639" from-port="2" to-layer="1640" to-port="1"/>
		<edge from-layer="1640" from-port="2" to-layer="1642" to-port="0"/>
		<edge from-layer="1641" from-port="0" to-layer="1642" to-port="1"/>
		<edge from-layer="1642" from-port="2" to-layer="1643" to-port="0"/>
		<edge from-layer="1643" from-port="1" to-layer="1645" to-port="0"/>
		<edge from-layer="1644" from-port="0" to-layer="1645" to-port="1"/>
		<edge from-layer="1645" from-port="2" to-layer="1659" to-port="0"/>
		<edge from-layer="1645" from-port="2" to-layer="1658" to-port="0"/>
		<edge from-layer="1645" from-port="2" to-layer="1655" to-port="0"/>
		<edge from-layer="1645" from-port="2" to-layer="1647" to-port="0"/>
		<edge from-layer="1646" from-port="0" to-layer="1647" to-port="1"/>
		<edge from-layer="1647" from-port="2" to-layer="1649" to-port="0"/>
		<edge from-layer="1648" from-port="0" to-layer="1649" to-port="1"/>
		<edge from-layer="1649" from-port="2" to-layer="1651" to-port="0"/>
		<edge from-layer="1650" from-port="0" to-layer="1651" to-port="1"/>
		<edge from-layer="1651" from-port="2" to-layer="1652" to-port="0"/>
		<edge from-layer="1652" from-port="1" to-layer="1654" to-port="0"/>
		<edge from-layer="1653" from-port="0" to-layer="1654" to-port="1"/>
		<edge from-layer="1654" from-port="2" to-layer="1655" to-port="1"/>
		<edge from-layer="1655" from-port="2" to-layer="1656" to-port="1"/>
		<edge from-layer="1656" from-port="2" to-layer="1679" to-port="0"/>
		<edge from-layer="1657" from-port="0" to-layer="1658" to-port="1"/>
		<edge from-layer="1658" from-port="2" to-layer="1659" to-port="1"/>
		<edge from-layer="1659" from-port="2" to-layer="1660" to-port="1"/>
		<edge from-layer="1659" from-port="2" to-layer="1660" to-port="0"/>
		<edge from-layer="1660" from-port="2" to-layer="1662" to-port="0"/>
		<edge from-layer="1661" from-port="0" to-layer="1662" to-port="1"/>
		<edge from-layer="1662" from-port="2" to-layer="1664" to-port="0"/>
		<edge from-layer="1663" from-port="0" to-layer="1664" to-port="1"/>
		<edge from-layer="1664" from-port="2" to-layer="1666" to-port="0"/>
		<edge from-layer="1665" from-port="0" to-layer="1666" to-port="1"/>
		<edge from-layer="1666" from-port="2" to-layer="1668" to-port="0"/>
		<edge from-layer="1667" from-port="0" to-layer="1668" to-port="1"/>
		<edge from-layer="1668" from-port="2" to-layer="1670" to-port="0"/>
		<edge from-layer="1669" from-port="0" to-layer="1670" to-port="1"/>
		<edge from-layer="1670" from-port="2" to-layer="1672" to-port="0"/>
		<edge from-layer="1671" from-port="0" to-layer="1672" to-port="1"/>
		<edge from-layer="1672" from-port="2" to-layer="1674" to-port="0"/>
		<edge from-layer="1673" from-port="0" to-layer="1674" to-port="1"/>
		<edge from-layer="1674" from-port="2" to-layer="1676" to-port="0"/>
		<edge from-layer="1675" from-port="0" to-layer="1676" to-port="1"/>
		<edge from-layer="1676" from-port="2" to-layer="1678" to-port="0"/>
		<edge from-layer="1677" from-port="0" to-layer="1678" to-port="1"/>
		<edge from-layer="1678" from-port="2" to-layer="1679" to-port="1"/>
		<edge from-layer="1679" from-port="2" to-layer="1681" to-port="0"/>
		<edge from-layer="1680" from-port="0" to-layer="1681" to-port="1"/>
		<edge from-layer="1681" from-port="2" to-layer="1686" to-port="0"/>
		<edge from-layer="1681" from-port="2" to-layer="1801" to-port="0"/>
		<edge from-layer="1682" from-port="0" to-layer="1775" to-port="0"/>
		<edge from-layer="1683" from-port="0" to-layer="1736" to-port="0"/>
		<edge from-layer="1684" from-port="0" to-layer="1697" to-port="0"/>
		<edge from-layer="1685" from-port="0" to-layer="1686" to-port="1"/>
		<edge from-layer="1686" from-port="2" to-layer="1696" to-port="0"/>
		<edge from-layer="1686" from-port="2" to-layer="1688" to-port="0"/>
		<edge from-layer="1686" from-port="2" to-layer="1699" to-port="0"/>
		<edge from-layer="1686" from-port="2" to-layer="1700" to-port="0"/>
		<edge from-layer="1687" from-port="0" to-layer="1688" to-port="1"/>
		<edge from-layer="1688" from-port="2" to-layer="1690" to-port="0"/>
		<edge from-layer="1689" from-port="0" to-layer="1690" to-port="1"/>
		<edge from-layer="1690" from-port="2" to-layer="1692" to-port="0"/>
		<edge from-layer="1691" from-port="0" to-layer="1692" to-port="1"/>
		<edge from-layer="1692" from-port="2" to-layer="1693" to-port="0"/>
		<edge from-layer="1693" from-port="1" to-layer="1695" to-port="0"/>
		<edge from-layer="1694" from-port="0" to-layer="1695" to-port="1"/>
		<edge from-layer="1695" from-port="2" to-layer="1696" to-port="1"/>
		<edge from-layer="1696" from-port="2" to-layer="1697" to-port="1"/>
		<edge from-layer="1697" from-port="2" to-layer="1720" to-port="0"/>
		<edge from-layer="1698" from-port="0" to-layer="1699" to-port="1"/>
		<edge from-layer="1699" from-port="2" to-layer="1700" to-port="1"/>
		<edge from-layer="1700" from-port="2" to-layer="1701" to-port="1"/>
		<edge from-layer="1700" from-port="2" to-layer="1701" to-port="0"/>
		<edge from-layer="1701" from-port="2" to-layer="1703" to-port="0"/>
		<edge from-layer="1702" from-port="0" to-layer="1703" to-port="1"/>
		<edge from-layer="1703" from-port="2" to-layer="1705" to-port="0"/>
		<edge from-layer="1704" from-port="0" to-layer="1705" to-port="1"/>
		<edge from-layer="1705" from-port="2" to-layer="1707" to-port="0"/>
		<edge from-layer="1706" from-port="0" to-layer="1707" to-port="1"/>
		<edge from-layer="1707" from-port="2" to-layer="1709" to-port="0"/>
		<edge from-layer="1708" from-port="0" to-layer="1709" to-port="1"/>
		<edge from-layer="1709" from-port="2" to-layer="1711" to-port="0"/>
		<edge from-layer="1710" from-port="0" to-layer="1711" to-port="1"/>
		<edge from-layer="1711" from-port="2" to-layer="1713" to-port="0"/>
		<edge from-layer="1712" from-port="0" to-layer="1713" to-port="1"/>
		<edge from-layer="1713" from-port="2" to-layer="1715" to-port="0"/>
		<edge from-layer="1714" from-port="0" to-layer="1715" to-port="1"/>
		<edge from-layer="1715" from-port="2" to-layer="1717" to-port="0"/>
		<edge from-layer="1716" from-port="0" to-layer="1717" to-port="1"/>
		<edge from-layer="1717" from-port="2" to-layer="1719" to-port="0"/>
		<edge from-layer="1718" from-port="0" to-layer="1719" to-port="1"/>
		<edge from-layer="1719" from-port="2" to-layer="1720" to-port="1"/>
		<edge from-layer="1720" from-port="2" to-layer="1722" to-port="0"/>
		<edge from-layer="1721" from-port="0" to-layer="1722" to-port="1"/>
		<edge from-layer="1722" from-port="2" to-layer="1723" to-port="0"/>
		<edge from-layer="1723" from-port="1" to-layer="1725" to-port="0"/>
		<edge from-layer="1724" from-port="0" to-layer="1725" to-port="1"/>
		<edge from-layer="1725" from-port="2" to-layer="1727" to-port="0"/>
		<edge from-layer="1725" from-port="2" to-layer="1735" to-port="0"/>
		<edge from-layer="1725" from-port="2" to-layer="1738" to-port="0"/>
		<edge from-layer="1725" from-port="2" to-layer="1739" to-port="0"/>
		<edge from-layer="1726" from-port="0" to-layer="1727" to-port="1"/>
		<edge from-layer="1727" from-port="2" to-layer="1729" to-port="0"/>
		<edge from-layer="1728" from-port="0" to-layer="1729" to-port="1"/>
		<edge from-layer="1729" from-port="2" to-layer="1731" to-port="0"/>
		<edge from-layer="1730" from-port="0" to-layer="1731" to-port="1"/>
		<edge from-layer="1731" from-port="2" to-layer="1732" to-port="0"/>
		<edge from-layer="1732" from-port="1" to-layer="1734" to-port="0"/>
		<edge from-layer="1733" from-port="0" to-layer="1734" to-port="1"/>
		<edge from-layer="1734" from-port="2" to-layer="1735" to-port="1"/>
		<edge from-layer="1735" from-port="2" to-layer="1736" to-port="1"/>
		<edge from-layer="1736" from-port="2" to-layer="1759" to-port="0"/>
		<edge from-layer="1737" from-port="0" to-layer="1738" to-port="1"/>
		<edge from-layer="1738" from-port="2" to-layer="1739" to-port="1"/>
		<edge from-layer="1739" from-port="2" to-layer="1740" to-port="1"/>
		<edge from-layer="1739" from-port="2" to-layer="1740" to-port="0"/>
		<edge from-layer="1740" from-port="2" to-layer="1742" to-port="0"/>
		<edge from-layer="1741" from-port="0" to-layer="1742" to-port="1"/>
		<edge from-layer="1742" from-port="2" to-layer="1744" to-port="0"/>
		<edge from-layer="1743" from-port="0" to-layer="1744" to-port="1"/>
		<edge from-layer="1744" from-port="2" to-layer="1746" to-port="0"/>
		<edge from-layer="1745" from-port="0" to-layer="1746" to-port="1"/>
		<edge from-layer="1746" from-port="2" to-layer="1748" to-port="0"/>
		<edge from-layer="1747" from-port="0" to-layer="1748" to-port="1"/>
		<edge from-layer="1748" from-port="2" to-layer="1750" to-port="0"/>
		<edge from-layer="1749" from-port="0" to-layer="1750" to-port="1"/>
		<edge from-layer="1750" from-port="2" to-layer="1752" to-port="0"/>
		<edge from-layer="1751" from-port="0" to-layer="1752" to-port="1"/>
		<edge from-layer="1752" from-port="2" to-layer="1754" to-port="0"/>
		<edge from-layer="1753" from-port="0" to-layer="1754" to-port="1"/>
		<edge from-layer="1754" from-port="2" to-layer="1756" to-port="0"/>
		<edge from-layer="1755" from-port="0" to-layer="1756" to-port="1"/>
		<edge from-layer="1756" from-port="2" to-layer="1758" to-port="0"/>
		<edge from-layer="1757" from-port="0" to-layer="1758" to-port="1"/>
		<edge from-layer="1758" from-port="2" to-layer="1759" to-port="1"/>
		<edge from-layer="1759" from-port="2" to-layer="1761" to-port="0"/>
		<edge from-layer="1760" from-port="0" to-layer="1761" to-port="1"/>
		<edge from-layer="1761" from-port="2" to-layer="1762" to-port="0"/>
		<edge from-layer="1762" from-port="1" to-layer="1764" to-port="0"/>
		<edge from-layer="1763" from-port="0" to-layer="1764" to-port="1"/>
		<edge from-layer="1764" from-port="2" to-layer="1774" to-port="0"/>
		<edge from-layer="1764" from-port="2" to-layer="1766" to-port="0"/>
		<edge from-layer="1764" from-port="2" to-layer="1777" to-port="0"/>
		<edge from-layer="1764" from-port="2" to-layer="1778" to-port="0"/>
		<edge from-layer="1765" from-port="0" to-layer="1766" to-port="1"/>
		<edge from-layer="1766" from-port="2" to-layer="1768" to-port="0"/>
		<edge from-layer="1767" from-port="0" to-layer="1768" to-port="1"/>
		<edge from-layer="1768" from-port="2" to-layer="1770" to-port="0"/>
		<edge from-layer="1769" from-port="0" to-layer="1770" to-port="1"/>
		<edge from-layer="1770" from-port="2" to-layer="1771" to-port="0"/>
		<edge from-layer="1771" from-port="1" to-layer="1773" to-port="0"/>
		<edge from-layer="1772" from-port="0" to-layer="1773" to-port="1"/>
		<edge from-layer="1773" from-port="2" to-layer="1774" to-port="1"/>
		<edge from-layer="1774" from-port="2" to-layer="1775" to-port="1"/>
		<edge from-layer="1775" from-port="2" to-layer="1798" to-port="0"/>
		<edge from-layer="1776" from-port="0" to-layer="1777" to-port="1"/>
		<edge from-layer="1777" from-port="2" to-layer="1778" to-port="1"/>
		<edge from-layer="1778" from-port="2" to-layer="1779" to-port="0"/>
		<edge from-layer="1778" from-port="2" to-layer="1779" to-port="1"/>
		<edge from-layer="1779" from-port="2" to-layer="1781" to-port="0"/>
		<edge from-layer="1780" from-port="0" to-layer="1781" to-port="1"/>
		<edge from-layer="1781" from-port="2" to-layer="1783" to-port="0"/>
		<edge from-layer="1782" from-port="0" to-layer="1783" to-port="1"/>
		<edge from-layer="1783" from-port="2" to-layer="1785" to-port="0"/>
		<edge from-layer="1784" from-port="0" to-layer="1785" to-port="1"/>
		<edge from-layer="1785" from-port="2" to-layer="1787" to-port="0"/>
		<edge from-layer="1786" from-port="0" to-layer="1787" to-port="1"/>
		<edge from-layer="1787" from-port="2" to-layer="1789" to-port="0"/>
		<edge from-layer="1788" from-port="0" to-layer="1789" to-port="1"/>
		<edge from-layer="1789" from-port="2" to-layer="1791" to-port="0"/>
		<edge from-layer="1790" from-port="0" to-layer="1791" to-port="1"/>
		<edge from-layer="1791" from-port="2" to-layer="1793" to-port="0"/>
		<edge from-layer="1792" from-port="0" to-layer="1793" to-port="1"/>
		<edge from-layer="1793" from-port="2" to-layer="1795" to-port="0"/>
		<edge from-layer="1794" from-port="0" to-layer="1795" to-port="1"/>
		<edge from-layer="1795" from-port="2" to-layer="1797" to-port="0"/>
		<edge from-layer="1796" from-port="0" to-layer="1797" to-port="1"/>
		<edge from-layer="1797" from-port="2" to-layer="1798" to-port="1"/>
		<edge from-layer="1798" from-port="2" to-layer="1800" to-port="0"/>
		<edge from-layer="1799" from-port="0" to-layer="1800" to-port="1"/>
		<edge from-layer="1800" from-port="2" to-layer="1801" to-port="1"/>
		<edge from-layer="1801" from-port="2" to-layer="1803" to-port="0"/>
		<edge from-layer="1802" from-port="0" to-layer="1803" to-port="1"/>
		<edge from-layer="1803" from-port="2" to-layer="1827" to-port="0"/>
		<edge from-layer="1803" from-port="2" to-layer="1841" to-port="0"/>
		<edge from-layer="1803" from-port="2" to-layer="1805" to-port="0"/>
		<edge from-layer="1804" from-port="0" to-layer="1805" to-port="1"/>
		<edge from-layer="1805" from-port="2" to-layer="1806" to-port="0"/>
		<edge from-layer="1806" from-port="1" to-layer="1808" to-port="0"/>
		<edge from-layer="1807" from-port="0" to-layer="1808" to-port="1"/>
		<edge from-layer="1808" from-port="2" to-layer="1809" to-port="0"/>
		<edge from-layer="1809" from-port="1" to-layer="1810" to-port="0"/>
		<edge from-layer="1809" from-port="1" to-layer="1824" to-port="0"/>
		<edge from-layer="1810" from-port="1" to-layer="1811" to-port="0"/>
		<edge from-layer="1811" from-port="1" to-layer="1813" to-port="0"/>
		<edge from-layer="1812" from-port="0" to-layer="1813" to-port="1"/>
		<edge from-layer="1813" from-port="2" to-layer="1815" to-port="0"/>
		<edge from-layer="1814" from-port="0" to-layer="1815" to-port="1"/>
		<edge from-layer="1815" from-port="2" to-layer="1816" to-port="0"/>
		<edge from-layer="1816" from-port="1" to-layer="1817" to-port="0"/>
		<edge from-layer="1817" from-port="1" to-layer="1821" to-port="0"/>
		<edge from-layer="1818" from-port="0" to-layer="1821" to-port="1"/>
		<edge from-layer="1819" from-port="0" to-layer="1821" to-port="2"/>
		<edge from-layer="1820" from-port="0" to-layer="1821" to-port="3"/>
		<edge from-layer="1821" from-port="4" to-layer="1824" to-port="1"/>
		<edge from-layer="1822" from-port="0" to-layer="1824" to-port="2"/>
		<edge from-layer="1823" from-port="0" to-layer="1824" to-port="3"/>
		<edge from-layer="1824" from-port="4" to-layer="1957" to-port="0"/>
		<edge from-layer="1825" from-port="0" to-layer="1826" to-port="1"/>
		<edge from-layer="1826" from-port="2" to-layer="1842" to-port="0"/>
		<edge from-layer="1827" from-port="1" to-layer="1828" to-port="0"/>
		<edge from-layer="1828" from-port="1" to-layer="1830" to-port="0"/>
		<edge from-layer="1829" from-port="0" to-layer="1830" to-port="1"/>
		<edge from-layer="1830" from-port="2" to-layer="1832" to-port="0"/>
		<edge from-layer="1831" from-port="0" to-layer="1832" to-port="1"/>
		<edge from-layer="1832" from-port="2" to-layer="1833" to-port="0"/>
		<edge from-layer="1833" from-port="1" to-layer="1834" to-port="0"/>
		<edge from-layer="1834" from-port="1" to-layer="1838" to-port="0"/>
		<edge from-layer="1835" from-port="0" to-layer="1838" to-port="1"/>
		<edge from-layer="1836" from-port="0" to-layer="1838" to-port="2"/>
		<edge from-layer="1837" from-port="0" to-layer="1838" to-port="3"/>
		<edge from-layer="1838" from-port="4" to-layer="1841" to-port="1"/>
		<edge from-layer="1839" from-port="0" to-layer="1841" to-port="2"/>
		<edge from-layer="1840" from-port="0" to-layer="1841" to-port="3"/>
		<edge from-layer="1841" from-port="4" to-layer="1842" to-port="1"/>
		<edge from-layer="1842" from-port="2" to-layer="1844" to-port="0"/>
		<edge from-layer="1843" from-port="0" to-layer="1844" to-port="1"/>
		<edge from-layer="1844" from-port="2" to-layer="1846" to-port="0"/>
		<edge from-layer="1845" from-port="0" to-layer="1846" to-port="1"/>
		<edge from-layer="1846" from-port="2" to-layer="1847" to-port="0"/>
		<edge from-layer="1847" from-port="1" to-layer="1871" to-port="0"/>
		<edge from-layer="1847" from-port="1" to-layer="1885" to-port="0"/>
		<edge from-layer="1847" from-port="1" to-layer="1849" to-port="0"/>
		<edge from-layer="1848" from-port="0" to-layer="1849" to-port="1"/>
		<edge from-layer="1849" from-port="2" to-layer="1850" to-port="0"/>
		<edge from-layer="1850" from-port="1" to-layer="1852" to-port="0"/>
		<edge from-layer="1851" from-port="0" to-layer="1852" to-port="1"/>
		<edge from-layer="1852" from-port="2" to-layer="1853" to-port="0"/>
		<edge from-layer="1853" from-port="1" to-layer="1854" to-port="0"/>
		<edge from-layer="1853" from-port="1" to-layer="1868" to-port="0"/>
		<edge from-layer="1854" from-port="1" to-layer="1855" to-port="0"/>
		<edge from-layer="1855" from-port="1" to-layer="1857" to-port="0"/>
		<edge from-layer="1856" from-port="0" to-layer="1857" to-port="1"/>
		<edge from-layer="1857" from-port="2" to-layer="1859" to-port="0"/>
		<edge from-layer="1858" from-port="0" to-layer="1859" to-port="1"/>
		<edge from-layer="1859" from-port="2" to-layer="1860" to-port="0"/>
		<edge from-layer="1860" from-port="1" to-layer="1861" to-port="0"/>
		<edge from-layer="1861" from-port="1" to-layer="1865" to-port="0"/>
		<edge from-layer="1862" from-port="0" to-layer="1865" to-port="1"/>
		<edge from-layer="1863" from-port="0" to-layer="1865" to-port="2"/>
		<edge from-layer="1864" from-port="0" to-layer="1865" to-port="3"/>
		<edge from-layer="1865" from-port="4" to-layer="1868" to-port="1"/>
		<edge from-layer="1866" from-port="0" to-layer="1868" to-port="2"/>
		<edge from-layer="1867" from-port="0" to-layer="1868" to-port="3"/>
		<edge from-layer="1868" from-port="4" to-layer="1957" to-port="1"/>
		<edge from-layer="1869" from-port="0" to-layer="1870" to-port="1"/>
		<edge from-layer="1870" from-port="2" to-layer="1886" to-port="0"/>
		<edge from-layer="1871" from-port="1" to-layer="1872" to-port="0"/>
		<edge from-layer="1872" from-port="1" to-layer="1874" to-port="0"/>
		<edge from-layer="1873" from-port="0" to-layer="1874" to-port="1"/>
		<edge from-layer="1874" from-port="2" to-layer="1876" to-port="0"/>
		<edge from-layer="1875" from-port="0" to-layer="1876" to-port="1"/>
		<edge from-layer="1876" from-port="2" to-layer="1877" to-port="0"/>
		<edge from-layer="1877" from-port="1" to-layer="1878" to-port="0"/>
		<edge from-layer="1878" from-port="1" to-layer="1882" to-port="0"/>
		<edge from-layer="1879" from-port="0" to-layer="1882" to-port="1"/>
		<edge from-layer="1880" from-port="0" to-layer="1882" to-port="2"/>
		<edge from-layer="1881" from-port="0" to-layer="1882" to-port="3"/>
		<edge from-layer="1882" from-port="4" to-layer="1885" to-port="1"/>
		<edge from-layer="1883" from-port="0" to-layer="1885" to-port="2"/>
		<edge from-layer="1884" from-port="0" to-layer="1885" to-port="3"/>
		<edge from-layer="1885" from-port="4" to-layer="1886" to-port="1"/>
		<edge from-layer="1886" from-port="2" to-layer="1888" to-port="0"/>
		<edge from-layer="1887" from-port="0" to-layer="1888" to-port="1"/>
		<edge from-layer="1888" from-port="2" to-layer="1890" to-port="0"/>
		<edge from-layer="1889" from-port="0" to-layer="1890" to-port="1"/>
		<edge from-layer="1890" from-port="2" to-layer="1891" to-port="0"/>
		<edge from-layer="1891" from-port="1" to-layer="1893" to-port="0"/>
		<edge from-layer="1891" from-port="1" to-layer="1929" to-port="0"/>
		<edge from-layer="1891" from-port="1" to-layer="1915" to-port="0"/>
		<edge from-layer="1892" from-port="0" to-layer="1893" to-port="1"/>
		<edge from-layer="1893" from-port="2" to-layer="1894" to-port="0"/>
		<edge from-layer="1894" from-port="1" to-layer="1896" to-port="0"/>
		<edge from-layer="1895" from-port="0" to-layer="1896" to-port="1"/>
		<edge from-layer="1896" from-port="2" to-layer="1897" to-port="0"/>
		<edge from-layer="1897" from-port="1" to-layer="1898" to-port="0"/>
		<edge from-layer="1897" from-port="1" to-layer="1912" to-port="0"/>
		<edge from-layer="1898" from-port="1" to-layer="1899" to-port="0"/>
		<edge from-layer="1899" from-port="1" to-layer="1901" to-port="0"/>
		<edge from-layer="1900" from-port="0" to-layer="1901" to-port="1"/>
		<edge from-layer="1901" from-port="2" to-layer="1903" to-port="0"/>
		<edge from-layer="1902" from-port="0" to-layer="1903" to-port="1"/>
		<edge from-layer="1903" from-port="2" to-layer="1904" to-port="0"/>
		<edge from-layer="1904" from-port="1" to-layer="1905" to-port="0"/>
		<edge from-layer="1905" from-port="1" to-layer="1909" to-port="0"/>
		<edge from-layer="1906" from-port="0" to-layer="1909" to-port="1"/>
		<edge from-layer="1907" from-port="0" to-layer="1909" to-port="2"/>
		<edge from-layer="1908" from-port="0" to-layer="1909" to-port="3"/>
		<edge from-layer="1909" from-port="4" to-layer="1912" to-port="1"/>
		<edge from-layer="1910" from-port="0" to-layer="1912" to-port="2"/>
		<edge from-layer="1911" from-port="0" to-layer="1912" to-port="3"/>
		<edge from-layer="1912" from-port="4" to-layer="1957" to-port="2"/>
		<edge from-layer="1913" from-port="0" to-layer="1914" to-port="1"/>
		<edge from-layer="1914" from-port="2" to-layer="1930" to-port="0"/>
		<edge from-layer="1915" from-port="1" to-layer="1916" to-port="0"/>
		<edge from-layer="1916" from-port="1" to-layer="1918" to-port="0"/>
		<edge from-layer="1917" from-port="0" to-layer="1918" to-port="1"/>
		<edge from-layer="1918" from-port="2" to-layer="1920" to-port="0"/>
		<edge from-layer="1919" from-port="0" to-layer="1920" to-port="1"/>
		<edge from-layer="1920" from-port="2" to-layer="1921" to-port="0"/>
		<edge from-layer="1921" from-port="1" to-layer="1922" to-port="0"/>
		<edge from-layer="1922" from-port="1" to-layer="1926" to-port="0"/>
		<edge from-layer="1923" from-port="0" to-layer="1926" to-port="1"/>
		<edge from-layer="1924" from-port="0" to-layer="1926" to-port="2"/>
		<edge from-layer="1925" from-port="0" to-layer="1926" to-port="3"/>
		<edge from-layer="1926" from-port="4" to-layer="1929" to-port="1"/>
		<edge from-layer="1927" from-port="0" to-layer="1929" to-port="2"/>
		<edge from-layer="1928" from-port="0" to-layer="1929" to-port="3"/>
		<edge from-layer="1929" from-port="4" to-layer="1930" to-port="1"/>
		<edge from-layer="1930" from-port="2" to-layer="1932" to-port="0"/>
		<edge from-layer="1931" from-port="0" to-layer="1932" to-port="1"/>
		<edge from-layer="1932" from-port="2" to-layer="1934" to-port="0"/>
		<edge from-layer="1933" from-port="0" to-layer="1934" to-port="1"/>
		<edge from-layer="1934" from-port="2" to-layer="1935" to-port="0"/>
		<edge from-layer="1935" from-port="1" to-layer="1937" to-port="0"/>
		<edge from-layer="1936" from-port="0" to-layer="1937" to-port="1"/>
		<edge from-layer="1937" from-port="2" to-layer="1938" to-port="0"/>
		<edge from-layer="1938" from-port="1" to-layer="1940" to-port="0"/>
		<edge from-layer="1939" from-port="0" to-layer="1940" to-port="1"/>
		<edge from-layer="1940" from-port="2" to-layer="1941" to-port="0"/>
		<edge from-layer="1941" from-port="1" to-layer="1956" to-port="0"/>
		<edge from-layer="1941" from-port="1" to-layer="1942" to-port="0"/>
		<edge from-layer="1942" from-port="1" to-layer="1943" to-port="0"/>
		<edge from-layer="1943" from-port="1" to-layer="1945" to-port="0"/>
		<edge from-layer="1944" from-port="0" to-layer="1945" to-port="1"/>
		<edge from-layer="1945" from-port="2" to-layer="1947" to-port="0"/>
		<edge from-layer="1946" from-port="0" to-layer="1947" to-port="1"/>
		<edge from-layer="1947" from-port="2" to-layer="1948" to-port="0"/>
		<edge from-layer="1948" from-port="1" to-layer="1949" to-port="0"/>
		<edge from-layer="1949" from-port="1" to-layer="1953" to-port="0"/>
		<edge from-layer="1950" from-port="0" to-layer="1953" to-port="1"/>
		<edge from-layer="1951" from-port="0" to-layer="1953" to-port="2"/>
		<edge from-layer="1952" from-port="0" to-layer="1953" to-port="3"/>
		<edge from-layer="1953" from-port="4" to-layer="1956" to-port="1"/>
		<edge from-layer="1954" from-port="0" to-layer="1956" to-port="2"/>
		<edge from-layer="1955" from-port="0" to-layer="1956" to-port="3"/>
		<edge from-layer="1956" from-port="4" to-layer="1957" to-port="3"/>
		<edge from-layer="1957" from-port="4" to-layer="1959" to-port="0"/>
		<edge from-layer="1958" from-port="0" to-layer="1959" to-port="1"/>
		<edge from-layer="1959" from-port="2" to-layer="1961" to-port="0"/>
		<edge from-layer="1960" from-port="0" to-layer="1961" to-port="1"/>
		<edge from-layer="1961" from-port="2" to-layer="1962" to-port="0"/>
		<edge from-layer="1962" from-port="1" to-layer="1963" to-port="0"/>
		<edge from-layer="1962" from-port="1" to-layer="1977" to-port="0"/>
		<edge from-layer="1963" from-port="1" to-layer="1964" to-port="0"/>
		<edge from-layer="1964" from-port="1" to-layer="1966" to-port="0"/>
		<edge from-layer="1965" from-port="0" to-layer="1966" to-port="1"/>
		<edge from-layer="1966" from-port="2" to-layer="1968" to-port="0"/>
		<edge from-layer="1967" from-port="0" to-layer="1968" to-port="1"/>
		<edge from-layer="1968" from-port="2" to-layer="1969" to-port="0"/>
		<edge from-layer="1969" from-port="1" to-layer="1970" to-port="0"/>
		<edge from-layer="1970" from-port="1" to-layer="1974" to-port="0"/>
		<edge from-layer="1971" from-port="0" to-layer="1974" to-port="1"/>
		<edge from-layer="1972" from-port="0" to-layer="1974" to-port="2"/>
		<edge from-layer="1973" from-port="0" to-layer="1974" to-port="3"/>
		<edge from-layer="1974" from-port="4" to-layer="1977" to-port="1"/>
		<edge from-layer="1975" from-port="0" to-layer="1977" to-port="2"/>
		<edge from-layer="1976" from-port="0" to-layer="1977" to-port="3"/>
		<edge from-layer="1977" from-port="4" to-layer="1980" to-port="0"/>
		<edge from-layer="1978" from-port="0" to-layer="1979" to-port="1"/>
		<edge from-layer="1979" from-port="2" to-layer="1980" to-port="1"/>
		<edge from-layer="1980" from-port="2" to-layer="1982" to-port="0"/>
		<edge from-layer="1981" from-port="0" to-layer="1982" to-port="1"/>
		<edge from-layer="1982" from-port="2" to-layer="1984" to-port="0"/>
		<edge from-layer="1983" from-port="0" to-layer="1984" to-port="1"/>
		<edge from-layer="1984" from-port="2" to-layer="1985" to-port="0"/>
		<edge from-layer="1985" from-port="1" to-layer="1986" to-port="0"/>
		<edge from-layer="1985" from-port="1" to-layer="2000" to-port="0"/>
		<edge from-layer="1986" from-port="1" to-layer="1987" to-port="0"/>
		<edge from-layer="1987" from-port="1" to-layer="1989" to-port="0"/>
		<edge from-layer="1988" from-port="0" to-layer="1989" to-port="1"/>
		<edge from-layer="1989" from-port="2" to-layer="1991" to-port="0"/>
		<edge from-layer="1990" from-port="0" to-layer="1991" to-port="1"/>
		<edge from-layer="1991" from-port="2" to-layer="1992" to-port="0"/>
		<edge from-layer="1992" from-port="1" to-layer="1993" to-port="0"/>
		<edge from-layer="1993" from-port="1" to-layer="1997" to-port="0"/>
		<edge from-layer="1994" from-port="0" to-layer="1997" to-port="1"/>
		<edge from-layer="1995" from-port="0" to-layer="1997" to-port="2"/>
		<edge from-layer="1996" from-port="0" to-layer="1997" to-port="3"/>
		<edge from-layer="1997" from-port="4" to-layer="2000" to-port="1"/>
		<edge from-layer="1998" from-port="0" to-layer="2000" to-port="2"/>
		<edge from-layer="1999" from-port="0" to-layer="2000" to-port="3"/>
		<edge from-layer="2000" from-port="4" to-layer="2002" to-port="0"/>
		<edge from-layer="2001" from-port="0" to-layer="2002" to-port="1"/>
		<edge from-layer="2002" from-port="2" to-layer="2004" to-port="0"/>
		<edge from-layer="2003" from-port="0" to-layer="2004" to-port="1"/>
		<edge from-layer="2004" from-port="2" to-layer="2005" to-port="0"/>
		<edge from-layer="2005" from-port="1" to-layer="2006" to-port="0"/>
		<edge from-layer="2006" from-port="2" to-layer="2007" to-port="0"/>
		<edge from-layer="2007" from-port="1" to-layer="2009" to-port="0"/>
		<edge from-layer="2008" from-port="0" to-layer="2009" to-port="1"/>
		<edge from-layer="2009" from-port="2" to-layer="2011" to-port="0"/>
		<edge from-layer="2010" from-port="0" to-layer="2011" to-port="1"/>
		<edge from-layer="2011" from-port="2" to-layer="2014" to-port="0"/>
		<edge from-layer="2012" from-port="0" to-layer="2014" to-port="1"/>
		<edge from-layer="2013" from-port="0" to-layer="2014" to-port="2"/>
		<edge from-layer="2014" from-port="3" to-layer="2015" to-port="0"/>
	</edges>
	<meta_data>
		<MO_version value="2021.4.2-3974-e2a469a3450-releases/2021/4"/>
		<cli_parameters>
			<caffe_parser_path value="DIR"/>
			<data_type value="FP32"/>
			<disable_nhwc_to_nchw value="False"/>
			<disable_omitting_optional value="False"/>
			<disable_resnet_optimization value="False"/>
			<disable_weights_compression value="False"/>
			<enable_concat_optimization value="False"/>
			<enable_flattening_nested_params value="False"/>
			<enable_ssd_gluoncv value="False"/>
			<extensions value="DIR"/>
			<framework value="onnx"/>
			<freeze_placeholder_with_value value="{}"/>
			<generate_deprecated_IR_V7 value="False"/>
			<input value="blur_image"/>
			<input_model value="DIR/deblurgan-v2.onnx"/>
			<input_model_is_text value="False"/>
			<input_shape value="[1,3,736,1312]"/>
			<k value="DIR/CustomLayersMapping.xml"/>
			<keep_shape_ops value="True"/>
			<legacy_ir_generation value="False"/>
			<legacy_mxnet_model value="False"/>
			<log_level value="ERROR"/>
			<mean_scale_values value="{'blur_image': {'mean': array([127.5]), 'scale': array([127.5])}}"/>
			<mean_values value="blur_image[127.5]"/>
			<model_name value="deblurgan-v2"/>
			<output value="['deblur_image']"/>
			<output_dir value="DIR"/>
			<placeholder_data_types value="{}"/>
			<placeholder_shapes value="{'blur_image': array([   1,    3,  736, 1312])}"/>
			<progress value="False"/>
			<remove_memory value="False"/>
			<remove_output_softmax value="False"/>
			<reverse_input_channels value="True"/>
			<save_params_from_nd value="False"/>
			<scale_values value="blur_image[127.5]"/>
			<silent value="False"/>
			<static_shape value="False"/>
			<stream_output value="False"/>
			<transform value=""/>
			<unset unset_cli_parameters="batch, counts, disable_fusing, disable_gfusing, finegrain_fusing, input_checkpoint, input_meta_graph, input_proto, input_symbol, mean_file, mean_file_offsets, move_to_preprocess, nd_prefix_name, pretrained_model_name, saved_model_dir, saved_model_tags, scale, tensorboard_logdir, tensorflow_custom_layer_libraries, tensorflow_custom_operations_config_update, tensorflow_object_detection_api_pipeline_config, tensorflow_use_custom_operations_config, transformations_config"/>
		</cli_parameters>
	</meta_data>
</net>
