<?xml version="1.0" ?>
<net name="deeplabv3" version="11">
	<layers>
		<layer id="0" name="mul_1/placeholder_port_1" type="Parameter" version="opset1">
			<data shape="1,513,513,3" element_type="f32"/>
			<rt_info>
				<attribute name="fused_names" version="0" value="mul_1/placeholder_port_1"/>
				<attribute name="old_api_map_element_type" version="0" value="f16"/>
				<attribute name="old_api_map_order" version="0" value="0, 2, 3, 1"/>
			</rt_info>
			<output>
				<port id="0" precision="FP32" names="1:mul_1">
					<dim>1</dim>
					<dim>513</dim>
					<dim>513</dim>
					<dim>3</dim>
					<rt_info>
						<attribute name="layout" version="0" layout="[N,H,W,C]"/>
					</rt_info>
				</port>
			</output>
		</layer>
		<layer id="1" name="mul_1/x_compressed" type="Const" version="opset1">
			<data element_type="f16" shape="1, 1, 1, 1" offset="0" size="2"/>
			<output>
				<port id="0" precision="FP16">
					<dim>1</dim>
					<dim>1</dim>
					<dim>1</dim>
					<dim>1</dim>
				</port>
			</output>
		</layer>
		<layer id="2" name="mul_1/x" type="Convert" version="opset1">
			<data destination_type="f32"/>
			<rt_info>
				<attribute name="decompression" version="0"/>
				<attribute name="fused_names" version="0" value="mul_1/x"/>
			</rt_info>
			<input>
				<port id="0" precision="FP16">
					<dim>1</dim>
					<dim>1</dim>
					<dim>1</dim>
					<dim>1</dim>
				</port>
			</input>
			<output>
				<port id="1" precision="FP32" names="mul_1/x:0">
					<dim>1</dim>
					<dim>1</dim>
					<dim>1</dim>
					<dim>1</dim>
				</port>
			</output>
		</layer>
		<layer id="3" name="mul_1/placeholder_port_1/Transpose([0 3 1 2])/value1924824542" type="Const" version="opset1">
			<data element_type="i64" shape="4" offset="2" size="32"/>
			<rt_info>
				<attribute name="fused_names" version="0" value="mul_1/placeholder_port_1/Transpose([0 3 1 2])/value1924824542"/>
			</rt_info>
			<output>
				<port id="0" precision="I64">
					<dim>4</dim>
				</port>
			</output>
		</layer>
		<layer id="4" name="mul_1/placeholder_port_1/Transpose([0 3 1 2])" type="Transpose" version="opset1">
			<rt_info>
				<attribute name="fused_names" version="0" value="mul_1/placeholder_port_1/Transpose([0 3 1 2])"/>
			</rt_info>
			<input>
				<port id="0" precision="FP32">
					<dim>1</dim>
					<dim>513</dim>
					<dim>513</dim>
					<dim>3</dim>
				</port>
				<port id="1" precision="I64">
					<dim>4</dim>
				</port>
			</input>
			<output>
				<port id="2" precision="FP32">
					<dim>1</dim>
					<dim>3</dim>
					<dim>513</dim>
					<dim>513</dim>
				</port>
			</output>
		</layer>
		<layer id="5" name="mul_1" type="Multiply" version="opset1">
			<data auto_broadcast="numpy"/>
			<rt_info>
				<attribute name="fused_names" version="0" value="mul_1"/>
			</rt_info>
			<input>
				<port id="0" precision="FP32">
					<dim>1</dim>
					<dim>1</dim>
					<dim>1</dim>
					<dim>1</dim>
				</port>
				<port id="1" precision="FP32">
					<dim>1</dim>
					<dim>3</dim>
					<dim>513</dim>
					<dim>513</dim>
				</port>
			</input>
			<output>
				<port id="2" precision="FP32" names="mul_1:0">
					<dim>1</dim>
					<dim>3</dim>
					<dim>513</dim>
					<dim>513</dim>
				</port>
			</output>
		</layer>
		<layer id="6" name="sub_7/y_compressed" type="Const" version="opset1">
			<data element_type="f16" shape="1, 1, 1, 1" offset="34" size="2"/>
			<output>
				<port id="0" precision="FP16">
					<dim>1</dim>
					<dim>1</dim>
					<dim>1</dim>
					<dim>1</dim>
				</port>
			</output>
		</layer>
		<layer id="7" name="sub_7/y" type="Convert" version="opset1">
			<data destination_type="f32"/>
			<rt_info>
				<attribute name="decompression" version="0"/>
				<attribute name="fused_names" version="0" value="sub_7/y"/>
			</rt_info>
			<input>
				<port id="0" precision="FP16">
					<dim>1</dim>
					<dim>1</dim>
					<dim>1</dim>
					<dim>1</dim>
				</port>
			</input>
			<output>
				<port id="1" precision="FP32" names="sub_7/y:0">
					<dim>1</dim>
					<dim>1</dim>
					<dim>1</dim>
					<dim>1</dim>
				</port>
			</output>
		</layer>
		<layer id="8" name="sub_7" type="Add" version="opset1">
			<data auto_broadcast="numpy"/>
			<rt_info>
				<attribute name="fused_names" version="0" value="sub_7"/>
			</rt_info>
			<input>
				<port id="0" precision="FP32">
					<dim>1</dim>
					<dim>3</dim>
					<dim>513</dim>
					<dim>513</dim>
				</port>
				<port id="1" precision="FP32">
					<dim>1</dim>
					<dim>1</dim>
					<dim>1</dim>
					<dim>1</dim>
				</port>
			</input>
			<output>
				<port id="2" precision="FP32" names="sub_7:0">
					<dim>1</dim>
					<dim>3</dim>
					<dim>513</dim>
					<dim>513</dim>
				</port>
			</output>
		</layer>
		<layer id="9" name="MobilenetV2/Conv/BatchNorm/FusedBatchNorm/mean/Fused_Mul__copy_compressed" type="Const" version="opset1">
			<data element_type="f16" shape="32, 3, 3, 3" offset="36" size="1728"/>
			<output>
				<port id="0" precision="FP16">
					<dim>32</dim>
					<dim>3</dim>
					<dim>3</dim>
					<dim>3</dim>
				</port>
			</output>
		</layer>
		<layer id="10" name="MobilenetV2/Conv/BatchNorm/FusedBatchNorm/mean/Fused_Mul__copy" type="Convert" version="opset1">
			<data destination_type="f32"/>
			<rt_info>
				<attribute name="decompression" version="0"/>
				<attribute name="fused_names" version="0" value="MobilenetV2/Conv/BatchNorm/FusedBatchNorm/mean/Fused_Mul__copy"/>
			</rt_info>
			<input>
				<port id="0" precision="FP16">
					<dim>32</dim>
					<dim>3</dim>
					<dim>3</dim>
					<dim>3</dim>
				</port>
			</input>
			<output>
				<port id="1" precision="FP32" names="MobilenetV2/Conv/weights/read:0">
					<dim>32</dim>
					<dim>3</dim>
					<dim>3</dim>
					<dim>3</dim>
				</port>
			</output>
		</layer>
		<layer id="11" name="MobilenetV2/Conv/Conv2D" type="Convolution" version="opset1">
			<data strides="2, 2" dilations="1, 1" pads_begin="0, 0" pads_end="0, 0" auto_pad="same_upper"/>
			<rt_info>
				<attribute name="fused_names" version="0" value="MobilenetV2/Conv/Conv2D"/>
			</rt_info>
			<input>
				<port id="0" precision="FP32">
					<dim>1</dim>
					<dim>3</dim>
					<dim>513</dim>
					<dim>513</dim>
				</port>
				<port id="1" precision="FP32">
					<dim>32</dim>
					<dim>3</dim>
					<dim>3</dim>
					<dim>3</dim>
				</port>
			</input>
			<output>
				<port id="2" precision="FP32">
					<dim>1</dim>
					<dim>32</dim>
					<dim>257</dim>
					<dim>257</dim>
				</port>
			</output>
		</layer>
		<layer id="12" name="data_add_15168_compressed" type="Const" version="opset1">
			<data element_type="f16" shape="1, 32, 1, 1" offset="1764" size="64"/>
			<output>
				<port id="0" precision="FP16">
					<dim>1</dim>
					<dim>32</dim>
					<dim>1</dim>
					<dim>1</dim>
				</port>
			</output>
		</layer>
		<layer id="13" name="data_add_15168" type="Convert" version="opset1">
			<data destination_type="f32"/>
			<rt_info>
				<attribute name="decompression" version="0"/>
				<attribute name="fused_names" version="0" value="data_add_15168"/>
			</rt_info>
			<input>
				<port id="0" precision="FP16">
					<dim>1</dim>
					<dim>32</dim>
					<dim>1</dim>
					<dim>1</dim>
				</port>
			</input>
			<output>
				<port id="1" precision="FP32">
					<dim>1</dim>
					<dim>32</dim>
					<dim>1</dim>
					<dim>1</dim>
				</port>
			</output>
		</layer>
		<layer id="14" name="MobilenetV2/Conv/BatchNorm/FusedBatchNorm/variance/Fused_Add_" type="Add" version="opset1">
			<data auto_broadcast="numpy"/>
			<rt_info>
				<attribute name="fused_names" version="0" value="MobilenetV2/Conv/BatchNorm/FusedBatchNorm/variance/Fused_Add_"/>
			</rt_info>
			<input>
				<port id="0" precision="FP32">
					<dim>1</dim>
					<dim>32</dim>
					<dim>257</dim>
					<dim>257</dim>
				</port>
				<port id="1" precision="FP32">
					<dim>1</dim>
					<dim>32</dim>
					<dim>1</dim>
					<dim>1</dim>
				</port>
			</input>
			<output>
				<port id="2" precision="FP32" names="MobilenetV2/Conv/BatchNorm/FusedBatchNorm:0">
					<dim>1</dim>
					<dim>32</dim>
					<dim>257</dim>
					<dim>257</dim>
				</port>
			</output>
		</layer>
		<layer id="15" name="MobilenetV2/Conv/Relu6" type="Clamp" version="opset1">
			<data min="0" max="6"/>
			<rt_info>
				<attribute name="fused_names" version="0" value="MobilenetV2/Conv/Relu6"/>
			</rt_info>
			<input>
				<port id="0" precision="FP32">
					<dim>1</dim>
					<dim>32</dim>
					<dim>257</dim>
					<dim>257</dim>
				</port>
			</input>
			<output>
				<port id="1" precision="FP32" names="MobilenetV2/Conv/Relu6:0,MobilenetV2/expanded_conv/input:0">
					<dim>1</dim>
					<dim>32</dim>
					<dim>257</dim>
					<dim>257</dim>
				</port>
			</output>
		</layer>
		<layer id="16" name="MobilenetV2/expanded_conv/depthwise/BatchNorm/FusedBatchNorm/mean/Fused_Mul__copy_compressed" type="Const" version="opset1">
			<data element_type="f16" shape="32, 1, 1, 3, 3" offset="1828" size="576"/>
			<output>
				<port id="0" precision="FP16">
					<dim>32</dim>
					<dim>1</dim>
					<dim>1</dim>
					<dim>3</dim>
					<dim>3</dim>
				</port>
			</output>
		</layer>
		<layer id="17" name="MobilenetV2/expanded_conv/depthwise/BatchNorm/FusedBatchNorm/mean/Fused_Mul__copy" type="Convert" version="opset1">
			<data destination_type="f32"/>
			<rt_info>
				<attribute name="decompression" version="0"/>
				<attribute name="fused_names" version="0" value="MobilenetV2/expanded_conv/depthwise/BatchNorm/FusedBatchNorm/mean/Fused_Mul__copy"/>
			</rt_info>
			<input>
				<port id="0" precision="FP16">
					<dim>32</dim>
					<dim>1</dim>
					<dim>1</dim>
					<dim>3</dim>
					<dim>3</dim>
				</port>
			</input>
			<output>
				<port id="1" precision="FP32" names="MobilenetV2/expanded_conv/depthwise/depthwise_weights/read:0">
					<dim>32</dim>
					<dim>1</dim>
					<dim>1</dim>
					<dim>3</dim>
					<dim>3</dim>
				</port>
			</output>
		</layer>
		<layer id="18" name="MobilenetV2/expanded_conv/depthwise/depthwise" type="GroupConvolution" version="opset1">
			<data strides="1, 1" pads_begin="0, 0" pads_end="0, 0" dilations="1, 1" auto_pad="same_upper"/>
			<rt_info>
				<attribute name="fused_names" version="0" value="MobilenetV2/expanded_conv/depthwise/depthwise"/>
			</rt_info>
			<input>
				<port id="0" precision="FP32">
					<dim>1</dim>
					<dim>32</dim>
					<dim>257</dim>
					<dim>257</dim>
				</port>
				<port id="1" precision="FP32">
					<dim>32</dim>
					<dim>1</dim>
					<dim>1</dim>
					<dim>3</dim>
					<dim>3</dim>
				</port>
			</input>
			<output>
				<port id="2" precision="FP32">
					<dim>1</dim>
					<dim>32</dim>
					<dim>257</dim>
					<dim>257</dim>
				</port>
			</output>
		</layer>
		<layer id="19" name="data_add_1517115176_compressed" type="Const" version="opset1">
			<data element_type="f16" shape="1, 32, 1, 1" offset="2404" size="64"/>
			<output>
				<port id="0" precision="FP16">
					<dim>1</dim>
					<dim>32</dim>
					<dim>1</dim>
					<dim>1</dim>
				</port>
			</output>
		</layer>
		<layer id="20" name="data_add_1517115176" type="Convert" version="opset1">
			<data destination_type="f32"/>
			<rt_info>
				<attribute name="decompression" version="0"/>
				<attribute name="fused_names" version="0" value="data_add_1517115176"/>
			</rt_info>
			<input>
				<port id="0" precision="FP16">
					<dim>1</dim>
					<dim>32</dim>
					<dim>1</dim>
					<dim>1</dim>
				</port>
			</input>
			<output>
				<port id="1" precision="FP32">
					<dim>1</dim>
					<dim>32</dim>
					<dim>1</dim>
					<dim>1</dim>
				</port>
			</output>
		</layer>
		<layer id="21" name="MobilenetV2/expanded_conv/depthwise/BatchNorm/FusedBatchNorm/variance/Fused_Add_" type="Add" version="opset1">
			<data auto_broadcast="numpy"/>
			<rt_info>
				<attribute name="fused_names" version="0" value="MobilenetV2/expanded_conv/depthwise/BatchNorm/FusedBatchNorm/variance/Fused_Add_"/>
			</rt_info>
			<input>
				<port id="0" precision="FP32">
					<dim>1</dim>
					<dim>32</dim>
					<dim>257</dim>
					<dim>257</dim>
				</port>
				<port id="1" precision="FP32">
					<dim>1</dim>
					<dim>32</dim>
					<dim>1</dim>
					<dim>1</dim>
				</port>
			</input>
			<output>
				<port id="2" precision="FP32" names="MobilenetV2/expanded_conv/depthwise/BatchNorm/FusedBatchNorm:0">
					<dim>1</dim>
					<dim>32</dim>
					<dim>257</dim>
					<dim>257</dim>
				</port>
			</output>
		</layer>
		<layer id="22" name="MobilenetV2/expanded_conv/depthwise/Relu6" type="Clamp" version="opset1">
			<data min="0" max="6"/>
			<rt_info>
				<attribute name="fused_names" version="0" value="MobilenetV2/expanded_conv/depthwise/Relu6"/>
			</rt_info>
			<input>
				<port id="0" precision="FP32">
					<dim>1</dim>
					<dim>32</dim>
					<dim>257</dim>
					<dim>257</dim>
				</port>
			</input>
			<output>
				<port id="1" precision="FP32" names="MobilenetV2/expanded_conv/depthwise/Relu6:0,MobilenetV2/expanded_conv/depthwise_output:0">
					<dim>1</dim>
					<dim>32</dim>
					<dim>257</dim>
					<dim>257</dim>
				</port>
			</output>
		</layer>
		<layer id="23" name="MobilenetV2/expanded_conv/project/BatchNorm/FusedBatchNorm/mean/Fused_Mul__copy_compressed" type="Const" version="opset1">
			<data element_type="f16" shape="16, 32, 1, 1" offset="2468" size="1024"/>
			<output>
				<port id="0" precision="FP16">
					<dim>16</dim>
					<dim>32</dim>
					<dim>1</dim>
					<dim>1</dim>
				</port>
			</output>
		</layer>
		<layer id="24" name="MobilenetV2/expanded_conv/project/BatchNorm/FusedBatchNorm/mean/Fused_Mul__copy" type="Convert" version="opset1">
			<data destination_type="f32"/>
			<rt_info>
				<attribute name="decompression" version="0"/>
				<attribute name="fused_names" version="0" value="MobilenetV2/expanded_conv/project/BatchNorm/FusedBatchNorm/mean/Fused_Mul__copy"/>
			</rt_info>
			<input>
				<port id="0" precision="FP16">
					<dim>16</dim>
					<dim>32</dim>
					<dim>1</dim>
					<dim>1</dim>
				</port>
			</input>
			<output>
				<port id="1" precision="FP32" names="MobilenetV2/expanded_conv/project/weights/read:0">
					<dim>16</dim>
					<dim>32</dim>
					<dim>1</dim>
					<dim>1</dim>
				</port>
			</output>
		</layer>
		<layer id="25" name="MobilenetV2/expanded_conv/project/Conv2D" type="Convolution" version="opset1">
			<data strides="1, 1" dilations="1, 1" pads_begin="0, 0" pads_end="0, 0" auto_pad="same_upper"/>
			<rt_info>
				<attribute name="fused_names" version="0" value="MobilenetV2/expanded_conv/project/Conv2D"/>
			</rt_info>
			<input>
				<port id="0" precision="FP32">
					<dim>1</dim>
					<dim>32</dim>
					<dim>257</dim>
					<dim>257</dim>
				</port>
				<port id="1" precision="FP32">
					<dim>16</dim>
					<dim>32</dim>
					<dim>1</dim>
					<dim>1</dim>
				</port>
			</input>
			<output>
				<port id="2" precision="FP32">
					<dim>1</dim>
					<dim>16</dim>
					<dim>257</dim>
					<dim>257</dim>
				</port>
			</output>
		</layer>
		<layer id="26" name="data_add_1517915184_compressed" type="Const" version="opset1">
			<data element_type="f16" shape="1, 16, 1, 1" offset="3492" size="32"/>
			<output>
				<port id="0" precision="FP16">
					<dim>1</dim>
					<dim>16</dim>
					<dim>1</dim>
					<dim>1</dim>
				</port>
			</output>
		</layer>
		<layer id="27" name="data_add_1517915184" type="Convert" version="opset1">
			<data destination_type="f32"/>
			<rt_info>
				<attribute name="decompression" version="0"/>
				<attribute name="fused_names" version="0" value="data_add_1517915184"/>
			</rt_info>
			<input>
				<port id="0" precision="FP16">
					<dim>1</dim>
					<dim>16</dim>
					<dim>1</dim>
					<dim>1</dim>
				</port>
			</input>
			<output>
				<port id="1" precision="FP32">
					<dim>1</dim>
					<dim>16</dim>
					<dim>1</dim>
					<dim>1</dim>
				</port>
			</output>
		</layer>
		<layer id="28" name="MobilenetV2/expanded_conv/project/BatchNorm/FusedBatchNorm/variance/Fused_Add_" type="Add" version="opset1">
			<data auto_broadcast="numpy"/>
			<rt_info>
				<attribute name="fused_names" version="0" value="MobilenetV2/expanded_conv/project/BatchNorm/FusedBatchNorm/variance/Fused_Add_"/>
			</rt_info>
			<input>
				<port id="0" precision="FP32">
					<dim>1</dim>
					<dim>16</dim>
					<dim>257</dim>
					<dim>257</dim>
				</port>
				<port id="1" precision="FP32">
					<dim>1</dim>
					<dim>16</dim>
					<dim>1</dim>
					<dim>1</dim>
				</port>
			</input>
			<output>
				<port id="2" precision="FP32" names="MobilenetV2/expanded_conv/output:0,MobilenetV2/expanded_conv/project/BatchNorm/FusedBatchNorm:0,MobilenetV2/expanded_conv/project/Identity:0,MobilenetV2/expanded_conv_1/input:0">
					<dim>1</dim>
					<dim>16</dim>
					<dim>257</dim>
					<dim>257</dim>
				</port>
			</output>
		</layer>
		<layer id="29" name="MobilenetV2/expanded_conv_1/expand/BatchNorm/FusedBatchNorm/mean/Fused_Mul__copy_compressed" type="Const" version="opset1">
			<data element_type="f16" shape="96, 16, 1, 1" offset="3524" size="3072"/>
			<output>
				<port id="0" precision="FP16">
					<dim>96</dim>
					<dim>16</dim>
					<dim>1</dim>
					<dim>1</dim>
				</port>
			</output>
		</layer>
		<layer id="30" name="MobilenetV2/expanded_conv_1/expand/BatchNorm/FusedBatchNorm/mean/Fused_Mul__copy" type="Convert" version="opset1">
			<data destination_type="f32"/>
			<rt_info>
				<attribute name="decompression" version="0"/>
				<attribute name="fused_names" version="0" value="MobilenetV2/expanded_conv_1/expand/BatchNorm/FusedBatchNorm/mean/Fused_Mul__copy"/>
			</rt_info>
			<input>
				<port id="0" precision="FP16">
					<dim>96</dim>
					<dim>16</dim>
					<dim>1</dim>
					<dim>1</dim>
				</port>
			</input>
			<output>
				<port id="1" precision="FP32" names="MobilenetV2/expanded_conv_1/expand/weights/read:0">
					<dim>96</dim>
					<dim>16</dim>
					<dim>1</dim>
					<dim>1</dim>
				</port>
			</output>
		</layer>
		<layer id="31" name="MobilenetV2/expanded_conv_1/expand/Conv2D" type="Convolution" version="opset1">
			<data strides="1, 1" dilations="1, 1" pads_begin="0, 0" pads_end="0, 0" auto_pad="same_upper"/>
			<rt_info>
				<attribute name="fused_names" version="0" value="MobilenetV2/expanded_conv_1/expand/Conv2D"/>
			</rt_info>
			<input>
				<port id="0" precision="FP32">
					<dim>1</dim>
					<dim>16</dim>
					<dim>257</dim>
					<dim>257</dim>
				</port>
				<port id="1" precision="FP32">
					<dim>96</dim>
					<dim>16</dim>
					<dim>1</dim>
					<dim>1</dim>
				</port>
			</input>
			<output>
				<port id="2" precision="FP32">
					<dim>1</dim>
					<dim>96</dim>
					<dim>257</dim>
					<dim>257</dim>
				</port>
			</output>
		</layer>
		<layer id="32" name="data_add_1518715192_compressed" type="Const" version="opset1">
			<data element_type="f16" shape="1, 96, 1, 1" offset="6596" size="192"/>
			<output>
				<port id="0" precision="FP16">
					<dim>1</dim>
					<dim>96</dim>
					<dim>1</dim>
					<dim>1</dim>
				</port>
			</output>
		</layer>
		<layer id="33" name="data_add_1518715192" type="Convert" version="opset1">
			<data destination_type="f32"/>
			<rt_info>
				<attribute name="decompression" version="0"/>
				<attribute name="fused_names" version="0" value="data_add_1518715192"/>
			</rt_info>
			<input>
				<port id="0" precision="FP16">
					<dim>1</dim>
					<dim>96</dim>
					<dim>1</dim>
					<dim>1</dim>
				</port>
			</input>
			<output>
				<port id="1" precision="FP32">
					<dim>1</dim>
					<dim>96</dim>
					<dim>1</dim>
					<dim>1</dim>
				</port>
			</output>
		</layer>
		<layer id="34" name="MobilenetV2/expanded_conv_1/expand/BatchNorm/FusedBatchNorm/variance/Fused_Add_" type="Add" version="opset1">
			<data auto_broadcast="numpy"/>
			<rt_info>
				<attribute name="fused_names" version="0" value="MobilenetV2/expanded_conv_1/expand/BatchNorm/FusedBatchNorm/variance/Fused_Add_"/>
			</rt_info>
			<input>
				<port id="0" precision="FP32">
					<dim>1</dim>
					<dim>96</dim>
					<dim>257</dim>
					<dim>257</dim>
				</port>
				<port id="1" precision="FP32">
					<dim>1</dim>
					<dim>96</dim>
					<dim>1</dim>
					<dim>1</dim>
				</port>
			</input>
			<output>
				<port id="2" precision="FP32" names="MobilenetV2/expanded_conv_1/expand/BatchNorm/FusedBatchNorm:0">
					<dim>1</dim>
					<dim>96</dim>
					<dim>257</dim>
					<dim>257</dim>
				</port>
			</output>
		</layer>
		<layer id="35" name="MobilenetV2/expanded_conv_1/expand/Relu6" type="Clamp" version="opset1">
			<data min="0" max="6"/>
			<rt_info>
				<attribute name="fused_names" version="0" value="MobilenetV2/expanded_conv_1/expand/Relu6"/>
			</rt_info>
			<input>
				<port id="0" precision="FP32">
					<dim>1</dim>
					<dim>96</dim>
					<dim>257</dim>
					<dim>257</dim>
				</port>
			</input>
			<output>
				<port id="1" precision="FP32" names="MobilenetV2/expanded_conv_1/expand/Relu6:0,MobilenetV2/expanded_conv_1/expansion_output:0">
					<dim>1</dim>
					<dim>96</dim>
					<dim>257</dim>
					<dim>257</dim>
				</port>
			</output>
		</layer>
		<layer id="36" name="MobilenetV2/expanded_conv_1/depthwise/BatchNorm/FusedBatchNorm/mean/Fused_Mul__copy_compressed" type="Const" version="opset1">
			<data element_type="f16" shape="96, 1, 1, 3, 3" offset="6788" size="1728"/>
			<output>
				<port id="0" precision="FP16">
					<dim>96</dim>
					<dim>1</dim>
					<dim>1</dim>
					<dim>3</dim>
					<dim>3</dim>
				</port>
			</output>
		</layer>
		<layer id="37" name="MobilenetV2/expanded_conv_1/depthwise/BatchNorm/FusedBatchNorm/mean/Fused_Mul__copy" type="Convert" version="opset1">
			<data destination_type="f32"/>
			<rt_info>
				<attribute name="decompression" version="0"/>
				<attribute name="fused_names" version="0" value="MobilenetV2/expanded_conv_1/depthwise/BatchNorm/FusedBatchNorm/mean/Fused_Mul__copy"/>
			</rt_info>
			<input>
				<port id="0" precision="FP16">
					<dim>96</dim>
					<dim>1</dim>
					<dim>1</dim>
					<dim>3</dim>
					<dim>3</dim>
				</port>
			</input>
			<output>
				<port id="1" precision="FP32" names="MobilenetV2/expanded_conv_1/depthwise/depthwise_weights/read:0">
					<dim>96</dim>
					<dim>1</dim>
					<dim>1</dim>
					<dim>3</dim>
					<dim>3</dim>
				</port>
			</output>
		</layer>
		<layer id="38" name="MobilenetV2/expanded_conv_1/depthwise/depthwise" type="GroupConvolution" version="opset1">
			<data strides="2, 2" pads_begin="0, 0" pads_end="0, 0" dilations="1, 1" auto_pad="same_upper"/>
			<rt_info>
				<attribute name="fused_names" version="0" value="MobilenetV2/expanded_conv_1/depthwise/depthwise"/>
			</rt_info>
			<input>
				<port id="0" precision="FP32">
					<dim>1</dim>
					<dim>96</dim>
					<dim>257</dim>
					<dim>257</dim>
				</port>
				<port id="1" precision="FP32">
					<dim>96</dim>
					<dim>1</dim>
					<dim>1</dim>
					<dim>3</dim>
					<dim>3</dim>
				</port>
			</input>
			<output>
				<port id="2" precision="FP32">
					<dim>1</dim>
					<dim>96</dim>
					<dim>129</dim>
					<dim>129</dim>
				</port>
			</output>
		</layer>
		<layer id="39" name="data_add_1519515200_compressed" type="Const" version="opset1">
			<data element_type="f16" shape="1, 96, 1, 1" offset="8516" size="192"/>
			<output>
				<port id="0" precision="FP16">
					<dim>1</dim>
					<dim>96</dim>
					<dim>1</dim>
					<dim>1</dim>
				</port>
			</output>
		</layer>
		<layer id="40" name="data_add_1519515200" type="Convert" version="opset1">
			<data destination_type="f32"/>
			<rt_info>
				<attribute name="decompression" version="0"/>
				<attribute name="fused_names" version="0" value="data_add_1519515200"/>
			</rt_info>
			<input>
				<port id="0" precision="FP16">
					<dim>1</dim>
					<dim>96</dim>
					<dim>1</dim>
					<dim>1</dim>
				</port>
			</input>
			<output>
				<port id="1" precision="FP32">
					<dim>1</dim>
					<dim>96</dim>
					<dim>1</dim>
					<dim>1</dim>
				</port>
			</output>
		</layer>
		<layer id="41" name="MobilenetV2/expanded_conv_1/depthwise/BatchNorm/FusedBatchNorm/variance/Fused_Add_" type="Add" version="opset1">
			<data auto_broadcast="numpy"/>
			<rt_info>
				<attribute name="fused_names" version="0" value="MobilenetV2/expanded_conv_1/depthwise/BatchNorm/FusedBatchNorm/variance/Fused_Add_"/>
			</rt_info>
			<input>
				<port id="0" precision="FP32">
					<dim>1</dim>
					<dim>96</dim>
					<dim>129</dim>
					<dim>129</dim>
				</port>
				<port id="1" precision="FP32">
					<dim>1</dim>
					<dim>96</dim>
					<dim>1</dim>
					<dim>1</dim>
				</port>
			</input>
			<output>
				<port id="2" precision="FP32" names="MobilenetV2/expanded_conv_1/depthwise/BatchNorm/FusedBatchNorm:0">
					<dim>1</dim>
					<dim>96</dim>
					<dim>129</dim>
					<dim>129</dim>
				</port>
			</output>
		</layer>
		<layer id="42" name="MobilenetV2/expanded_conv_1/depthwise/Relu6" type="Clamp" version="opset1">
			<data min="0" max="6"/>
			<rt_info>
				<attribute name="fused_names" version="0" value="MobilenetV2/expanded_conv_1/depthwise/Relu6"/>
			</rt_info>
			<input>
				<port id="0" precision="FP32">
					<dim>1</dim>
					<dim>96</dim>
					<dim>129</dim>
					<dim>129</dim>
				</port>
			</input>
			<output>
				<port id="1" precision="FP32" names="MobilenetV2/expanded_conv_1/depthwise/Relu6:0,MobilenetV2/expanded_conv_1/depthwise_output:0">
					<dim>1</dim>
					<dim>96</dim>
					<dim>129</dim>
					<dim>129</dim>
				</port>
			</output>
		</layer>
		<layer id="43" name="MobilenetV2/expanded_conv_1/project/BatchNorm/FusedBatchNorm/mean/Fused_Mul__copy_compressed" type="Const" version="opset1">
			<data element_type="f16" shape="24, 96, 1, 1" offset="8708" size="4608"/>
			<output>
				<port id="0" precision="FP16">
					<dim>24</dim>
					<dim>96</dim>
					<dim>1</dim>
					<dim>1</dim>
				</port>
			</output>
		</layer>
		<layer id="44" name="MobilenetV2/expanded_conv_1/project/BatchNorm/FusedBatchNorm/mean/Fused_Mul__copy" type="Convert" version="opset1">
			<data destination_type="f32"/>
			<rt_info>
				<attribute name="decompression" version="0"/>
				<attribute name="fused_names" version="0" value="MobilenetV2/expanded_conv_1/project/BatchNorm/FusedBatchNorm/mean/Fused_Mul__copy"/>
			</rt_info>
			<input>
				<port id="0" precision="FP16">
					<dim>24</dim>
					<dim>96</dim>
					<dim>1</dim>
					<dim>1</dim>
				</port>
			</input>
			<output>
				<port id="1" precision="FP32" names="MobilenetV2/expanded_conv_1/project/weights/read:0">
					<dim>24</dim>
					<dim>96</dim>
					<dim>1</dim>
					<dim>1</dim>
				</port>
			</output>
		</layer>
		<layer id="45" name="MobilenetV2/expanded_conv_1/project/Conv2D" type="Convolution" version="opset1">
			<data strides="1, 1" dilations="1, 1" pads_begin="0, 0" pads_end="0, 0" auto_pad="same_upper"/>
			<rt_info>
				<attribute name="fused_names" version="0" value="MobilenetV2/expanded_conv_1/project/Conv2D"/>
			</rt_info>
			<input>
				<port id="0" precision="FP32">
					<dim>1</dim>
					<dim>96</dim>
					<dim>129</dim>
					<dim>129</dim>
				</port>
				<port id="1" precision="FP32">
					<dim>24</dim>
					<dim>96</dim>
					<dim>1</dim>
					<dim>1</dim>
				</port>
			</input>
			<output>
				<port id="2" precision="FP32">
					<dim>1</dim>
					<dim>24</dim>
					<dim>129</dim>
					<dim>129</dim>
				</port>
			</output>
		</layer>
		<layer id="46" name="data_add_1520315208_compressed" type="Const" version="opset1">
			<data element_type="f16" shape="1, 24, 1, 1" offset="13316" size="48"/>
			<output>
				<port id="0" precision="FP16">
					<dim>1</dim>
					<dim>24</dim>
					<dim>1</dim>
					<dim>1</dim>
				</port>
			</output>
		</layer>
		<layer id="47" name="data_add_1520315208" type="Convert" version="opset1">
			<data destination_type="f32"/>
			<rt_info>
				<attribute name="decompression" version="0"/>
				<attribute name="fused_names" version="0" value="data_add_1520315208"/>
			</rt_info>
			<input>
				<port id="0" precision="FP16">
					<dim>1</dim>
					<dim>24</dim>
					<dim>1</dim>
					<dim>1</dim>
				</port>
			</input>
			<output>
				<port id="1" precision="FP32">
					<dim>1</dim>
					<dim>24</dim>
					<dim>1</dim>
					<dim>1</dim>
				</port>
			</output>
		</layer>
		<layer id="48" name="MobilenetV2/expanded_conv_1/project/BatchNorm/FusedBatchNorm/variance/Fused_Add_" type="Add" version="opset1">
			<data auto_broadcast="numpy"/>
			<rt_info>
				<attribute name="fused_names" version="0" value="MobilenetV2/expanded_conv_1/project/BatchNorm/FusedBatchNorm/variance/Fused_Add_"/>
			</rt_info>
			<input>
				<port id="0" precision="FP32">
					<dim>1</dim>
					<dim>24</dim>
					<dim>129</dim>
					<dim>129</dim>
				</port>
				<port id="1" precision="FP32">
					<dim>1</dim>
					<dim>24</dim>
					<dim>1</dim>
					<dim>1</dim>
				</port>
			</input>
			<output>
				<port id="2" precision="FP32" names="MobilenetV2/expanded_conv_1/output:0,MobilenetV2/expanded_conv_1/project/BatchNorm/FusedBatchNorm:0,MobilenetV2/expanded_conv_1/project/Identity:0,MobilenetV2/expanded_conv_2/input:0">
					<dim>1</dim>
					<dim>24</dim>
					<dim>129</dim>
					<dim>129</dim>
				</port>
			</output>
		</layer>
		<layer id="49" name="MobilenetV2/expanded_conv_2/expand/BatchNorm/FusedBatchNorm/mean/Fused_Mul__copy_compressed" type="Const" version="opset1">
			<data element_type="f16" shape="144, 24, 1, 1" offset="13364" size="6912"/>
			<output>
				<port id="0" precision="FP16">
					<dim>144</dim>
					<dim>24</dim>
					<dim>1</dim>
					<dim>1</dim>
				</port>
			</output>
		</layer>
		<layer id="50" name="MobilenetV2/expanded_conv_2/expand/BatchNorm/FusedBatchNorm/mean/Fused_Mul__copy" type="Convert" version="opset1">
			<data destination_type="f32"/>
			<rt_info>
				<attribute name="decompression" version="0"/>
				<attribute name="fused_names" version="0" value="MobilenetV2/expanded_conv_2/expand/BatchNorm/FusedBatchNorm/mean/Fused_Mul__copy"/>
			</rt_info>
			<input>
				<port id="0" precision="FP16">
					<dim>144</dim>
					<dim>24</dim>
					<dim>1</dim>
					<dim>1</dim>
				</port>
			</input>
			<output>
				<port id="1" precision="FP32" names="MobilenetV2/expanded_conv_2/expand/weights/read:0">
					<dim>144</dim>
					<dim>24</dim>
					<dim>1</dim>
					<dim>1</dim>
				</port>
			</output>
		</layer>
		<layer id="51" name="MobilenetV2/expanded_conv_2/expand/Conv2D" type="Convolution" version="opset1">
			<data strides="1, 1" dilations="1, 1" pads_begin="0, 0" pads_end="0, 0" auto_pad="same_upper"/>
			<rt_info>
				<attribute name="fused_names" version="0" value="MobilenetV2/expanded_conv_2/expand/Conv2D"/>
			</rt_info>
			<input>
				<port id="0" precision="FP32">
					<dim>1</dim>
					<dim>24</dim>
					<dim>129</dim>
					<dim>129</dim>
				</port>
				<port id="1" precision="FP32">
					<dim>144</dim>
					<dim>24</dim>
					<dim>1</dim>
					<dim>1</dim>
				</port>
			</input>
			<output>
				<port id="2" precision="FP32">
					<dim>1</dim>
					<dim>144</dim>
					<dim>129</dim>
					<dim>129</dim>
				</port>
			</output>
		</layer>
		<layer id="52" name="data_add_1521115216_compressed" type="Const" version="opset1">
			<data element_type="f16" shape="1, 144, 1, 1" offset="20276" size="288"/>
			<output>
				<port id="0" precision="FP16">
					<dim>1</dim>
					<dim>144</dim>
					<dim>1</dim>
					<dim>1</dim>
				</port>
			</output>
		</layer>
		<layer id="53" name="data_add_1521115216" type="Convert" version="opset1">
			<data destination_type="f32"/>
			<rt_info>
				<attribute name="decompression" version="0"/>
				<attribute name="fused_names" version="0" value="data_add_1521115216"/>
			</rt_info>
			<input>
				<port id="0" precision="FP16">
					<dim>1</dim>
					<dim>144</dim>
					<dim>1</dim>
					<dim>1</dim>
				</port>
			</input>
			<output>
				<port id="1" precision="FP32">
					<dim>1</dim>
					<dim>144</dim>
					<dim>1</dim>
					<dim>1</dim>
				</port>
			</output>
		</layer>
		<layer id="54" name="MobilenetV2/expanded_conv_2/expand/BatchNorm/FusedBatchNorm/variance/Fused_Add_" type="Add" version="opset1">
			<data auto_broadcast="numpy"/>
			<rt_info>
				<attribute name="fused_names" version="0" value="MobilenetV2/expanded_conv_2/expand/BatchNorm/FusedBatchNorm/variance/Fused_Add_"/>
			</rt_info>
			<input>
				<port id="0" precision="FP32">
					<dim>1</dim>
					<dim>144</dim>
					<dim>129</dim>
					<dim>129</dim>
				</port>
				<port id="1" precision="FP32">
					<dim>1</dim>
					<dim>144</dim>
					<dim>1</dim>
					<dim>1</dim>
				</port>
			</input>
			<output>
				<port id="2" precision="FP32" names="MobilenetV2/expanded_conv_2/expand/BatchNorm/FusedBatchNorm:0">
					<dim>1</dim>
					<dim>144</dim>
					<dim>129</dim>
					<dim>129</dim>
				</port>
			</output>
		</layer>
		<layer id="55" name="MobilenetV2/expanded_conv_2/expand/Relu6" type="Clamp" version="opset1">
			<data min="0" max="6"/>
			<rt_info>
				<attribute name="fused_names" version="0" value="MobilenetV2/expanded_conv_2/expand/Relu6"/>
			</rt_info>
			<input>
				<port id="0" precision="FP32">
					<dim>1</dim>
					<dim>144</dim>
					<dim>129</dim>
					<dim>129</dim>
				</port>
			</input>
			<output>
				<port id="1" precision="FP32" names="MobilenetV2/expanded_conv_2/expand/Relu6:0,MobilenetV2/expanded_conv_2/expansion_output:0">
					<dim>1</dim>
					<dim>144</dim>
					<dim>129</dim>
					<dim>129</dim>
				</port>
			</output>
		</layer>
		<layer id="56" name="MobilenetV2/expanded_conv_2/depthwise/BatchNorm/FusedBatchNorm/mean/Fused_Mul__copy_compressed" type="Const" version="opset1">
			<data element_type="f16" shape="144, 1, 1, 3, 3" offset="20564" size="2592"/>
			<output>
				<port id="0" precision="FP16">
					<dim>144</dim>
					<dim>1</dim>
					<dim>1</dim>
					<dim>3</dim>
					<dim>3</dim>
				</port>
			</output>
		</layer>
		<layer id="57" name="MobilenetV2/expanded_conv_2/depthwise/BatchNorm/FusedBatchNorm/mean/Fused_Mul__copy" type="Convert" version="opset1">
			<data destination_type="f32"/>
			<rt_info>
				<attribute name="decompression" version="0"/>
				<attribute name="fused_names" version="0" value="MobilenetV2/expanded_conv_2/depthwise/BatchNorm/FusedBatchNorm/mean/Fused_Mul__copy"/>
			</rt_info>
			<input>
				<port id="0" precision="FP16">
					<dim>144</dim>
					<dim>1</dim>
					<dim>1</dim>
					<dim>3</dim>
					<dim>3</dim>
				</port>
			</input>
			<output>
				<port id="1" precision="FP32" names="MobilenetV2/expanded_conv_2/depthwise/depthwise_weights/read:0">
					<dim>144</dim>
					<dim>1</dim>
					<dim>1</dim>
					<dim>3</dim>
					<dim>3</dim>
				</port>
			</output>
		</layer>
		<layer id="58" name="MobilenetV2/expanded_conv_2/depthwise/depthwise" type="GroupConvolution" version="opset1">
			<data strides="1, 1" pads_begin="0, 0" pads_end="0, 0" dilations="1, 1" auto_pad="same_upper"/>
			<rt_info>
				<attribute name="fused_names" version="0" value="MobilenetV2/expanded_conv_2/depthwise/depthwise"/>
			</rt_info>
			<input>
				<port id="0" precision="FP32">
					<dim>1</dim>
					<dim>144</dim>
					<dim>129</dim>
					<dim>129</dim>
				</port>
				<port id="1" precision="FP32">
					<dim>144</dim>
					<dim>1</dim>
					<dim>1</dim>
					<dim>3</dim>
					<dim>3</dim>
				</port>
			</input>
			<output>
				<port id="2" precision="FP32">
					<dim>1</dim>
					<dim>144</dim>
					<dim>129</dim>
					<dim>129</dim>
				</port>
			</output>
		</layer>
		<layer id="59" name="data_add_1521915224_compressed" type="Const" version="opset1">
			<data element_type="f16" shape="1, 144, 1, 1" offset="23156" size="288"/>
			<output>
				<port id="0" precision="FP16">
					<dim>1</dim>
					<dim>144</dim>
					<dim>1</dim>
					<dim>1</dim>
				</port>
			</output>
		</layer>
		<layer id="60" name="data_add_1521915224" type="Convert" version="opset1">
			<data destination_type="f32"/>
			<rt_info>
				<attribute name="decompression" version="0"/>
				<attribute name="fused_names" version="0" value="data_add_1521915224"/>
			</rt_info>
			<input>
				<port id="0" precision="FP16">
					<dim>1</dim>
					<dim>144</dim>
					<dim>1</dim>
					<dim>1</dim>
				</port>
			</input>
			<output>
				<port id="1" precision="FP32">
					<dim>1</dim>
					<dim>144</dim>
					<dim>1</dim>
					<dim>1</dim>
				</port>
			</output>
		</layer>
		<layer id="61" name="MobilenetV2/expanded_conv_2/depthwise/BatchNorm/FusedBatchNorm/variance/Fused_Add_" type="Add" version="opset1">
			<data auto_broadcast="numpy"/>
			<rt_info>
				<attribute name="fused_names" version="0" value="MobilenetV2/expanded_conv_2/depthwise/BatchNorm/FusedBatchNorm/variance/Fused_Add_"/>
			</rt_info>
			<input>
				<port id="0" precision="FP32">
					<dim>1</dim>
					<dim>144</dim>
					<dim>129</dim>
					<dim>129</dim>
				</port>
				<port id="1" precision="FP32">
					<dim>1</dim>
					<dim>144</dim>
					<dim>1</dim>
					<dim>1</dim>
				</port>
			</input>
			<output>
				<port id="2" precision="FP32" names="MobilenetV2/expanded_conv_2/depthwise/BatchNorm/FusedBatchNorm:0">
					<dim>1</dim>
					<dim>144</dim>
					<dim>129</dim>
					<dim>129</dim>
				</port>
			</output>
		</layer>
		<layer id="62" name="MobilenetV2/expanded_conv_2/depthwise/Relu6" type="Clamp" version="opset1">
			<data min="0" max="6"/>
			<rt_info>
				<attribute name="fused_names" version="0" value="MobilenetV2/expanded_conv_2/depthwise/Relu6"/>
			</rt_info>
			<input>
				<port id="0" precision="FP32">
					<dim>1</dim>
					<dim>144</dim>
					<dim>129</dim>
					<dim>129</dim>
				</port>
			</input>
			<output>
				<port id="1" precision="FP32" names="MobilenetV2/expanded_conv_2/depthwise/Relu6:0,MobilenetV2/expanded_conv_2/depthwise_output:0">
					<dim>1</dim>
					<dim>144</dim>
					<dim>129</dim>
					<dim>129</dim>
				</port>
			</output>
		</layer>
		<layer id="63" name="MobilenetV2/expanded_conv_2/project/BatchNorm/FusedBatchNorm/mean/Fused_Mul__copy_compressed" type="Const" version="opset1">
			<data element_type="f16" shape="24, 144, 1, 1" offset="23444" size="6912"/>
			<output>
				<port id="0" precision="FP16">
					<dim>24</dim>
					<dim>144</dim>
					<dim>1</dim>
					<dim>1</dim>
				</port>
			</output>
		</layer>
		<layer id="64" name="MobilenetV2/expanded_conv_2/project/BatchNorm/FusedBatchNorm/mean/Fused_Mul__copy" type="Convert" version="opset1">
			<data destination_type="f32"/>
			<rt_info>
				<attribute name="decompression" version="0"/>
				<attribute name="fused_names" version="0" value="MobilenetV2/expanded_conv_2/project/BatchNorm/FusedBatchNorm/mean/Fused_Mul__copy"/>
			</rt_info>
			<input>
				<port id="0" precision="FP16">
					<dim>24</dim>
					<dim>144</dim>
					<dim>1</dim>
					<dim>1</dim>
				</port>
			</input>
			<output>
				<port id="1" precision="FP32" names="MobilenetV2/expanded_conv_2/project/weights/read:0">
					<dim>24</dim>
					<dim>144</dim>
					<dim>1</dim>
					<dim>1</dim>
				</port>
			</output>
		</layer>
		<layer id="65" name="MobilenetV2/expanded_conv_2/project/Conv2D" type="Convolution" version="opset1">
			<data strides="1, 1" dilations="1, 1" pads_begin="0, 0" pads_end="0, 0" auto_pad="same_upper"/>
			<rt_info>
				<attribute name="fused_names" version="0" value="MobilenetV2/expanded_conv_2/project/Conv2D"/>
			</rt_info>
			<input>
				<port id="0" precision="FP32">
					<dim>1</dim>
					<dim>144</dim>
					<dim>129</dim>
					<dim>129</dim>
				</port>
				<port id="1" precision="FP32">
					<dim>24</dim>
					<dim>144</dim>
					<dim>1</dim>
					<dim>1</dim>
				</port>
			</input>
			<output>
				<port id="2" precision="FP32">
					<dim>1</dim>
					<dim>24</dim>
					<dim>129</dim>
					<dim>129</dim>
				</port>
			</output>
		</layer>
		<layer id="66" name="data_add_1522715232_compressed" type="Const" version="opset1">
			<data element_type="f16" shape="1, 24, 1, 1" offset="30356" size="48"/>
			<output>
				<port id="0" precision="FP16">
					<dim>1</dim>
					<dim>24</dim>
					<dim>1</dim>
					<dim>1</dim>
				</port>
			</output>
		</layer>
		<layer id="67" name="data_add_1522715232" type="Convert" version="opset1">
			<data destination_type="f32"/>
			<rt_info>
				<attribute name="decompression" version="0"/>
				<attribute name="fused_names" version="0" value="data_add_1522715232"/>
			</rt_info>
			<input>
				<port id="0" precision="FP16">
					<dim>1</dim>
					<dim>24</dim>
					<dim>1</dim>
					<dim>1</dim>
				</port>
			</input>
			<output>
				<port id="1" precision="FP32">
					<dim>1</dim>
					<dim>24</dim>
					<dim>1</dim>
					<dim>1</dim>
				</port>
			</output>
		</layer>
		<layer id="68" name="MobilenetV2/expanded_conv_2/project/BatchNorm/FusedBatchNorm/variance/Fused_Add_" type="Add" version="opset1">
			<data auto_broadcast="numpy"/>
			<rt_info>
				<attribute name="fused_names" version="0" value="MobilenetV2/expanded_conv_2/project/BatchNorm/FusedBatchNorm/variance/Fused_Add_"/>
			</rt_info>
			<input>
				<port id="0" precision="FP32">
					<dim>1</dim>
					<dim>24</dim>
					<dim>129</dim>
					<dim>129</dim>
				</port>
				<port id="1" precision="FP32">
					<dim>1</dim>
					<dim>24</dim>
					<dim>1</dim>
					<dim>1</dim>
				</port>
			</input>
			<output>
				<port id="2" precision="FP32" names="MobilenetV2/expanded_conv_2/project/BatchNorm/FusedBatchNorm:0,MobilenetV2/expanded_conv_2/project/Identity:0">
					<dim>1</dim>
					<dim>24</dim>
					<dim>129</dim>
					<dim>129</dim>
				</port>
			</output>
		</layer>
		<layer id="69" name="MobilenetV2/expanded_conv_2/add" type="Add" version="opset1">
			<data auto_broadcast="numpy"/>
			<rt_info>
				<attribute name="fused_names" version="0" value="MobilenetV2/expanded_conv_2/add"/>
			</rt_info>
			<input>
				<port id="0" precision="FP32">
					<dim>1</dim>
					<dim>24</dim>
					<dim>129</dim>
					<dim>129</dim>
				</port>
				<port id="1" precision="FP32">
					<dim>1</dim>
					<dim>24</dim>
					<dim>129</dim>
					<dim>129</dim>
				</port>
			</input>
			<output>
				<port id="2" precision="FP32" names="MobilenetV2/expanded_conv_2/add:0,MobilenetV2/expanded_conv_2/output:0,MobilenetV2/expanded_conv_3/input:0">
					<dim>1</dim>
					<dim>24</dim>
					<dim>129</dim>
					<dim>129</dim>
				</port>
			</output>
		</layer>
		<layer id="70" name="MobilenetV2/expanded_conv_3/expand/BatchNorm/FusedBatchNorm/mean/Fused_Mul__copy_compressed" type="Const" version="opset1">
			<data element_type="f16" shape="144, 24, 1, 1" offset="30404" size="6912"/>
			<output>
				<port id="0" precision="FP16">
					<dim>144</dim>
					<dim>24</dim>
					<dim>1</dim>
					<dim>1</dim>
				</port>
			</output>
		</layer>
		<layer id="71" name="MobilenetV2/expanded_conv_3/expand/BatchNorm/FusedBatchNorm/mean/Fused_Mul__copy" type="Convert" version="opset1">
			<data destination_type="f32"/>
			<rt_info>
				<attribute name="decompression" version="0"/>
				<attribute name="fused_names" version="0" value="MobilenetV2/expanded_conv_3/expand/BatchNorm/FusedBatchNorm/mean/Fused_Mul__copy"/>
			</rt_info>
			<input>
				<port id="0" precision="FP16">
					<dim>144</dim>
					<dim>24</dim>
					<dim>1</dim>
					<dim>1</dim>
				</port>
			</input>
			<output>
				<port id="1" precision="FP32" names="MobilenetV2/expanded_conv_3/expand/weights/read:0">
					<dim>144</dim>
					<dim>24</dim>
					<dim>1</dim>
					<dim>1</dim>
				</port>
			</output>
		</layer>
		<layer id="72" name="MobilenetV2/expanded_conv_3/expand/Conv2D" type="Convolution" version="opset1">
			<data strides="1, 1" dilations="1, 1" pads_begin="0, 0" pads_end="0, 0" auto_pad="same_upper"/>
			<rt_info>
				<attribute name="fused_names" version="0" value="MobilenetV2/expanded_conv_3/expand/Conv2D"/>
			</rt_info>
			<input>
				<port id="0" precision="FP32">
					<dim>1</dim>
					<dim>24</dim>
					<dim>129</dim>
					<dim>129</dim>
				</port>
				<port id="1" precision="FP32">
					<dim>144</dim>
					<dim>24</dim>
					<dim>1</dim>
					<dim>1</dim>
				</port>
			</input>
			<output>
				<port id="2" precision="FP32">
					<dim>1</dim>
					<dim>144</dim>
					<dim>129</dim>
					<dim>129</dim>
				</port>
			</output>
		</layer>
		<layer id="73" name="data_add_1523515240_compressed" type="Const" version="opset1">
			<data element_type="f16" shape="1, 144, 1, 1" offset="37316" size="288"/>
			<output>
				<port id="0" precision="FP16">
					<dim>1</dim>
					<dim>144</dim>
					<dim>1</dim>
					<dim>1</dim>
				</port>
			</output>
		</layer>
		<layer id="74" name="data_add_1523515240" type="Convert" version="opset1">
			<data destination_type="f32"/>
			<rt_info>
				<attribute name="decompression" version="0"/>
				<attribute name="fused_names" version="0" value="data_add_1523515240"/>
			</rt_info>
			<input>
				<port id="0" precision="FP16">
					<dim>1</dim>
					<dim>144</dim>
					<dim>1</dim>
					<dim>1</dim>
				</port>
			</input>
			<output>
				<port id="1" precision="FP32">
					<dim>1</dim>
					<dim>144</dim>
					<dim>1</dim>
					<dim>1</dim>
				</port>
			</output>
		</layer>
		<layer id="75" name="MobilenetV2/expanded_conv_3/expand/BatchNorm/FusedBatchNorm/variance/Fused_Add_" type="Add" version="opset1">
			<data auto_broadcast="numpy"/>
			<rt_info>
				<attribute name="fused_names" version="0" value="MobilenetV2/expanded_conv_3/expand/BatchNorm/FusedBatchNorm/variance/Fused_Add_"/>
			</rt_info>
			<input>
				<port id="0" precision="FP32">
					<dim>1</dim>
					<dim>144</dim>
					<dim>129</dim>
					<dim>129</dim>
				</port>
				<port id="1" precision="FP32">
					<dim>1</dim>
					<dim>144</dim>
					<dim>1</dim>
					<dim>1</dim>
				</port>
			</input>
			<output>
				<port id="2" precision="FP32" names="MobilenetV2/expanded_conv_3/expand/BatchNorm/FusedBatchNorm:0">
					<dim>1</dim>
					<dim>144</dim>
					<dim>129</dim>
					<dim>129</dim>
				</port>
			</output>
		</layer>
		<layer id="76" name="MobilenetV2/expanded_conv_3/expand/Relu6" type="Clamp" version="opset1">
			<data min="0" max="6"/>
			<rt_info>
				<attribute name="fused_names" version="0" value="MobilenetV2/expanded_conv_3/expand/Relu6"/>
			</rt_info>
			<input>
				<port id="0" precision="FP32">
					<dim>1</dim>
					<dim>144</dim>
					<dim>129</dim>
					<dim>129</dim>
				</port>
			</input>
			<output>
				<port id="1" precision="FP32" names="MobilenetV2/expanded_conv_3/expand/Relu6:0,MobilenetV2/expanded_conv_3/expansion_output:0">
					<dim>1</dim>
					<dim>144</dim>
					<dim>129</dim>
					<dim>129</dim>
				</port>
			</output>
		</layer>
		<layer id="77" name="MobilenetV2/expanded_conv_3/depthwise/BatchNorm/FusedBatchNorm/mean/Fused_Mul__copy_compressed" type="Const" version="opset1">
			<data element_type="f16" shape="144, 1, 1, 3, 3" offset="37604" size="2592"/>
			<output>
				<port id="0" precision="FP16">
					<dim>144</dim>
					<dim>1</dim>
					<dim>1</dim>
					<dim>3</dim>
					<dim>3</dim>
				</port>
			</output>
		</layer>
		<layer id="78" name="MobilenetV2/expanded_conv_3/depthwise/BatchNorm/FusedBatchNorm/mean/Fused_Mul__copy" type="Convert" version="opset1">
			<data destination_type="f32"/>
			<rt_info>
				<attribute name="decompression" version="0"/>
				<attribute name="fused_names" version="0" value="MobilenetV2/expanded_conv_3/depthwise/BatchNorm/FusedBatchNorm/mean/Fused_Mul__copy"/>
			</rt_info>
			<input>
				<port id="0" precision="FP16">
					<dim>144</dim>
					<dim>1</dim>
					<dim>1</dim>
					<dim>3</dim>
					<dim>3</dim>
				</port>
			</input>
			<output>
				<port id="1" precision="FP32" names="MobilenetV2/expanded_conv_3/depthwise/depthwise_weights/read:0">
					<dim>144</dim>
					<dim>1</dim>
					<dim>1</dim>
					<dim>3</dim>
					<dim>3</dim>
				</port>
			</output>
		</layer>
		<layer id="79" name="MobilenetV2/expanded_conv_3/depthwise/depthwise" type="GroupConvolution" version="opset1">
			<data strides="2, 2" pads_begin="0, 0" pads_end="0, 0" dilations="1, 1" auto_pad="same_upper"/>
			<rt_info>
				<attribute name="fused_names" version="0" value="MobilenetV2/expanded_conv_3/depthwise/depthwise"/>
			</rt_info>
			<input>
				<port id="0" precision="FP32">
					<dim>1</dim>
					<dim>144</dim>
					<dim>129</dim>
					<dim>129</dim>
				</port>
				<port id="1" precision="FP32">
					<dim>144</dim>
					<dim>1</dim>
					<dim>1</dim>
					<dim>3</dim>
					<dim>3</dim>
				</port>
			</input>
			<output>
				<port id="2" precision="FP32">
					<dim>1</dim>
					<dim>144</dim>
					<dim>65</dim>
					<dim>65</dim>
				</port>
			</output>
		</layer>
		<layer id="80" name="data_add_1524315248_compressed" type="Const" version="opset1">
			<data element_type="f16" shape="1, 144, 1, 1" offset="40196" size="288"/>
			<output>
				<port id="0" precision="FP16">
					<dim>1</dim>
					<dim>144</dim>
					<dim>1</dim>
					<dim>1</dim>
				</port>
			</output>
		</layer>
		<layer id="81" name="data_add_1524315248" type="Convert" version="opset1">
			<data destination_type="f32"/>
			<rt_info>
				<attribute name="decompression" version="0"/>
				<attribute name="fused_names" version="0" value="data_add_1524315248"/>
			</rt_info>
			<input>
				<port id="0" precision="FP16">
					<dim>1</dim>
					<dim>144</dim>
					<dim>1</dim>
					<dim>1</dim>
				</port>
			</input>
			<output>
				<port id="1" precision="FP32">
					<dim>1</dim>
					<dim>144</dim>
					<dim>1</dim>
					<dim>1</dim>
				</port>
			</output>
		</layer>
		<layer id="82" name="MobilenetV2/expanded_conv_3/depthwise/BatchNorm/FusedBatchNorm/variance/Fused_Add_" type="Add" version="opset1">
			<data auto_broadcast="numpy"/>
			<rt_info>
				<attribute name="fused_names" version="0" value="MobilenetV2/expanded_conv_3/depthwise/BatchNorm/FusedBatchNorm/variance/Fused_Add_"/>
			</rt_info>
			<input>
				<port id="0" precision="FP32">
					<dim>1</dim>
					<dim>144</dim>
					<dim>65</dim>
					<dim>65</dim>
				</port>
				<port id="1" precision="FP32">
					<dim>1</dim>
					<dim>144</dim>
					<dim>1</dim>
					<dim>1</dim>
				</port>
			</input>
			<output>
				<port id="2" precision="FP32" names="MobilenetV2/expanded_conv_3/depthwise/BatchNorm/FusedBatchNorm:0">
					<dim>1</dim>
					<dim>144</dim>
					<dim>65</dim>
					<dim>65</dim>
				</port>
			</output>
		</layer>
		<layer id="83" name="MobilenetV2/expanded_conv_3/depthwise/Relu6" type="Clamp" version="opset1">
			<data min="0" max="6"/>
			<rt_info>
				<attribute name="fused_names" version="0" value="MobilenetV2/expanded_conv_3/depthwise/Relu6"/>
			</rt_info>
			<input>
				<port id="0" precision="FP32">
					<dim>1</dim>
					<dim>144</dim>
					<dim>65</dim>
					<dim>65</dim>
				</port>
			</input>
			<output>
				<port id="1" precision="FP32" names="MobilenetV2/expanded_conv_3/depthwise/Relu6:0,MobilenetV2/expanded_conv_3/depthwise_output:0">
					<dim>1</dim>
					<dim>144</dim>
					<dim>65</dim>
					<dim>65</dim>
				</port>
			</output>
		</layer>
		<layer id="84" name="MobilenetV2/expanded_conv_3/project/BatchNorm/FusedBatchNorm/mean/Fused_Mul__copy_compressed" type="Const" version="opset1">
			<data element_type="f16" shape="32, 144, 1, 1" offset="40484" size="9216"/>
			<output>
				<port id="0" precision="FP16">
					<dim>32</dim>
					<dim>144</dim>
					<dim>1</dim>
					<dim>1</dim>
				</port>
			</output>
		</layer>
		<layer id="85" name="MobilenetV2/expanded_conv_3/project/BatchNorm/FusedBatchNorm/mean/Fused_Mul__copy" type="Convert" version="opset1">
			<data destination_type="f32"/>
			<rt_info>
				<attribute name="decompression" version="0"/>
				<attribute name="fused_names" version="0" value="MobilenetV2/expanded_conv_3/project/BatchNorm/FusedBatchNorm/mean/Fused_Mul__copy"/>
			</rt_info>
			<input>
				<port id="0" precision="FP16">
					<dim>32</dim>
					<dim>144</dim>
					<dim>1</dim>
					<dim>1</dim>
				</port>
			</input>
			<output>
				<port id="1" precision="FP32" names="MobilenetV2/expanded_conv_3/project/weights/read:0">
					<dim>32</dim>
					<dim>144</dim>
					<dim>1</dim>
					<dim>1</dim>
				</port>
			</output>
		</layer>
		<layer id="86" name="MobilenetV2/expanded_conv_3/project/Conv2D" type="Convolution" version="opset1">
			<data strides="1, 1" dilations="1, 1" pads_begin="0, 0" pads_end="0, 0" auto_pad="same_upper"/>
			<rt_info>
				<attribute name="fused_names" version="0" value="MobilenetV2/expanded_conv_3/project/Conv2D"/>
			</rt_info>
			<input>
				<port id="0" precision="FP32">
					<dim>1</dim>
					<dim>144</dim>
					<dim>65</dim>
					<dim>65</dim>
				</port>
				<port id="1" precision="FP32">
					<dim>32</dim>
					<dim>144</dim>
					<dim>1</dim>
					<dim>1</dim>
				</port>
			</input>
			<output>
				<port id="2" precision="FP32">
					<dim>1</dim>
					<dim>32</dim>
					<dim>65</dim>
					<dim>65</dim>
				</port>
			</output>
		</layer>
		<layer id="87" name="data_add_1525115256_compressed" type="Const" version="opset1">
			<data element_type="f16" shape="1, 32, 1, 1" offset="49700" size="64"/>
			<output>
				<port id="0" precision="FP16">
					<dim>1</dim>
					<dim>32</dim>
					<dim>1</dim>
					<dim>1</dim>
				</port>
			</output>
		</layer>
		<layer id="88" name="data_add_1525115256" type="Convert" version="opset1">
			<data destination_type="f32"/>
			<rt_info>
				<attribute name="decompression" version="0"/>
				<attribute name="fused_names" version="0" value="data_add_1525115256"/>
			</rt_info>
			<input>
				<port id="0" precision="FP16">
					<dim>1</dim>
					<dim>32</dim>
					<dim>1</dim>
					<dim>1</dim>
				</port>
			</input>
			<output>
				<port id="1" precision="FP32">
					<dim>1</dim>
					<dim>32</dim>
					<dim>1</dim>
					<dim>1</dim>
				</port>
			</output>
		</layer>
		<layer id="89" name="MobilenetV2/expanded_conv_3/project/BatchNorm/FusedBatchNorm/variance/Fused_Add_" type="Add" version="opset1">
			<data auto_broadcast="numpy"/>
			<rt_info>
				<attribute name="fused_names" version="0" value="MobilenetV2/expanded_conv_3/project/BatchNorm/FusedBatchNorm/variance/Fused_Add_"/>
			</rt_info>
			<input>
				<port id="0" precision="FP32">
					<dim>1</dim>
					<dim>32</dim>
					<dim>65</dim>
					<dim>65</dim>
				</port>
				<port id="1" precision="FP32">
					<dim>1</dim>
					<dim>32</dim>
					<dim>1</dim>
					<dim>1</dim>
				</port>
			</input>
			<output>
				<port id="2" precision="FP32" names="MobilenetV2/expanded_conv_3/output:0,MobilenetV2/expanded_conv_3/project/BatchNorm/FusedBatchNorm:0,MobilenetV2/expanded_conv_3/project/Identity:0,MobilenetV2/expanded_conv_4/input:0">
					<dim>1</dim>
					<dim>32</dim>
					<dim>65</dim>
					<dim>65</dim>
				</port>
			</output>
		</layer>
		<layer id="90" name="MobilenetV2/expanded_conv_4/expand/BatchNorm/FusedBatchNorm/mean/Fused_Mul__copy_compressed" type="Const" version="opset1">
			<data element_type="f16" shape="192, 32, 1, 1" offset="49764" size="12288"/>
			<output>
				<port id="0" precision="FP16">
					<dim>192</dim>
					<dim>32</dim>
					<dim>1</dim>
					<dim>1</dim>
				</port>
			</output>
		</layer>
		<layer id="91" name="MobilenetV2/expanded_conv_4/expand/BatchNorm/FusedBatchNorm/mean/Fused_Mul__copy" type="Convert" version="opset1">
			<data destination_type="f32"/>
			<rt_info>
				<attribute name="decompression" version="0"/>
				<attribute name="fused_names" version="0" value="MobilenetV2/expanded_conv_4/expand/BatchNorm/FusedBatchNorm/mean/Fused_Mul__copy"/>
			</rt_info>
			<input>
				<port id="0" precision="FP16">
					<dim>192</dim>
					<dim>32</dim>
					<dim>1</dim>
					<dim>1</dim>
				</port>
			</input>
			<output>
				<port id="1" precision="FP32" names="MobilenetV2/expanded_conv_4/expand/weights/read:0">
					<dim>192</dim>
					<dim>32</dim>
					<dim>1</dim>
					<dim>1</dim>
				</port>
			</output>
		</layer>
		<layer id="92" name="MobilenetV2/expanded_conv_4/expand/Conv2D" type="Convolution" version="opset1">
			<data strides="1, 1" dilations="1, 1" pads_begin="0, 0" pads_end="0, 0" auto_pad="same_upper"/>
			<rt_info>
				<attribute name="fused_names" version="0" value="MobilenetV2/expanded_conv_4/expand/Conv2D"/>
			</rt_info>
			<input>
				<port id="0" precision="FP32">
					<dim>1</dim>
					<dim>32</dim>
					<dim>65</dim>
					<dim>65</dim>
				</port>
				<port id="1" precision="FP32">
					<dim>192</dim>
					<dim>32</dim>
					<dim>1</dim>
					<dim>1</dim>
				</port>
			</input>
			<output>
				<port id="2" precision="FP32">
					<dim>1</dim>
					<dim>192</dim>
					<dim>65</dim>
					<dim>65</dim>
				</port>
			</output>
		</layer>
		<layer id="93" name="data_add_1525915264_compressed" type="Const" version="opset1">
			<data element_type="f16" shape="1, 192, 1, 1" offset="62052" size="384"/>
			<output>
				<port id="0" precision="FP16">
					<dim>1</dim>
					<dim>192</dim>
					<dim>1</dim>
					<dim>1</dim>
				</port>
			</output>
		</layer>
		<layer id="94" name="data_add_1525915264" type="Convert" version="opset1">
			<data destination_type="f32"/>
			<rt_info>
				<attribute name="decompression" version="0"/>
				<attribute name="fused_names" version="0" value="data_add_1525915264"/>
			</rt_info>
			<input>
				<port id="0" precision="FP16">
					<dim>1</dim>
					<dim>192</dim>
					<dim>1</dim>
					<dim>1</dim>
				</port>
			</input>
			<output>
				<port id="1" precision="FP32">
					<dim>1</dim>
					<dim>192</dim>
					<dim>1</dim>
					<dim>1</dim>
				</port>
			</output>
		</layer>
		<layer id="95" name="MobilenetV2/expanded_conv_4/expand/BatchNorm/FusedBatchNorm/variance/Fused_Add_" type="Add" version="opset1">
			<data auto_broadcast="numpy"/>
			<rt_info>
				<attribute name="fused_names" version="0" value="MobilenetV2/expanded_conv_4/expand/BatchNorm/FusedBatchNorm/variance/Fused_Add_"/>
			</rt_info>
			<input>
				<port id="0" precision="FP32">
					<dim>1</dim>
					<dim>192</dim>
					<dim>65</dim>
					<dim>65</dim>
				</port>
				<port id="1" precision="FP32">
					<dim>1</dim>
					<dim>192</dim>
					<dim>1</dim>
					<dim>1</dim>
				</port>
			</input>
			<output>
				<port id="2" precision="FP32" names="MobilenetV2/expanded_conv_4/expand/BatchNorm/FusedBatchNorm:0">
					<dim>1</dim>
					<dim>192</dim>
					<dim>65</dim>
					<dim>65</dim>
				</port>
			</output>
		</layer>
		<layer id="96" name="MobilenetV2/expanded_conv_4/expand/Relu6" type="Clamp" version="opset1">
			<data min="0" max="6"/>
			<rt_info>
				<attribute name="fused_names" version="0" value="MobilenetV2/expanded_conv_4/expand/Relu6"/>
			</rt_info>
			<input>
				<port id="0" precision="FP32">
					<dim>1</dim>
					<dim>192</dim>
					<dim>65</dim>
					<dim>65</dim>
				</port>
			</input>
			<output>
				<port id="1" precision="FP32" names="MobilenetV2/expanded_conv_4/expand/Relu6:0,MobilenetV2/expanded_conv_4/expansion_output:0">
					<dim>1</dim>
					<dim>192</dim>
					<dim>65</dim>
					<dim>65</dim>
				</port>
			</output>
		</layer>
		<layer id="97" name="MobilenetV2/expanded_conv_4/depthwise/BatchNorm/FusedBatchNorm/mean/Fused_Mul__copy_compressed" type="Const" version="opset1">
			<data element_type="f16" shape="192, 1, 1, 3, 3" offset="62436" size="3456"/>
			<output>
				<port id="0" precision="FP16">
					<dim>192</dim>
					<dim>1</dim>
					<dim>1</dim>
					<dim>3</dim>
					<dim>3</dim>
				</port>
			</output>
		</layer>
		<layer id="98" name="MobilenetV2/expanded_conv_4/depthwise/BatchNorm/FusedBatchNorm/mean/Fused_Mul__copy" type="Convert" version="opset1">
			<data destination_type="f32"/>
			<rt_info>
				<attribute name="decompression" version="0"/>
				<attribute name="fused_names" version="0" value="MobilenetV2/expanded_conv_4/depthwise/BatchNorm/FusedBatchNorm/mean/Fused_Mul__copy"/>
			</rt_info>
			<input>
				<port id="0" precision="FP16">
					<dim>192</dim>
					<dim>1</dim>
					<dim>1</dim>
					<dim>3</dim>
					<dim>3</dim>
				</port>
			</input>
			<output>
				<port id="1" precision="FP32" names="MobilenetV2/expanded_conv_4/depthwise/depthwise_weights/read:0">
					<dim>192</dim>
					<dim>1</dim>
					<dim>1</dim>
					<dim>3</dim>
					<dim>3</dim>
				</port>
			</output>
		</layer>
		<layer id="99" name="MobilenetV2/expanded_conv_4/depthwise/depthwise" type="GroupConvolution" version="opset1">
			<data strides="1, 1" pads_begin="0, 0" pads_end="0, 0" dilations="1, 1" auto_pad="same_upper"/>
			<rt_info>
				<attribute name="fused_names" version="0" value="MobilenetV2/expanded_conv_4/depthwise/depthwise"/>
			</rt_info>
			<input>
				<port id="0" precision="FP32">
					<dim>1</dim>
					<dim>192</dim>
					<dim>65</dim>
					<dim>65</dim>
				</port>
				<port id="1" precision="FP32">
					<dim>192</dim>
					<dim>1</dim>
					<dim>1</dim>
					<dim>3</dim>
					<dim>3</dim>
				</port>
			</input>
			<output>
				<port id="2" precision="FP32">
					<dim>1</dim>
					<dim>192</dim>
					<dim>65</dim>
					<dim>65</dim>
				</port>
			</output>
		</layer>
		<layer id="100" name="data_add_1526715272_compressed" type="Const" version="opset1">
			<data element_type="f16" shape="1, 192, 1, 1" offset="65892" size="384"/>
			<output>
				<port id="0" precision="FP16">
					<dim>1</dim>
					<dim>192</dim>
					<dim>1</dim>
					<dim>1</dim>
				</port>
			</output>
		</layer>
		<layer id="101" name="data_add_1526715272" type="Convert" version="opset1">
			<data destination_type="f32"/>
			<rt_info>
				<attribute name="decompression" version="0"/>
				<attribute name="fused_names" version="0" value="data_add_1526715272"/>
			</rt_info>
			<input>
				<port id="0" precision="FP16">
					<dim>1</dim>
					<dim>192</dim>
					<dim>1</dim>
					<dim>1</dim>
				</port>
			</input>
			<output>
				<port id="1" precision="FP32">
					<dim>1</dim>
					<dim>192</dim>
					<dim>1</dim>
					<dim>1</dim>
				</port>
			</output>
		</layer>
		<layer id="102" name="MobilenetV2/expanded_conv_4/depthwise/BatchNorm/FusedBatchNorm/variance/Fused_Add_" type="Add" version="opset1">
			<data auto_broadcast="numpy"/>
			<rt_info>
				<attribute name="fused_names" version="0" value="MobilenetV2/expanded_conv_4/depthwise/BatchNorm/FusedBatchNorm/variance/Fused_Add_"/>
			</rt_info>
			<input>
				<port id="0" precision="FP32">
					<dim>1</dim>
					<dim>192</dim>
					<dim>65</dim>
					<dim>65</dim>
				</port>
				<port id="1" precision="FP32">
					<dim>1</dim>
					<dim>192</dim>
					<dim>1</dim>
					<dim>1</dim>
				</port>
			</input>
			<output>
				<port id="2" precision="FP32" names="MobilenetV2/expanded_conv_4/depthwise/BatchNorm/FusedBatchNorm:0">
					<dim>1</dim>
					<dim>192</dim>
					<dim>65</dim>
					<dim>65</dim>
				</port>
			</output>
		</layer>
		<layer id="103" name="MobilenetV2/expanded_conv_4/depthwise/Relu6" type="Clamp" version="opset1">
			<data min="0" max="6"/>
			<rt_info>
				<attribute name="fused_names" version="0" value="MobilenetV2/expanded_conv_4/depthwise/Relu6"/>
			</rt_info>
			<input>
				<port id="0" precision="FP32">
					<dim>1</dim>
					<dim>192</dim>
					<dim>65</dim>
					<dim>65</dim>
				</port>
			</input>
			<output>
				<port id="1" precision="FP32" names="MobilenetV2/expanded_conv_4/depthwise/Relu6:0,MobilenetV2/expanded_conv_4/depthwise_output:0">
					<dim>1</dim>
					<dim>192</dim>
					<dim>65</dim>
					<dim>65</dim>
				</port>
			</output>
		</layer>
		<layer id="104" name="MobilenetV2/expanded_conv_4/project/BatchNorm/FusedBatchNorm/mean/Fused_Mul__copy_compressed" type="Const" version="opset1">
			<data element_type="f16" shape="32, 192, 1, 1" offset="66276" size="12288"/>
			<output>
				<port id="0" precision="FP16">
					<dim>32</dim>
					<dim>192</dim>
					<dim>1</dim>
					<dim>1</dim>
				</port>
			</output>
		</layer>
		<layer id="105" name="MobilenetV2/expanded_conv_4/project/BatchNorm/FusedBatchNorm/mean/Fused_Mul__copy" type="Convert" version="opset1">
			<data destination_type="f32"/>
			<rt_info>
				<attribute name="decompression" version="0"/>
				<attribute name="fused_names" version="0" value="MobilenetV2/expanded_conv_4/project/BatchNorm/FusedBatchNorm/mean/Fused_Mul__copy"/>
			</rt_info>
			<input>
				<port id="0" precision="FP16">
					<dim>32</dim>
					<dim>192</dim>
					<dim>1</dim>
					<dim>1</dim>
				</port>
			</input>
			<output>
				<port id="1" precision="FP32" names="MobilenetV2/expanded_conv_4/project/weights/read:0">
					<dim>32</dim>
					<dim>192</dim>
					<dim>1</dim>
					<dim>1</dim>
				</port>
			</output>
		</layer>
		<layer id="106" name="MobilenetV2/expanded_conv_4/project/Conv2D" type="Convolution" version="opset1">
			<data strides="1, 1" dilations="1, 1" pads_begin="0, 0" pads_end="0, 0" auto_pad="same_upper"/>
			<rt_info>
				<attribute name="fused_names" version="0" value="MobilenetV2/expanded_conv_4/project/Conv2D"/>
			</rt_info>
			<input>
				<port id="0" precision="FP32">
					<dim>1</dim>
					<dim>192</dim>
					<dim>65</dim>
					<dim>65</dim>
				</port>
				<port id="1" precision="FP32">
					<dim>32</dim>
					<dim>192</dim>
					<dim>1</dim>
					<dim>1</dim>
				</port>
			</input>
			<output>
				<port id="2" precision="FP32">
					<dim>1</dim>
					<dim>32</dim>
					<dim>65</dim>
					<dim>65</dim>
				</port>
			</output>
		</layer>
		<layer id="107" name="data_add_1527515280_compressed" type="Const" version="opset1">
			<data element_type="f16" shape="1, 32, 1, 1" offset="78564" size="64"/>
			<output>
				<port id="0" precision="FP16">
					<dim>1</dim>
					<dim>32</dim>
					<dim>1</dim>
					<dim>1</dim>
				</port>
			</output>
		</layer>
		<layer id="108" name="data_add_1527515280" type="Convert" version="opset1">
			<data destination_type="f32"/>
			<rt_info>
				<attribute name="decompression" version="0"/>
				<attribute name="fused_names" version="0" value="data_add_1527515280"/>
			</rt_info>
			<input>
				<port id="0" precision="FP16">
					<dim>1</dim>
					<dim>32</dim>
					<dim>1</dim>
					<dim>1</dim>
				</port>
			</input>
			<output>
				<port id="1" precision="FP32">
					<dim>1</dim>
					<dim>32</dim>
					<dim>1</dim>
					<dim>1</dim>
				</port>
			</output>
		</layer>
		<layer id="109" name="MobilenetV2/expanded_conv_4/project/BatchNorm/FusedBatchNorm/variance/Fused_Add_" type="Add" version="opset1">
			<data auto_broadcast="numpy"/>
			<rt_info>
				<attribute name="fused_names" version="0" value="MobilenetV2/expanded_conv_4/project/BatchNorm/FusedBatchNorm/variance/Fused_Add_"/>
			</rt_info>
			<input>
				<port id="0" precision="FP32">
					<dim>1</dim>
					<dim>32</dim>
					<dim>65</dim>
					<dim>65</dim>
				</port>
				<port id="1" precision="FP32">
					<dim>1</dim>
					<dim>32</dim>
					<dim>1</dim>
					<dim>1</dim>
				</port>
			</input>
			<output>
				<port id="2" precision="FP32" names="MobilenetV2/expanded_conv_4/project/BatchNorm/FusedBatchNorm:0,MobilenetV2/expanded_conv_4/project/Identity:0">
					<dim>1</dim>
					<dim>32</dim>
					<dim>65</dim>
					<dim>65</dim>
				</port>
			</output>
		</layer>
		<layer id="110" name="MobilenetV2/expanded_conv_4/add" type="Add" version="opset1">
			<data auto_broadcast="numpy"/>
			<rt_info>
				<attribute name="fused_names" version="0" value="MobilenetV2/expanded_conv_4/add"/>
			</rt_info>
			<input>
				<port id="0" precision="FP32">
					<dim>1</dim>
					<dim>32</dim>
					<dim>65</dim>
					<dim>65</dim>
				</port>
				<port id="1" precision="FP32">
					<dim>1</dim>
					<dim>32</dim>
					<dim>65</dim>
					<dim>65</dim>
				</port>
			</input>
			<output>
				<port id="2" precision="FP32" names="MobilenetV2/expanded_conv_4/add:0,MobilenetV2/expanded_conv_4/output:0,MobilenetV2/expanded_conv_5/input:0">
					<dim>1</dim>
					<dim>32</dim>
					<dim>65</dim>
					<dim>65</dim>
				</port>
			</output>
		</layer>
		<layer id="111" name="MobilenetV2/expanded_conv_5/expand/BatchNorm/FusedBatchNorm/mean/Fused_Mul__copy_compressed" type="Const" version="opset1">
			<data element_type="f16" shape="192, 32, 1, 1" offset="78628" size="12288"/>
			<output>
				<port id="0" precision="FP16">
					<dim>192</dim>
					<dim>32</dim>
					<dim>1</dim>
					<dim>1</dim>
				</port>
			</output>
		</layer>
		<layer id="112" name="MobilenetV2/expanded_conv_5/expand/BatchNorm/FusedBatchNorm/mean/Fused_Mul__copy" type="Convert" version="opset1">
			<data destination_type="f32"/>
			<rt_info>
				<attribute name="decompression" version="0"/>
				<attribute name="fused_names" version="0" value="MobilenetV2/expanded_conv_5/expand/BatchNorm/FusedBatchNorm/mean/Fused_Mul__copy"/>
			</rt_info>
			<input>
				<port id="0" precision="FP16">
					<dim>192</dim>
					<dim>32</dim>
					<dim>1</dim>
					<dim>1</dim>
				</port>
			</input>
			<output>
				<port id="1" precision="FP32" names="MobilenetV2/expanded_conv_5/expand/weights/read:0">
					<dim>192</dim>
					<dim>32</dim>
					<dim>1</dim>
					<dim>1</dim>
				</port>
			</output>
		</layer>
		<layer id="113" name="MobilenetV2/expanded_conv_5/expand/Conv2D" type="Convolution" version="opset1">
			<data strides="1, 1" dilations="1, 1" pads_begin="0, 0" pads_end="0, 0" auto_pad="same_upper"/>
			<rt_info>
				<attribute name="fused_names" version="0" value="MobilenetV2/expanded_conv_5/expand/Conv2D"/>
			</rt_info>
			<input>
				<port id="0" precision="FP32">
					<dim>1</dim>
					<dim>32</dim>
					<dim>65</dim>
					<dim>65</dim>
				</port>
				<port id="1" precision="FP32">
					<dim>192</dim>
					<dim>32</dim>
					<dim>1</dim>
					<dim>1</dim>
				</port>
			</input>
			<output>
				<port id="2" precision="FP32">
					<dim>1</dim>
					<dim>192</dim>
					<dim>65</dim>
					<dim>65</dim>
				</port>
			</output>
		</layer>
		<layer id="114" name="data_add_1528315288_compressed" type="Const" version="opset1">
			<data element_type="f16" shape="1, 192, 1, 1" offset="90916" size="384"/>
			<output>
				<port id="0" precision="FP16">
					<dim>1</dim>
					<dim>192</dim>
					<dim>1</dim>
					<dim>1</dim>
				</port>
			</output>
		</layer>
		<layer id="115" name="data_add_1528315288" type="Convert" version="opset1">
			<data destination_type="f32"/>
			<rt_info>
				<attribute name="decompression" version="0"/>
				<attribute name="fused_names" version="0" value="data_add_1528315288"/>
			</rt_info>
			<input>
				<port id="0" precision="FP16">
					<dim>1</dim>
					<dim>192</dim>
					<dim>1</dim>
					<dim>1</dim>
				</port>
			</input>
			<output>
				<port id="1" precision="FP32">
					<dim>1</dim>
					<dim>192</dim>
					<dim>1</dim>
					<dim>1</dim>
				</port>
			</output>
		</layer>
		<layer id="116" name="MobilenetV2/expanded_conv_5/expand/BatchNorm/FusedBatchNorm/variance/Fused_Add_" type="Add" version="opset1">
			<data auto_broadcast="numpy"/>
			<rt_info>
				<attribute name="fused_names" version="0" value="MobilenetV2/expanded_conv_5/expand/BatchNorm/FusedBatchNorm/variance/Fused_Add_"/>
			</rt_info>
			<input>
				<port id="0" precision="FP32">
					<dim>1</dim>
					<dim>192</dim>
					<dim>65</dim>
					<dim>65</dim>
				</port>
				<port id="1" precision="FP32">
					<dim>1</dim>
					<dim>192</dim>
					<dim>1</dim>
					<dim>1</dim>
				</port>
			</input>
			<output>
				<port id="2" precision="FP32" names="MobilenetV2/expanded_conv_5/expand/BatchNorm/FusedBatchNorm:0">
					<dim>1</dim>
					<dim>192</dim>
					<dim>65</dim>
					<dim>65</dim>
				</port>
			</output>
		</layer>
		<layer id="117" name="MobilenetV2/expanded_conv_5/expand/Relu6" type="Clamp" version="opset1">
			<data min="0" max="6"/>
			<rt_info>
				<attribute name="fused_names" version="0" value="MobilenetV2/expanded_conv_5/expand/Relu6"/>
			</rt_info>
			<input>
				<port id="0" precision="FP32">
					<dim>1</dim>
					<dim>192</dim>
					<dim>65</dim>
					<dim>65</dim>
				</port>
			</input>
			<output>
				<port id="1" precision="FP32" names="MobilenetV2/expanded_conv_5/expand/Relu6:0,MobilenetV2/expanded_conv_5/expansion_output:0">
					<dim>1</dim>
					<dim>192</dim>
					<dim>65</dim>
					<dim>65</dim>
				</port>
			</output>
		</layer>
		<layer id="118" name="MobilenetV2/expanded_conv_5/depthwise/BatchNorm/FusedBatchNorm/mean/Fused_Mul__copy_compressed" type="Const" version="opset1">
			<data element_type="f16" shape="192, 1, 1, 3, 3" offset="91300" size="3456"/>
			<output>
				<port id="0" precision="FP16">
					<dim>192</dim>
					<dim>1</dim>
					<dim>1</dim>
					<dim>3</dim>
					<dim>3</dim>
				</port>
			</output>
		</layer>
		<layer id="119" name="MobilenetV2/expanded_conv_5/depthwise/BatchNorm/FusedBatchNorm/mean/Fused_Mul__copy" type="Convert" version="opset1">
			<data destination_type="f32"/>
			<rt_info>
				<attribute name="decompression" version="0"/>
				<attribute name="fused_names" version="0" value="MobilenetV2/expanded_conv_5/depthwise/BatchNorm/FusedBatchNorm/mean/Fused_Mul__copy"/>
			</rt_info>
			<input>
				<port id="0" precision="FP16">
					<dim>192</dim>
					<dim>1</dim>
					<dim>1</dim>
					<dim>3</dim>
					<dim>3</dim>
				</port>
			</input>
			<output>
				<port id="1" precision="FP32" names="MobilenetV2/expanded_conv_5/depthwise/depthwise_weights/read:0">
					<dim>192</dim>
					<dim>1</dim>
					<dim>1</dim>
					<dim>3</dim>
					<dim>3</dim>
				</port>
			</output>
		</layer>
		<layer id="120" name="MobilenetV2/expanded_conv_5/depthwise/depthwise" type="GroupConvolution" version="opset1">
			<data strides="1, 1" pads_begin="0, 0" pads_end="0, 0" dilations="1, 1" auto_pad="same_upper"/>
			<rt_info>
				<attribute name="fused_names" version="0" value="MobilenetV2/expanded_conv_5/depthwise/depthwise"/>
			</rt_info>
			<input>
				<port id="0" precision="FP32">
					<dim>1</dim>
					<dim>192</dim>
					<dim>65</dim>
					<dim>65</dim>
				</port>
				<port id="1" precision="FP32">
					<dim>192</dim>
					<dim>1</dim>
					<dim>1</dim>
					<dim>3</dim>
					<dim>3</dim>
				</port>
			</input>
			<output>
				<port id="2" precision="FP32">
					<dim>1</dim>
					<dim>192</dim>
					<dim>65</dim>
					<dim>65</dim>
				</port>
			</output>
		</layer>
		<layer id="121" name="data_add_1529115296_compressed" type="Const" version="opset1">
			<data element_type="f16" shape="1, 192, 1, 1" offset="94756" size="384"/>
			<output>
				<port id="0" precision="FP16">
					<dim>1</dim>
					<dim>192</dim>
					<dim>1</dim>
					<dim>1</dim>
				</port>
			</output>
		</layer>
		<layer id="122" name="data_add_1529115296" type="Convert" version="opset1">
			<data destination_type="f32"/>
			<rt_info>
				<attribute name="decompression" version="0"/>
				<attribute name="fused_names" version="0" value="data_add_1529115296"/>
			</rt_info>
			<input>
				<port id="0" precision="FP16">
					<dim>1</dim>
					<dim>192</dim>
					<dim>1</dim>
					<dim>1</dim>
				</port>
			</input>
			<output>
				<port id="1" precision="FP32">
					<dim>1</dim>
					<dim>192</dim>
					<dim>1</dim>
					<dim>1</dim>
				</port>
			</output>
		</layer>
		<layer id="123" name="MobilenetV2/expanded_conv_5/depthwise/BatchNorm/FusedBatchNorm/variance/Fused_Add_" type="Add" version="opset1">
			<data auto_broadcast="numpy"/>
			<rt_info>
				<attribute name="fused_names" version="0" value="MobilenetV2/expanded_conv_5/depthwise/BatchNorm/FusedBatchNorm/variance/Fused_Add_"/>
			</rt_info>
			<input>
				<port id="0" precision="FP32">
					<dim>1</dim>
					<dim>192</dim>
					<dim>65</dim>
					<dim>65</dim>
				</port>
				<port id="1" precision="FP32">
					<dim>1</dim>
					<dim>192</dim>
					<dim>1</dim>
					<dim>1</dim>
				</port>
			</input>
			<output>
				<port id="2" precision="FP32" names="MobilenetV2/expanded_conv_5/depthwise/BatchNorm/FusedBatchNorm:0">
					<dim>1</dim>
					<dim>192</dim>
					<dim>65</dim>
					<dim>65</dim>
				</port>
			</output>
		</layer>
		<layer id="124" name="MobilenetV2/expanded_conv_5/depthwise/Relu6" type="Clamp" version="opset1">
			<data min="0" max="6"/>
			<rt_info>
				<attribute name="fused_names" version="0" value="MobilenetV2/expanded_conv_5/depthwise/Relu6"/>
			</rt_info>
			<input>
				<port id="0" precision="FP32">
					<dim>1</dim>
					<dim>192</dim>
					<dim>65</dim>
					<dim>65</dim>
				</port>
			</input>
			<output>
				<port id="1" precision="FP32" names="MobilenetV2/expanded_conv_5/depthwise/Relu6:0,MobilenetV2/expanded_conv_5/depthwise_output:0">
					<dim>1</dim>
					<dim>192</dim>
					<dim>65</dim>
					<dim>65</dim>
				</port>
			</output>
		</layer>
		<layer id="125" name="MobilenetV2/expanded_conv_5/project/BatchNorm/FusedBatchNorm/mean/Fused_Mul__copy_compressed" type="Const" version="opset1">
			<data element_type="f16" shape="32, 192, 1, 1" offset="95140" size="12288"/>
			<output>
				<port id="0" precision="FP16">
					<dim>32</dim>
					<dim>192</dim>
					<dim>1</dim>
					<dim>1</dim>
				</port>
			</output>
		</layer>
		<layer id="126" name="MobilenetV2/expanded_conv_5/project/BatchNorm/FusedBatchNorm/mean/Fused_Mul__copy" type="Convert" version="opset1">
			<data destination_type="f32"/>
			<rt_info>
				<attribute name="decompression" version="0"/>
				<attribute name="fused_names" version="0" value="MobilenetV2/expanded_conv_5/project/BatchNorm/FusedBatchNorm/mean/Fused_Mul__copy"/>
			</rt_info>
			<input>
				<port id="0" precision="FP16">
					<dim>32</dim>
					<dim>192</dim>
					<dim>1</dim>
					<dim>1</dim>
				</port>
			</input>
			<output>
				<port id="1" precision="FP32" names="MobilenetV2/expanded_conv_5/project/weights/read:0">
					<dim>32</dim>
					<dim>192</dim>
					<dim>1</dim>
					<dim>1</dim>
				</port>
			</output>
		</layer>
		<layer id="127" name="MobilenetV2/expanded_conv_5/project/Conv2D" type="Convolution" version="opset1">
			<data strides="1, 1" dilations="1, 1" pads_begin="0, 0" pads_end="0, 0" auto_pad="same_upper"/>
			<rt_info>
				<attribute name="fused_names" version="0" value="MobilenetV2/expanded_conv_5/project/Conv2D"/>
			</rt_info>
			<input>
				<port id="0" precision="FP32">
					<dim>1</dim>
					<dim>192</dim>
					<dim>65</dim>
					<dim>65</dim>
				</port>
				<port id="1" precision="FP32">
					<dim>32</dim>
					<dim>192</dim>
					<dim>1</dim>
					<dim>1</dim>
				</port>
			</input>
			<output>
				<port id="2" precision="FP32">
					<dim>1</dim>
					<dim>32</dim>
					<dim>65</dim>
					<dim>65</dim>
				</port>
			</output>
		</layer>
		<layer id="128" name="data_add_1529915304_compressed" type="Const" version="opset1">
			<data element_type="f16" shape="1, 32, 1, 1" offset="107428" size="64"/>
			<output>
				<port id="0" precision="FP16">
					<dim>1</dim>
					<dim>32</dim>
					<dim>1</dim>
					<dim>1</dim>
				</port>
			</output>
		</layer>
		<layer id="129" name="data_add_1529915304" type="Convert" version="opset1">
			<data destination_type="f32"/>
			<rt_info>
				<attribute name="decompression" version="0"/>
				<attribute name="fused_names" version="0" value="data_add_1529915304"/>
			</rt_info>
			<input>
				<port id="0" precision="FP16">
					<dim>1</dim>
					<dim>32</dim>
					<dim>1</dim>
					<dim>1</dim>
				</port>
			</input>
			<output>
				<port id="1" precision="FP32">
					<dim>1</dim>
					<dim>32</dim>
					<dim>1</dim>
					<dim>1</dim>
				</port>
			</output>
		</layer>
		<layer id="130" name="MobilenetV2/expanded_conv_5/project/BatchNorm/FusedBatchNorm/variance/Fused_Add_" type="Add" version="opset1">
			<data auto_broadcast="numpy"/>
			<rt_info>
				<attribute name="fused_names" version="0" value="MobilenetV2/expanded_conv_5/project/BatchNorm/FusedBatchNorm/variance/Fused_Add_"/>
			</rt_info>
			<input>
				<port id="0" precision="FP32">
					<dim>1</dim>
					<dim>32</dim>
					<dim>65</dim>
					<dim>65</dim>
				</port>
				<port id="1" precision="FP32">
					<dim>1</dim>
					<dim>32</dim>
					<dim>1</dim>
					<dim>1</dim>
				</port>
			</input>
			<output>
				<port id="2" precision="FP32" names="MobilenetV2/expanded_conv_5/project/BatchNorm/FusedBatchNorm:0,MobilenetV2/expanded_conv_5/project/Identity:0">
					<dim>1</dim>
					<dim>32</dim>
					<dim>65</dim>
					<dim>65</dim>
				</port>
			</output>
		</layer>
		<layer id="131" name="MobilenetV2/expanded_conv_5/add" type="Add" version="opset1">
			<data auto_broadcast="numpy"/>
			<rt_info>
				<attribute name="fused_names" version="0" value="MobilenetV2/expanded_conv_5/add"/>
			</rt_info>
			<input>
				<port id="0" precision="FP32">
					<dim>1</dim>
					<dim>32</dim>
					<dim>65</dim>
					<dim>65</dim>
				</port>
				<port id="1" precision="FP32">
					<dim>1</dim>
					<dim>32</dim>
					<dim>65</dim>
					<dim>65</dim>
				</port>
			</input>
			<output>
				<port id="2" precision="FP32" names="MobilenetV2/expanded_conv_5/add:0,MobilenetV2/expanded_conv_5/output:0,MobilenetV2/expanded_conv_6/input:0">
					<dim>1</dim>
					<dim>32</dim>
					<dim>65</dim>
					<dim>65</dim>
				</port>
			</output>
		</layer>
		<layer id="132" name="MobilenetV2/expanded_conv_6/expand/BatchNorm/FusedBatchNorm/mean/Fused_Mul__copy_compressed" type="Const" version="opset1">
			<data element_type="f16" shape="192, 32, 1, 1" offset="107492" size="12288"/>
			<output>
				<port id="0" precision="FP16">
					<dim>192</dim>
					<dim>32</dim>
					<dim>1</dim>
					<dim>1</dim>
				</port>
			</output>
		</layer>
		<layer id="133" name="MobilenetV2/expanded_conv_6/expand/BatchNorm/FusedBatchNorm/mean/Fused_Mul__copy" type="Convert" version="opset1">
			<data destination_type="f32"/>
			<rt_info>
				<attribute name="decompression" version="0"/>
				<attribute name="fused_names" version="0" value="MobilenetV2/expanded_conv_6/expand/BatchNorm/FusedBatchNorm/mean/Fused_Mul__copy"/>
			</rt_info>
			<input>
				<port id="0" precision="FP16">
					<dim>192</dim>
					<dim>32</dim>
					<dim>1</dim>
					<dim>1</dim>
				</port>
			</input>
			<output>
				<port id="1" precision="FP32" names="MobilenetV2/expanded_conv_6/expand/weights/read:0">
					<dim>192</dim>
					<dim>32</dim>
					<dim>1</dim>
					<dim>1</dim>
				</port>
			</output>
		</layer>
		<layer id="134" name="MobilenetV2/expanded_conv_6/expand/Conv2D" type="Convolution" version="opset1">
			<data strides="1, 1" dilations="1, 1" pads_begin="0, 0" pads_end="0, 0" auto_pad="same_upper"/>
			<rt_info>
				<attribute name="fused_names" version="0" value="MobilenetV2/expanded_conv_6/expand/Conv2D"/>
			</rt_info>
			<input>
				<port id="0" precision="FP32">
					<dim>1</dim>
					<dim>32</dim>
					<dim>65</dim>
					<dim>65</dim>
				</port>
				<port id="1" precision="FP32">
					<dim>192</dim>
					<dim>32</dim>
					<dim>1</dim>
					<dim>1</dim>
				</port>
			</input>
			<output>
				<port id="2" precision="FP32">
					<dim>1</dim>
					<dim>192</dim>
					<dim>65</dim>
					<dim>65</dim>
				</port>
			</output>
		</layer>
		<layer id="135" name="data_add_1530715312_compressed" type="Const" version="opset1">
			<data element_type="f16" shape="1, 192, 1, 1" offset="119780" size="384"/>
			<output>
				<port id="0" precision="FP16">
					<dim>1</dim>
					<dim>192</dim>
					<dim>1</dim>
					<dim>1</dim>
				</port>
			</output>
		</layer>
		<layer id="136" name="data_add_1530715312" type="Convert" version="opset1">
			<data destination_type="f32"/>
			<rt_info>
				<attribute name="decompression" version="0"/>
				<attribute name="fused_names" version="0" value="data_add_1530715312"/>
			</rt_info>
			<input>
				<port id="0" precision="FP16">
					<dim>1</dim>
					<dim>192</dim>
					<dim>1</dim>
					<dim>1</dim>
				</port>
			</input>
			<output>
				<port id="1" precision="FP32">
					<dim>1</dim>
					<dim>192</dim>
					<dim>1</dim>
					<dim>1</dim>
				</port>
			</output>
		</layer>
		<layer id="137" name="MobilenetV2/expanded_conv_6/expand/BatchNorm/FusedBatchNorm/variance/Fused_Add_" type="Add" version="opset1">
			<data auto_broadcast="numpy"/>
			<rt_info>
				<attribute name="fused_names" version="0" value="MobilenetV2/expanded_conv_6/expand/BatchNorm/FusedBatchNorm/variance/Fused_Add_"/>
			</rt_info>
			<input>
				<port id="0" precision="FP32">
					<dim>1</dim>
					<dim>192</dim>
					<dim>65</dim>
					<dim>65</dim>
				</port>
				<port id="1" precision="FP32">
					<dim>1</dim>
					<dim>192</dim>
					<dim>1</dim>
					<dim>1</dim>
				</port>
			</input>
			<output>
				<port id="2" precision="FP32" names="MobilenetV2/expanded_conv_6/expand/BatchNorm/FusedBatchNorm:0">
					<dim>1</dim>
					<dim>192</dim>
					<dim>65</dim>
					<dim>65</dim>
				</port>
			</output>
		</layer>
		<layer id="138" name="MobilenetV2/expanded_conv_6/expand/Relu6" type="Clamp" version="opset1">
			<data min="0" max="6"/>
			<rt_info>
				<attribute name="fused_names" version="0" value="MobilenetV2/expanded_conv_6/expand/Relu6"/>
			</rt_info>
			<input>
				<port id="0" precision="FP32">
					<dim>1</dim>
					<dim>192</dim>
					<dim>65</dim>
					<dim>65</dim>
				</port>
			</input>
			<output>
				<port id="1" precision="FP32" names="MobilenetV2/expanded_conv_6/expand/Relu6:0,MobilenetV2/expanded_conv_6/expansion_output:0">
					<dim>1</dim>
					<dim>192</dim>
					<dim>65</dim>
					<dim>65</dim>
				</port>
			</output>
		</layer>
		<layer id="139" name="MobilenetV2/expanded_conv_6/depthwise/BatchNorm/FusedBatchNorm/mean/Fused_Mul__copy_compressed" type="Const" version="opset1">
			<data element_type="f16" shape="192, 1, 1, 3, 3" offset="120164" size="3456"/>
			<output>
				<port id="0" precision="FP16">
					<dim>192</dim>
					<dim>1</dim>
					<dim>1</dim>
					<dim>3</dim>
					<dim>3</dim>
				</port>
			</output>
		</layer>
		<layer id="140" name="MobilenetV2/expanded_conv_6/depthwise/BatchNorm/FusedBatchNorm/mean/Fused_Mul__copy" type="Convert" version="opset1">
			<data destination_type="f32"/>
			<rt_info>
				<attribute name="decompression" version="0"/>
				<attribute name="fused_names" version="0" value="MobilenetV2/expanded_conv_6/depthwise/BatchNorm/FusedBatchNorm/mean/Fused_Mul__copy"/>
			</rt_info>
			<input>
				<port id="0" precision="FP16">
					<dim>192</dim>
					<dim>1</dim>
					<dim>1</dim>
					<dim>3</dim>
					<dim>3</dim>
				</port>
			</input>
			<output>
				<port id="1" precision="FP32" names="MobilenetV2/expanded_conv_6/depthwise/depthwise_weights/read:0">
					<dim>192</dim>
					<dim>1</dim>
					<dim>1</dim>
					<dim>3</dim>
					<dim>3</dim>
				</port>
			</output>
		</layer>
		<layer id="141" name="MobilenetV2/expanded_conv_6/depthwise/depthwise" type="GroupConvolution" version="opset1">
			<data strides="1, 1" pads_begin="0, 0" pads_end="0, 0" dilations="1, 1" auto_pad="same_upper"/>
			<rt_info>
				<attribute name="fused_names" version="0" value="MobilenetV2/expanded_conv_6/depthwise/depthwise"/>
			</rt_info>
			<input>
				<port id="0" precision="FP32">
					<dim>1</dim>
					<dim>192</dim>
					<dim>65</dim>
					<dim>65</dim>
				</port>
				<port id="1" precision="FP32">
					<dim>192</dim>
					<dim>1</dim>
					<dim>1</dim>
					<dim>3</dim>
					<dim>3</dim>
				</port>
			</input>
			<output>
				<port id="2" precision="FP32">
					<dim>1</dim>
					<dim>192</dim>
					<dim>65</dim>
					<dim>65</dim>
				</port>
			</output>
		</layer>
		<layer id="142" name="data_add_1531515320_compressed" type="Const" version="opset1">
			<data element_type="f16" shape="1, 192, 1, 1" offset="123620" size="384"/>
			<output>
				<port id="0" precision="FP16">
					<dim>1</dim>
					<dim>192</dim>
					<dim>1</dim>
					<dim>1</dim>
				</port>
			</output>
		</layer>
		<layer id="143" name="data_add_1531515320" type="Convert" version="opset1">
			<data destination_type="f32"/>
			<rt_info>
				<attribute name="decompression" version="0"/>
				<attribute name="fused_names" version="0" value="data_add_1531515320"/>
			</rt_info>
			<input>
				<port id="0" precision="FP16">
					<dim>1</dim>
					<dim>192</dim>
					<dim>1</dim>
					<dim>1</dim>
				</port>
			</input>
			<output>
				<port id="1" precision="FP32">
					<dim>1</dim>
					<dim>192</dim>
					<dim>1</dim>
					<dim>1</dim>
				</port>
			</output>
		</layer>
		<layer id="144" name="MobilenetV2/expanded_conv_6/depthwise/BatchNorm/FusedBatchNorm/variance/Fused_Add_" type="Add" version="opset1">
			<data auto_broadcast="numpy"/>
			<rt_info>
				<attribute name="fused_names" version="0" value="MobilenetV2/expanded_conv_6/depthwise/BatchNorm/FusedBatchNorm/variance/Fused_Add_"/>
			</rt_info>
			<input>
				<port id="0" precision="FP32">
					<dim>1</dim>
					<dim>192</dim>
					<dim>65</dim>
					<dim>65</dim>
				</port>
				<port id="1" precision="FP32">
					<dim>1</dim>
					<dim>192</dim>
					<dim>1</dim>
					<dim>1</dim>
				</port>
			</input>
			<output>
				<port id="2" precision="FP32" names="MobilenetV2/expanded_conv_6/depthwise/BatchNorm/FusedBatchNorm:0">
					<dim>1</dim>
					<dim>192</dim>
					<dim>65</dim>
					<dim>65</dim>
				</port>
			</output>
		</layer>
		<layer id="145" name="MobilenetV2/expanded_conv_6/depthwise/Relu6" type="Clamp" version="opset1">
			<data min="0" max="6"/>
			<rt_info>
				<attribute name="fused_names" version="0" value="MobilenetV2/expanded_conv_6/depthwise/Relu6"/>
			</rt_info>
			<input>
				<port id="0" precision="FP32">
					<dim>1</dim>
					<dim>192</dim>
					<dim>65</dim>
					<dim>65</dim>
				</port>
			</input>
			<output>
				<port id="1" precision="FP32" names="MobilenetV2/expanded_conv_6/depthwise/Relu6:0,MobilenetV2/expanded_conv_6/depthwise_output:0">
					<dim>1</dim>
					<dim>192</dim>
					<dim>65</dim>
					<dim>65</dim>
				</port>
			</output>
		</layer>
		<layer id="146" name="MobilenetV2/expanded_conv_6/project/BatchNorm/FusedBatchNorm/mean/Fused_Mul__copy_compressed" type="Const" version="opset1">
			<data element_type="f16" shape="64, 192, 1, 1" offset="124004" size="24576"/>
			<output>
				<port id="0" precision="FP16">
					<dim>64</dim>
					<dim>192</dim>
					<dim>1</dim>
					<dim>1</dim>
				</port>
			</output>
		</layer>
		<layer id="147" name="MobilenetV2/expanded_conv_6/project/BatchNorm/FusedBatchNorm/mean/Fused_Mul__copy" type="Convert" version="opset1">
			<data destination_type="f32"/>
			<rt_info>
				<attribute name="decompression" version="0"/>
				<attribute name="fused_names" version="0" value="MobilenetV2/expanded_conv_6/project/BatchNorm/FusedBatchNorm/mean/Fused_Mul__copy"/>
			</rt_info>
			<input>
				<port id="0" precision="FP16">
					<dim>64</dim>
					<dim>192</dim>
					<dim>1</dim>
					<dim>1</dim>
				</port>
			</input>
			<output>
				<port id="1" precision="FP32" names="MobilenetV2/expanded_conv_6/project/weights/read:0">
					<dim>64</dim>
					<dim>192</dim>
					<dim>1</dim>
					<dim>1</dim>
				</port>
			</output>
		</layer>
		<layer id="148" name="MobilenetV2/expanded_conv_6/project/Conv2D" type="Convolution" version="opset1">
			<data strides="1, 1" dilations="1, 1" pads_begin="0, 0" pads_end="0, 0" auto_pad="same_upper"/>
			<rt_info>
				<attribute name="fused_names" version="0" value="MobilenetV2/expanded_conv_6/project/Conv2D"/>
			</rt_info>
			<input>
				<port id="0" precision="FP32">
					<dim>1</dim>
					<dim>192</dim>
					<dim>65</dim>
					<dim>65</dim>
				</port>
				<port id="1" precision="FP32">
					<dim>64</dim>
					<dim>192</dim>
					<dim>1</dim>
					<dim>1</dim>
				</port>
			</input>
			<output>
				<port id="2" precision="FP32">
					<dim>1</dim>
					<dim>64</dim>
					<dim>65</dim>
					<dim>65</dim>
				</port>
			</output>
		</layer>
		<layer id="149" name="data_add_1532315328_compressed" type="Const" version="opset1">
			<data element_type="f16" shape="1, 64, 1, 1" offset="148580" size="128"/>
			<output>
				<port id="0" precision="FP16">
					<dim>1</dim>
					<dim>64</dim>
					<dim>1</dim>
					<dim>1</dim>
				</port>
			</output>
		</layer>
		<layer id="150" name="data_add_1532315328" type="Convert" version="opset1">
			<data destination_type="f32"/>
			<rt_info>
				<attribute name="decompression" version="0"/>
				<attribute name="fused_names" version="0" value="data_add_1532315328"/>
			</rt_info>
			<input>
				<port id="0" precision="FP16">
					<dim>1</dim>
					<dim>64</dim>
					<dim>1</dim>
					<dim>1</dim>
				</port>
			</input>
			<output>
				<port id="1" precision="FP32">
					<dim>1</dim>
					<dim>64</dim>
					<dim>1</dim>
					<dim>1</dim>
				</port>
			</output>
		</layer>
		<layer id="151" name="MobilenetV2/expanded_conv_6/project/BatchNorm/FusedBatchNorm/variance/Fused_Add_" type="Add" version="opset1">
			<data auto_broadcast="numpy"/>
			<rt_info>
				<attribute name="fused_names" version="0" value="MobilenetV2/expanded_conv_6/project/BatchNorm/FusedBatchNorm/variance/Fused_Add_"/>
			</rt_info>
			<input>
				<port id="0" precision="FP32">
					<dim>1</dim>
					<dim>64</dim>
					<dim>65</dim>
					<dim>65</dim>
				</port>
				<port id="1" precision="FP32">
					<dim>1</dim>
					<dim>64</dim>
					<dim>1</dim>
					<dim>1</dim>
				</port>
			</input>
			<output>
				<port id="2" precision="FP32" names="MobilenetV2/expanded_conv_6/output:0,MobilenetV2/expanded_conv_6/project/BatchNorm/FusedBatchNorm:0,MobilenetV2/expanded_conv_6/project/Identity:0,MobilenetV2/expanded_conv_7/input:0">
					<dim>1</dim>
					<dim>64</dim>
					<dim>65</dim>
					<dim>65</dim>
				</port>
			</output>
		</layer>
		<layer id="152" name="MobilenetV2/expanded_conv_7/expand/BatchNorm/FusedBatchNorm/mean/Fused_Mul__copy_compressed" type="Const" version="opset1">
			<data element_type="f16" shape="384, 64, 1, 1" offset="148708" size="49152"/>
			<output>
				<port id="0" precision="FP16">
					<dim>384</dim>
					<dim>64</dim>
					<dim>1</dim>
					<dim>1</dim>
				</port>
			</output>
		</layer>
		<layer id="153" name="MobilenetV2/expanded_conv_7/expand/BatchNorm/FusedBatchNorm/mean/Fused_Mul__copy" type="Convert" version="opset1">
			<data destination_type="f32"/>
			<rt_info>
				<attribute name="decompression" version="0"/>
				<attribute name="fused_names" version="0" value="MobilenetV2/expanded_conv_7/expand/BatchNorm/FusedBatchNorm/mean/Fused_Mul__copy"/>
			</rt_info>
			<input>
				<port id="0" precision="FP16">
					<dim>384</dim>
					<dim>64</dim>
					<dim>1</dim>
					<dim>1</dim>
				</port>
			</input>
			<output>
				<port id="1" precision="FP32" names="MobilenetV2/expanded_conv_7/expand/weights/read:0">
					<dim>384</dim>
					<dim>64</dim>
					<dim>1</dim>
					<dim>1</dim>
				</port>
			</output>
		</layer>
		<layer id="154" name="MobilenetV2/expanded_conv_7/expand/Conv2D" type="Convolution" version="opset1">
			<data strides="1, 1" dilations="1, 1" pads_begin="0, 0" pads_end="0, 0" auto_pad="same_upper"/>
			<rt_info>
				<attribute name="fused_names" version="0" value="MobilenetV2/expanded_conv_7/expand/Conv2D"/>
			</rt_info>
			<input>
				<port id="0" precision="FP32">
					<dim>1</dim>
					<dim>64</dim>
					<dim>65</dim>
					<dim>65</dim>
				</port>
				<port id="1" precision="FP32">
					<dim>384</dim>
					<dim>64</dim>
					<dim>1</dim>
					<dim>1</dim>
				</port>
			</input>
			<output>
				<port id="2" precision="FP32">
					<dim>1</dim>
					<dim>384</dim>
					<dim>65</dim>
					<dim>65</dim>
				</port>
			</output>
		</layer>
		<layer id="155" name="data_add_1533115336_compressed" type="Const" version="opset1">
			<data element_type="f16" shape="1, 384, 1, 1" offset="197860" size="768"/>
			<output>
				<port id="0" precision="FP16">
					<dim>1</dim>
					<dim>384</dim>
					<dim>1</dim>
					<dim>1</dim>
				</port>
			</output>
		</layer>
		<layer id="156" name="data_add_1533115336" type="Convert" version="opset1">
			<data destination_type="f32"/>
			<rt_info>
				<attribute name="decompression" version="0"/>
				<attribute name="fused_names" version="0" value="data_add_1533115336"/>
			</rt_info>
			<input>
				<port id="0" precision="FP16">
					<dim>1</dim>
					<dim>384</dim>
					<dim>1</dim>
					<dim>1</dim>
				</port>
			</input>
			<output>
				<port id="1" precision="FP32">
					<dim>1</dim>
					<dim>384</dim>
					<dim>1</dim>
					<dim>1</dim>
				</port>
			</output>
		</layer>
		<layer id="157" name="MobilenetV2/expanded_conv_7/expand/BatchNorm/FusedBatchNorm/variance/Fused_Add_" type="Add" version="opset1">
			<data auto_broadcast="numpy"/>
			<rt_info>
				<attribute name="fused_names" version="0" value="MobilenetV2/expanded_conv_7/expand/BatchNorm/FusedBatchNorm/variance/Fused_Add_"/>
			</rt_info>
			<input>
				<port id="0" precision="FP32">
					<dim>1</dim>
					<dim>384</dim>
					<dim>65</dim>
					<dim>65</dim>
				</port>
				<port id="1" precision="FP32">
					<dim>1</dim>
					<dim>384</dim>
					<dim>1</dim>
					<dim>1</dim>
				</port>
			</input>
			<output>
				<port id="2" precision="FP32" names="MobilenetV2/expanded_conv_7/expand/BatchNorm/FusedBatchNorm:0">
					<dim>1</dim>
					<dim>384</dim>
					<dim>65</dim>
					<dim>65</dim>
				</port>
			</output>
		</layer>
		<layer id="158" name="MobilenetV2/expanded_conv_7/expand/Relu6" type="Clamp" version="opset1">
			<data min="0" max="6"/>
			<rt_info>
				<attribute name="fused_names" version="0" value="MobilenetV2/expanded_conv_7/expand/Relu6"/>
			</rt_info>
			<input>
				<port id="0" precision="FP32">
					<dim>1</dim>
					<dim>384</dim>
					<dim>65</dim>
					<dim>65</dim>
				</port>
			</input>
			<output>
				<port id="1" precision="FP32" names="MobilenetV2/expanded_conv_7/expand/Relu6:0,MobilenetV2/expanded_conv_7/expansion_output:0">
					<dim>1</dim>
					<dim>384</dim>
					<dim>65</dim>
					<dim>65</dim>
				</port>
			</output>
		</layer>
		<layer id="159" name="MobilenetV2/expanded_conv_7/depthwise/BatchNorm/FusedBatchNorm/mean/Fused_Mul__copy_compressed" type="Const" version="opset1">
			<data element_type="f16" shape="384, 1, 1, 3, 3" offset="198628" size="6912"/>
			<output>
				<port id="0" precision="FP16">
					<dim>384</dim>
					<dim>1</dim>
					<dim>1</dim>
					<dim>3</dim>
					<dim>3</dim>
				</port>
			</output>
		</layer>
		<layer id="160" name="MobilenetV2/expanded_conv_7/depthwise/BatchNorm/FusedBatchNorm/mean/Fused_Mul__copy" type="Convert" version="opset1">
			<data destination_type="f32"/>
			<rt_info>
				<attribute name="decompression" version="0"/>
				<attribute name="fused_names" version="0" value="MobilenetV2/expanded_conv_7/depthwise/BatchNorm/FusedBatchNorm/mean/Fused_Mul__copy"/>
			</rt_info>
			<input>
				<port id="0" precision="FP16">
					<dim>384</dim>
					<dim>1</dim>
					<dim>1</dim>
					<dim>3</dim>
					<dim>3</dim>
				</port>
			</input>
			<output>
				<port id="1" precision="FP32" names="MobilenetV2/expanded_conv_7/depthwise/depthwise_weights/read:0">
					<dim>384</dim>
					<dim>1</dim>
					<dim>1</dim>
					<dim>3</dim>
					<dim>3</dim>
				</port>
			</output>
		</layer>
		<layer id="161" name="MobilenetV2/expanded_conv_7/depthwise/depthwise" type="GroupConvolution" version="opset1">
			<data strides="1, 1" pads_begin="2, 2" pads_end="2, 2" dilations="2, 2" auto_pad="explicit"/>
			<rt_info>
				<attribute name="fused_names" version="0" value="MobilenetV2/expanded_conv_7/depthwise/depthwise"/>
			</rt_info>
			<input>
				<port id="0" precision="FP32">
					<dim>1</dim>
					<dim>384</dim>
					<dim>65</dim>
					<dim>65</dim>
				</port>
				<port id="1" precision="FP32">
					<dim>384</dim>
					<dim>1</dim>
					<dim>1</dim>
					<dim>3</dim>
					<dim>3</dim>
				</port>
			</input>
			<output>
				<port id="2" precision="FP32">
					<dim>1</dim>
					<dim>384</dim>
					<dim>65</dim>
					<dim>65</dim>
				</port>
			</output>
		</layer>
		<layer id="162" name="data_add_1533915344_compressed" type="Const" version="opset1">
			<data element_type="f16" shape="1, 384, 1, 1" offset="205540" size="768"/>
			<output>
				<port id="0" precision="FP16">
					<dim>1</dim>
					<dim>384</dim>
					<dim>1</dim>
					<dim>1</dim>
				</port>
			</output>
		</layer>
		<layer id="163" name="data_add_1533915344" type="Convert" version="opset1">
			<data destination_type="f32"/>
			<rt_info>
				<attribute name="decompression" version="0"/>
				<attribute name="fused_names" version="0" value="data_add_1533915344"/>
			</rt_info>
			<input>
				<port id="0" precision="FP16">
					<dim>1</dim>
					<dim>384</dim>
					<dim>1</dim>
					<dim>1</dim>
				</port>
			</input>
			<output>
				<port id="1" precision="FP32">
					<dim>1</dim>
					<dim>384</dim>
					<dim>1</dim>
					<dim>1</dim>
				</port>
			</output>
		</layer>
		<layer id="164" name="MobilenetV2/expanded_conv_7/depthwise/BatchNorm/FusedBatchNorm/variance/Fused_Add_" type="Add" version="opset1">
			<data auto_broadcast="numpy"/>
			<rt_info>
				<attribute name="fused_names" version="0" value="MobilenetV2/expanded_conv_7/depthwise/BatchNorm/FusedBatchNorm/variance/Fused_Add_"/>
			</rt_info>
			<input>
				<port id="0" precision="FP32">
					<dim>1</dim>
					<dim>384</dim>
					<dim>65</dim>
					<dim>65</dim>
				</port>
				<port id="1" precision="FP32">
					<dim>1</dim>
					<dim>384</dim>
					<dim>1</dim>
					<dim>1</dim>
				</port>
			</input>
			<output>
				<port id="2" precision="FP32" names="MobilenetV2/expanded_conv_7/depthwise/BatchNorm/FusedBatchNorm:0">
					<dim>1</dim>
					<dim>384</dim>
					<dim>65</dim>
					<dim>65</dim>
				</port>
			</output>
		</layer>
		<layer id="165" name="MobilenetV2/expanded_conv_7/depthwise/Relu6" type="Clamp" version="opset1">
			<data min="0" max="6"/>
			<rt_info>
				<attribute name="fused_names" version="0" value="MobilenetV2/expanded_conv_7/depthwise/Relu6"/>
			</rt_info>
			<input>
				<port id="0" precision="FP32">
					<dim>1</dim>
					<dim>384</dim>
					<dim>65</dim>
					<dim>65</dim>
				</port>
			</input>
			<output>
				<port id="1" precision="FP32" names="MobilenetV2/expanded_conv_7/depthwise/Relu6:0,MobilenetV2/expanded_conv_7/depthwise_output:0">
					<dim>1</dim>
					<dim>384</dim>
					<dim>65</dim>
					<dim>65</dim>
				</port>
			</output>
		</layer>
		<layer id="166" name="MobilenetV2/expanded_conv_7/project/BatchNorm/FusedBatchNorm/mean/Fused_Mul__copy_compressed" type="Const" version="opset1">
			<data element_type="f16" shape="64, 384, 1, 1" offset="206308" size="49152"/>
			<output>
				<port id="0" precision="FP16">
					<dim>64</dim>
					<dim>384</dim>
					<dim>1</dim>
					<dim>1</dim>
				</port>
			</output>
		</layer>
		<layer id="167" name="MobilenetV2/expanded_conv_7/project/BatchNorm/FusedBatchNorm/mean/Fused_Mul__copy" type="Convert" version="opset1">
			<data destination_type="f32"/>
			<rt_info>
				<attribute name="decompression" version="0"/>
				<attribute name="fused_names" version="0" value="MobilenetV2/expanded_conv_7/project/BatchNorm/FusedBatchNorm/mean/Fused_Mul__copy"/>
			</rt_info>
			<input>
				<port id="0" precision="FP16">
					<dim>64</dim>
					<dim>384</dim>
					<dim>1</dim>
					<dim>1</dim>
				</port>
			</input>
			<output>
				<port id="1" precision="FP32" names="MobilenetV2/expanded_conv_7/project/weights/read:0">
					<dim>64</dim>
					<dim>384</dim>
					<dim>1</dim>
					<dim>1</dim>
				</port>
			</output>
		</layer>
		<layer id="168" name="MobilenetV2/expanded_conv_7/project/Conv2D" type="Convolution" version="opset1">
			<data strides="1, 1" dilations="1, 1" pads_begin="0, 0" pads_end="0, 0" auto_pad="same_upper"/>
			<rt_info>
				<attribute name="fused_names" version="0" value="MobilenetV2/expanded_conv_7/project/Conv2D"/>
			</rt_info>
			<input>
				<port id="0" precision="FP32">
					<dim>1</dim>
					<dim>384</dim>
					<dim>65</dim>
					<dim>65</dim>
				</port>
				<port id="1" precision="FP32">
					<dim>64</dim>
					<dim>384</dim>
					<dim>1</dim>
					<dim>1</dim>
				</port>
			</input>
			<output>
				<port id="2" precision="FP32">
					<dim>1</dim>
					<dim>64</dim>
					<dim>65</dim>
					<dim>65</dim>
				</port>
			</output>
		</layer>
		<layer id="169" name="data_add_1534715352_compressed" type="Const" version="opset1">
			<data element_type="f16" shape="1, 64, 1, 1" offset="255460" size="128"/>
			<output>
				<port id="0" precision="FP16">
					<dim>1</dim>
					<dim>64</dim>
					<dim>1</dim>
					<dim>1</dim>
				</port>
			</output>
		</layer>
		<layer id="170" name="data_add_1534715352" type="Convert" version="opset1">
			<data destination_type="f32"/>
			<rt_info>
				<attribute name="decompression" version="0"/>
				<attribute name="fused_names" version="0" value="data_add_1534715352"/>
			</rt_info>
			<input>
				<port id="0" precision="FP16">
					<dim>1</dim>
					<dim>64</dim>
					<dim>1</dim>
					<dim>1</dim>
				</port>
			</input>
			<output>
				<port id="1" precision="FP32">
					<dim>1</dim>
					<dim>64</dim>
					<dim>1</dim>
					<dim>1</dim>
				</port>
			</output>
		</layer>
		<layer id="171" name="MobilenetV2/expanded_conv_7/project/BatchNorm/FusedBatchNorm/variance/Fused_Add_" type="Add" version="opset1">
			<data auto_broadcast="numpy"/>
			<rt_info>
				<attribute name="fused_names" version="0" value="MobilenetV2/expanded_conv_7/project/BatchNorm/FusedBatchNorm/variance/Fused_Add_"/>
			</rt_info>
			<input>
				<port id="0" precision="FP32">
					<dim>1</dim>
					<dim>64</dim>
					<dim>65</dim>
					<dim>65</dim>
				</port>
				<port id="1" precision="FP32">
					<dim>1</dim>
					<dim>64</dim>
					<dim>1</dim>
					<dim>1</dim>
				</port>
			</input>
			<output>
				<port id="2" precision="FP32" names="MobilenetV2/expanded_conv_7/project/BatchNorm/FusedBatchNorm:0,MobilenetV2/expanded_conv_7/project/Identity:0">
					<dim>1</dim>
					<dim>64</dim>
					<dim>65</dim>
					<dim>65</dim>
				</port>
			</output>
		</layer>
		<layer id="172" name="MobilenetV2/expanded_conv_7/add" type="Add" version="opset1">
			<data auto_broadcast="numpy"/>
			<rt_info>
				<attribute name="fused_names" version="0" value="MobilenetV2/expanded_conv_7/add"/>
			</rt_info>
			<input>
				<port id="0" precision="FP32">
					<dim>1</dim>
					<dim>64</dim>
					<dim>65</dim>
					<dim>65</dim>
				</port>
				<port id="1" precision="FP32">
					<dim>1</dim>
					<dim>64</dim>
					<dim>65</dim>
					<dim>65</dim>
				</port>
			</input>
			<output>
				<port id="2" precision="FP32" names="MobilenetV2/expanded_conv_7/add:0,MobilenetV2/expanded_conv_7/output:0,MobilenetV2/expanded_conv_8/input:0">
					<dim>1</dim>
					<dim>64</dim>
					<dim>65</dim>
					<dim>65</dim>
				</port>
			</output>
		</layer>
		<layer id="173" name="MobilenetV2/expanded_conv_8/expand/BatchNorm/FusedBatchNorm/mean/Fused_Mul__copy_compressed" type="Const" version="opset1">
			<data element_type="f16" shape="384, 64, 1, 1" offset="255588" size="49152"/>
			<output>
				<port id="0" precision="FP16">
					<dim>384</dim>
					<dim>64</dim>
					<dim>1</dim>
					<dim>1</dim>
				</port>
			</output>
		</layer>
		<layer id="174" name="MobilenetV2/expanded_conv_8/expand/BatchNorm/FusedBatchNorm/mean/Fused_Mul__copy" type="Convert" version="opset1">
			<data destination_type="f32"/>
			<rt_info>
				<attribute name="decompression" version="0"/>
				<attribute name="fused_names" version="0" value="MobilenetV2/expanded_conv_8/expand/BatchNorm/FusedBatchNorm/mean/Fused_Mul__copy"/>
			</rt_info>
			<input>
				<port id="0" precision="FP16">
					<dim>384</dim>
					<dim>64</dim>
					<dim>1</dim>
					<dim>1</dim>
				</port>
			</input>
			<output>
				<port id="1" precision="FP32" names="MobilenetV2/expanded_conv_8/expand/weights/read:0">
					<dim>384</dim>
					<dim>64</dim>
					<dim>1</dim>
					<dim>1</dim>
				</port>
			</output>
		</layer>
		<layer id="175" name="MobilenetV2/expanded_conv_8/expand/Conv2D" type="Convolution" version="opset1">
			<data strides="1, 1" dilations="1, 1" pads_begin="0, 0" pads_end="0, 0" auto_pad="same_upper"/>
			<rt_info>
				<attribute name="fused_names" version="0" value="MobilenetV2/expanded_conv_8/expand/Conv2D"/>
			</rt_info>
			<input>
				<port id="0" precision="FP32">
					<dim>1</dim>
					<dim>64</dim>
					<dim>65</dim>
					<dim>65</dim>
				</port>
				<port id="1" precision="FP32">
					<dim>384</dim>
					<dim>64</dim>
					<dim>1</dim>
					<dim>1</dim>
				</port>
			</input>
			<output>
				<port id="2" precision="FP32">
					<dim>1</dim>
					<dim>384</dim>
					<dim>65</dim>
					<dim>65</dim>
				</port>
			</output>
		</layer>
		<layer id="176" name="data_add_1535515360_compressed" type="Const" version="opset1">
			<data element_type="f16" shape="1, 384, 1, 1" offset="304740" size="768"/>
			<output>
				<port id="0" precision="FP16">
					<dim>1</dim>
					<dim>384</dim>
					<dim>1</dim>
					<dim>1</dim>
				</port>
			</output>
		</layer>
		<layer id="177" name="data_add_1535515360" type="Convert" version="opset1">
			<data destination_type="f32"/>
			<rt_info>
				<attribute name="decompression" version="0"/>
				<attribute name="fused_names" version="0" value="data_add_1535515360"/>
			</rt_info>
			<input>
				<port id="0" precision="FP16">
					<dim>1</dim>
					<dim>384</dim>
					<dim>1</dim>
					<dim>1</dim>
				</port>
			</input>
			<output>
				<port id="1" precision="FP32">
					<dim>1</dim>
					<dim>384</dim>
					<dim>1</dim>
					<dim>1</dim>
				</port>
			</output>
		</layer>
		<layer id="178" name="MobilenetV2/expanded_conv_8/expand/BatchNorm/FusedBatchNorm/variance/Fused_Add_" type="Add" version="opset1">
			<data auto_broadcast="numpy"/>
			<rt_info>
				<attribute name="fused_names" version="0" value="MobilenetV2/expanded_conv_8/expand/BatchNorm/FusedBatchNorm/variance/Fused_Add_"/>
			</rt_info>
			<input>
				<port id="0" precision="FP32">
					<dim>1</dim>
					<dim>384</dim>
					<dim>65</dim>
					<dim>65</dim>
				</port>
				<port id="1" precision="FP32">
					<dim>1</dim>
					<dim>384</dim>
					<dim>1</dim>
					<dim>1</dim>
				</port>
			</input>
			<output>
				<port id="2" precision="FP32" names="MobilenetV2/expanded_conv_8/expand/BatchNorm/FusedBatchNorm:0">
					<dim>1</dim>
					<dim>384</dim>
					<dim>65</dim>
					<dim>65</dim>
				</port>
			</output>
		</layer>
		<layer id="179" name="MobilenetV2/expanded_conv_8/expand/Relu6" type="Clamp" version="opset1">
			<data min="0" max="6"/>
			<rt_info>
				<attribute name="fused_names" version="0" value="MobilenetV2/expanded_conv_8/expand/Relu6"/>
			</rt_info>
			<input>
				<port id="0" precision="FP32">
					<dim>1</dim>
					<dim>384</dim>
					<dim>65</dim>
					<dim>65</dim>
				</port>
			</input>
			<output>
				<port id="1" precision="FP32" names="MobilenetV2/expanded_conv_8/expand/Relu6:0,MobilenetV2/expanded_conv_8/expansion_output:0">
					<dim>1</dim>
					<dim>384</dim>
					<dim>65</dim>
					<dim>65</dim>
				</port>
			</output>
		</layer>
		<layer id="180" name="MobilenetV2/expanded_conv_8/depthwise/BatchNorm/FusedBatchNorm/mean/Fused_Mul__copy_compressed" type="Const" version="opset1">
			<data element_type="f16" shape="384, 1, 1, 3, 3" offset="305508" size="6912"/>
			<output>
				<port id="0" precision="FP16">
					<dim>384</dim>
					<dim>1</dim>
					<dim>1</dim>
					<dim>3</dim>
					<dim>3</dim>
				</port>
			</output>
		</layer>
		<layer id="181" name="MobilenetV2/expanded_conv_8/depthwise/BatchNorm/FusedBatchNorm/mean/Fused_Mul__copy" type="Convert" version="opset1">
			<data destination_type="f32"/>
			<rt_info>
				<attribute name="decompression" version="0"/>
				<attribute name="fused_names" version="0" value="MobilenetV2/expanded_conv_8/depthwise/BatchNorm/FusedBatchNorm/mean/Fused_Mul__copy"/>
			</rt_info>
			<input>
				<port id="0" precision="FP16">
					<dim>384</dim>
					<dim>1</dim>
					<dim>1</dim>
					<dim>3</dim>
					<dim>3</dim>
				</port>
			</input>
			<output>
				<port id="1" precision="FP32" names="MobilenetV2/expanded_conv_8/depthwise/depthwise_weights/read:0">
					<dim>384</dim>
					<dim>1</dim>
					<dim>1</dim>
					<dim>3</dim>
					<dim>3</dim>
				</port>
			</output>
		</layer>
		<layer id="182" name="MobilenetV2/expanded_conv_8/depthwise/depthwise" type="GroupConvolution" version="opset1">
			<data strides="1, 1" pads_begin="2, 2" pads_end="2, 2" dilations="2, 2" auto_pad="explicit"/>
			<rt_info>
				<attribute name="fused_names" version="0" value="MobilenetV2/expanded_conv_8/depthwise/depthwise"/>
			</rt_info>
			<input>
				<port id="0" precision="FP32">
					<dim>1</dim>
					<dim>384</dim>
					<dim>65</dim>
					<dim>65</dim>
				</port>
				<port id="1" precision="FP32">
					<dim>384</dim>
					<dim>1</dim>
					<dim>1</dim>
					<dim>3</dim>
					<dim>3</dim>
				</port>
			</input>
			<output>
				<port id="2" precision="FP32">
					<dim>1</dim>
					<dim>384</dim>
					<dim>65</dim>
					<dim>65</dim>
				</port>
			</output>
		</layer>
		<layer id="183" name="data_add_1536315368_compressed" type="Const" version="opset1">
			<data element_type="f16" shape="1, 384, 1, 1" offset="312420" size="768"/>
			<output>
				<port id="0" precision="FP16">
					<dim>1</dim>
					<dim>384</dim>
					<dim>1</dim>
					<dim>1</dim>
				</port>
			</output>
		</layer>
		<layer id="184" name="data_add_1536315368" type="Convert" version="opset1">
			<data destination_type="f32"/>
			<rt_info>
				<attribute name="decompression" version="0"/>
				<attribute name="fused_names" version="0" value="data_add_1536315368"/>
			</rt_info>
			<input>
				<port id="0" precision="FP16">
					<dim>1</dim>
					<dim>384</dim>
					<dim>1</dim>
					<dim>1</dim>
				</port>
			</input>
			<output>
				<port id="1" precision="FP32">
					<dim>1</dim>
					<dim>384</dim>
					<dim>1</dim>
					<dim>1</dim>
				</port>
			</output>
		</layer>
		<layer id="185" name="MobilenetV2/expanded_conv_8/depthwise/BatchNorm/FusedBatchNorm/variance/Fused_Add_" type="Add" version="opset1">
			<data auto_broadcast="numpy"/>
			<rt_info>
				<attribute name="fused_names" version="0" value="MobilenetV2/expanded_conv_8/depthwise/BatchNorm/FusedBatchNorm/variance/Fused_Add_"/>
			</rt_info>
			<input>
				<port id="0" precision="FP32">
					<dim>1</dim>
					<dim>384</dim>
					<dim>65</dim>
					<dim>65</dim>
				</port>
				<port id="1" precision="FP32">
					<dim>1</dim>
					<dim>384</dim>
					<dim>1</dim>
					<dim>1</dim>
				</port>
			</input>
			<output>
				<port id="2" precision="FP32" names="MobilenetV2/expanded_conv_8/depthwise/BatchNorm/FusedBatchNorm:0">
					<dim>1</dim>
					<dim>384</dim>
					<dim>65</dim>
					<dim>65</dim>
				</port>
			</output>
		</layer>
		<layer id="186" name="MobilenetV2/expanded_conv_8/depthwise/Relu6" type="Clamp" version="opset1">
			<data min="0" max="6"/>
			<rt_info>
				<attribute name="fused_names" version="0" value="MobilenetV2/expanded_conv_8/depthwise/Relu6"/>
			</rt_info>
			<input>
				<port id="0" precision="FP32">
					<dim>1</dim>
					<dim>384</dim>
					<dim>65</dim>
					<dim>65</dim>
				</port>
			</input>
			<output>
				<port id="1" precision="FP32" names="MobilenetV2/expanded_conv_8/depthwise/Relu6:0,MobilenetV2/expanded_conv_8/depthwise_output:0">
					<dim>1</dim>
					<dim>384</dim>
					<dim>65</dim>
					<dim>65</dim>
				</port>
			</output>
		</layer>
		<layer id="187" name="MobilenetV2/expanded_conv_8/project/BatchNorm/FusedBatchNorm/mean/Fused_Mul__copy_compressed" type="Const" version="opset1">
			<data element_type="f16" shape="64, 384, 1, 1" offset="313188" size="49152"/>
			<output>
				<port id="0" precision="FP16">
					<dim>64</dim>
					<dim>384</dim>
					<dim>1</dim>
					<dim>1</dim>
				</port>
			</output>
		</layer>
		<layer id="188" name="MobilenetV2/expanded_conv_8/project/BatchNorm/FusedBatchNorm/mean/Fused_Mul__copy" type="Convert" version="opset1">
			<data destination_type="f32"/>
			<rt_info>
				<attribute name="decompression" version="0"/>
				<attribute name="fused_names" version="0" value="MobilenetV2/expanded_conv_8/project/BatchNorm/FusedBatchNorm/mean/Fused_Mul__copy"/>
			</rt_info>
			<input>
				<port id="0" precision="FP16">
					<dim>64</dim>
					<dim>384</dim>
					<dim>1</dim>
					<dim>1</dim>
				</port>
			</input>
			<output>
				<port id="1" precision="FP32" names="MobilenetV2/expanded_conv_8/project/weights/read:0">
					<dim>64</dim>
					<dim>384</dim>
					<dim>1</dim>
					<dim>1</dim>
				</port>
			</output>
		</layer>
		<layer id="189" name="MobilenetV2/expanded_conv_8/project/Conv2D" type="Convolution" version="opset1">
			<data strides="1, 1" dilations="1, 1" pads_begin="0, 0" pads_end="0, 0" auto_pad="same_upper"/>
			<rt_info>
				<attribute name="fused_names" version="0" value="MobilenetV2/expanded_conv_8/project/Conv2D"/>
			</rt_info>
			<input>
				<port id="0" precision="FP32">
					<dim>1</dim>
					<dim>384</dim>
					<dim>65</dim>
					<dim>65</dim>
				</port>
				<port id="1" precision="FP32">
					<dim>64</dim>
					<dim>384</dim>
					<dim>1</dim>
					<dim>1</dim>
				</port>
			</input>
			<output>
				<port id="2" precision="FP32">
					<dim>1</dim>
					<dim>64</dim>
					<dim>65</dim>
					<dim>65</dim>
				</port>
			</output>
		</layer>
		<layer id="190" name="data_add_1537115376_compressed" type="Const" version="opset1">
			<data element_type="f16" shape="1, 64, 1, 1" offset="362340" size="128"/>
			<output>
				<port id="0" precision="FP16">
					<dim>1</dim>
					<dim>64</dim>
					<dim>1</dim>
					<dim>1</dim>
				</port>
			</output>
		</layer>
		<layer id="191" name="data_add_1537115376" type="Convert" version="opset1">
			<data destination_type="f32"/>
			<rt_info>
				<attribute name="decompression" version="0"/>
				<attribute name="fused_names" version="0" value="data_add_1537115376"/>
			</rt_info>
			<input>
				<port id="0" precision="FP16">
					<dim>1</dim>
					<dim>64</dim>
					<dim>1</dim>
					<dim>1</dim>
				</port>
			</input>
			<output>
				<port id="1" precision="FP32">
					<dim>1</dim>
					<dim>64</dim>
					<dim>1</dim>
					<dim>1</dim>
				</port>
			</output>
		</layer>
		<layer id="192" name="MobilenetV2/expanded_conv_8/project/BatchNorm/FusedBatchNorm/variance/Fused_Add_" type="Add" version="opset1">
			<data auto_broadcast="numpy"/>
			<rt_info>
				<attribute name="fused_names" version="0" value="MobilenetV2/expanded_conv_8/project/BatchNorm/FusedBatchNorm/variance/Fused_Add_"/>
			</rt_info>
			<input>
				<port id="0" precision="FP32">
					<dim>1</dim>
					<dim>64</dim>
					<dim>65</dim>
					<dim>65</dim>
				</port>
				<port id="1" precision="FP32">
					<dim>1</dim>
					<dim>64</dim>
					<dim>1</dim>
					<dim>1</dim>
				</port>
			</input>
			<output>
				<port id="2" precision="FP32" names="MobilenetV2/expanded_conv_8/project/BatchNorm/FusedBatchNorm:0,MobilenetV2/expanded_conv_8/project/Identity:0">
					<dim>1</dim>
					<dim>64</dim>
					<dim>65</dim>
					<dim>65</dim>
				</port>
			</output>
		</layer>
		<layer id="193" name="MobilenetV2/expanded_conv_8/add" type="Add" version="opset1">
			<data auto_broadcast="numpy"/>
			<rt_info>
				<attribute name="fused_names" version="0" value="MobilenetV2/expanded_conv_8/add"/>
			</rt_info>
			<input>
				<port id="0" precision="FP32">
					<dim>1</dim>
					<dim>64</dim>
					<dim>65</dim>
					<dim>65</dim>
				</port>
				<port id="1" precision="FP32">
					<dim>1</dim>
					<dim>64</dim>
					<dim>65</dim>
					<dim>65</dim>
				</port>
			</input>
			<output>
				<port id="2" precision="FP32" names="MobilenetV2/expanded_conv_8/add:0,MobilenetV2/expanded_conv_8/output:0,MobilenetV2/expanded_conv_9/input:0">
					<dim>1</dim>
					<dim>64</dim>
					<dim>65</dim>
					<dim>65</dim>
				</port>
			</output>
		</layer>
		<layer id="194" name="MobilenetV2/expanded_conv_9/expand/BatchNorm/FusedBatchNorm/mean/Fused_Mul__copy_compressed" type="Const" version="opset1">
			<data element_type="f16" shape="384, 64, 1, 1" offset="362468" size="49152"/>
			<output>
				<port id="0" precision="FP16">
					<dim>384</dim>
					<dim>64</dim>
					<dim>1</dim>
					<dim>1</dim>
				</port>
			</output>
		</layer>
		<layer id="195" name="MobilenetV2/expanded_conv_9/expand/BatchNorm/FusedBatchNorm/mean/Fused_Mul__copy" type="Convert" version="opset1">
			<data destination_type="f32"/>
			<rt_info>
				<attribute name="decompression" version="0"/>
				<attribute name="fused_names" version="0" value="MobilenetV2/expanded_conv_9/expand/BatchNorm/FusedBatchNorm/mean/Fused_Mul__copy"/>
			</rt_info>
			<input>
				<port id="0" precision="FP16">
					<dim>384</dim>
					<dim>64</dim>
					<dim>1</dim>
					<dim>1</dim>
				</port>
			</input>
			<output>
				<port id="1" precision="FP32" names="MobilenetV2/expanded_conv_9/expand/weights/read:0">
					<dim>384</dim>
					<dim>64</dim>
					<dim>1</dim>
					<dim>1</dim>
				</port>
			</output>
		</layer>
		<layer id="196" name="MobilenetV2/expanded_conv_9/expand/Conv2D" type="Convolution" version="opset1">
			<data strides="1, 1" dilations="1, 1" pads_begin="0, 0" pads_end="0, 0" auto_pad="same_upper"/>
			<rt_info>
				<attribute name="fused_names" version="0" value="MobilenetV2/expanded_conv_9/expand/Conv2D"/>
			</rt_info>
			<input>
				<port id="0" precision="FP32">
					<dim>1</dim>
					<dim>64</dim>
					<dim>65</dim>
					<dim>65</dim>
				</port>
				<port id="1" precision="FP32">
					<dim>384</dim>
					<dim>64</dim>
					<dim>1</dim>
					<dim>1</dim>
				</port>
			</input>
			<output>
				<port id="2" precision="FP32">
					<dim>1</dim>
					<dim>384</dim>
					<dim>65</dim>
					<dim>65</dim>
				</port>
			</output>
		</layer>
		<layer id="197" name="data_add_1537915384_compressed" type="Const" version="opset1">
			<data element_type="f16" shape="1, 384, 1, 1" offset="411620" size="768"/>
			<output>
				<port id="0" precision="FP16">
					<dim>1</dim>
					<dim>384</dim>
					<dim>1</dim>
					<dim>1</dim>
				</port>
			</output>
		</layer>
		<layer id="198" name="data_add_1537915384" type="Convert" version="opset1">
			<data destination_type="f32"/>
			<rt_info>
				<attribute name="decompression" version="0"/>
				<attribute name="fused_names" version="0" value="data_add_1537915384"/>
			</rt_info>
			<input>
				<port id="0" precision="FP16">
					<dim>1</dim>
					<dim>384</dim>
					<dim>1</dim>
					<dim>1</dim>
				</port>
			</input>
			<output>
				<port id="1" precision="FP32">
					<dim>1</dim>
					<dim>384</dim>
					<dim>1</dim>
					<dim>1</dim>
				</port>
			</output>
		</layer>
		<layer id="199" name="MobilenetV2/expanded_conv_9/expand/BatchNorm/FusedBatchNorm/variance/Fused_Add_" type="Add" version="opset1">
			<data auto_broadcast="numpy"/>
			<rt_info>
				<attribute name="fused_names" version="0" value="MobilenetV2/expanded_conv_9/expand/BatchNorm/FusedBatchNorm/variance/Fused_Add_"/>
			</rt_info>
			<input>
				<port id="0" precision="FP32">
					<dim>1</dim>
					<dim>384</dim>
					<dim>65</dim>
					<dim>65</dim>
				</port>
				<port id="1" precision="FP32">
					<dim>1</dim>
					<dim>384</dim>
					<dim>1</dim>
					<dim>1</dim>
				</port>
			</input>
			<output>
				<port id="2" precision="FP32" names="MobilenetV2/expanded_conv_9/expand/BatchNorm/FusedBatchNorm:0">
					<dim>1</dim>
					<dim>384</dim>
					<dim>65</dim>
					<dim>65</dim>
				</port>
			</output>
		</layer>
		<layer id="200" name="MobilenetV2/expanded_conv_9/expand/Relu6" type="Clamp" version="opset1">
			<data min="0" max="6"/>
			<rt_info>
				<attribute name="fused_names" version="0" value="MobilenetV2/expanded_conv_9/expand/Relu6"/>
			</rt_info>
			<input>
				<port id="0" precision="FP32">
					<dim>1</dim>
					<dim>384</dim>
					<dim>65</dim>
					<dim>65</dim>
				</port>
			</input>
			<output>
				<port id="1" precision="FP32" names="MobilenetV2/expanded_conv_9/expand/Relu6:0,MobilenetV2/expanded_conv_9/expansion_output:0">
					<dim>1</dim>
					<dim>384</dim>
					<dim>65</dim>
					<dim>65</dim>
				</port>
			</output>
		</layer>
		<layer id="201" name="MobilenetV2/expanded_conv_9/depthwise/BatchNorm/FusedBatchNorm/mean/Fused_Mul__copy_compressed" type="Const" version="opset1">
			<data element_type="f16" shape="384, 1, 1, 3, 3" offset="412388" size="6912"/>
			<output>
				<port id="0" precision="FP16">
					<dim>384</dim>
					<dim>1</dim>
					<dim>1</dim>
					<dim>3</dim>
					<dim>3</dim>
				</port>
			</output>
		</layer>
		<layer id="202" name="MobilenetV2/expanded_conv_9/depthwise/BatchNorm/FusedBatchNorm/mean/Fused_Mul__copy" type="Convert" version="opset1">
			<data destination_type="f32"/>
			<rt_info>
				<attribute name="decompression" version="0"/>
				<attribute name="fused_names" version="0" value="MobilenetV2/expanded_conv_9/depthwise/BatchNorm/FusedBatchNorm/mean/Fused_Mul__copy"/>
			</rt_info>
			<input>
				<port id="0" precision="FP16">
					<dim>384</dim>
					<dim>1</dim>
					<dim>1</dim>
					<dim>3</dim>
					<dim>3</dim>
				</port>
			</input>
			<output>
				<port id="1" precision="FP32" names="MobilenetV2/expanded_conv_9/depthwise/depthwise_weights/read:0">
					<dim>384</dim>
					<dim>1</dim>
					<dim>1</dim>
					<dim>3</dim>
					<dim>3</dim>
				</port>
			</output>
		</layer>
		<layer id="203" name="MobilenetV2/expanded_conv_9/depthwise/depthwise" type="GroupConvolution" version="opset1">
			<data strides="1, 1" pads_begin="2, 2" pads_end="2, 2" dilations="2, 2" auto_pad="explicit"/>
			<rt_info>
				<attribute name="fused_names" version="0" value="MobilenetV2/expanded_conv_9/depthwise/depthwise"/>
			</rt_info>
			<input>
				<port id="0" precision="FP32">
					<dim>1</dim>
					<dim>384</dim>
					<dim>65</dim>
					<dim>65</dim>
				</port>
				<port id="1" precision="FP32">
					<dim>384</dim>
					<dim>1</dim>
					<dim>1</dim>
					<dim>3</dim>
					<dim>3</dim>
				</port>
			</input>
			<output>
				<port id="2" precision="FP32">
					<dim>1</dim>
					<dim>384</dim>
					<dim>65</dim>
					<dim>65</dim>
				</port>
			</output>
		</layer>
		<layer id="204" name="data_add_1538715392_compressed" type="Const" version="opset1">
			<data element_type="f16" shape="1, 384, 1, 1" offset="419300" size="768"/>
			<output>
				<port id="0" precision="FP16">
					<dim>1</dim>
					<dim>384</dim>
					<dim>1</dim>
					<dim>1</dim>
				</port>
			</output>
		</layer>
		<layer id="205" name="data_add_1538715392" type="Convert" version="opset1">
			<data destination_type="f32"/>
			<rt_info>
				<attribute name="decompression" version="0"/>
				<attribute name="fused_names" version="0" value="data_add_1538715392"/>
			</rt_info>
			<input>
				<port id="0" precision="FP16">
					<dim>1</dim>
					<dim>384</dim>
					<dim>1</dim>
					<dim>1</dim>
				</port>
			</input>
			<output>
				<port id="1" precision="FP32">
					<dim>1</dim>
					<dim>384</dim>
					<dim>1</dim>
					<dim>1</dim>
				</port>
			</output>
		</layer>
		<layer id="206" name="MobilenetV2/expanded_conv_9/depthwise/BatchNorm/FusedBatchNorm/variance/Fused_Add_" type="Add" version="opset1">
			<data auto_broadcast="numpy"/>
			<rt_info>
				<attribute name="fused_names" version="0" value="MobilenetV2/expanded_conv_9/depthwise/BatchNorm/FusedBatchNorm/variance/Fused_Add_"/>
			</rt_info>
			<input>
				<port id="0" precision="FP32">
					<dim>1</dim>
					<dim>384</dim>
					<dim>65</dim>
					<dim>65</dim>
				</port>
				<port id="1" precision="FP32">
					<dim>1</dim>
					<dim>384</dim>
					<dim>1</dim>
					<dim>1</dim>
				</port>
			</input>
			<output>
				<port id="2" precision="FP32" names="MobilenetV2/expanded_conv_9/depthwise/BatchNorm/FusedBatchNorm:0">
					<dim>1</dim>
					<dim>384</dim>
					<dim>65</dim>
					<dim>65</dim>
				</port>
			</output>
		</layer>
		<layer id="207" name="MobilenetV2/expanded_conv_9/depthwise/Relu6" type="Clamp" version="opset1">
			<data min="0" max="6"/>
			<rt_info>
				<attribute name="fused_names" version="0" value="MobilenetV2/expanded_conv_9/depthwise/Relu6"/>
			</rt_info>
			<input>
				<port id="0" precision="FP32">
					<dim>1</dim>
					<dim>384</dim>
					<dim>65</dim>
					<dim>65</dim>
				</port>
			</input>
			<output>
				<port id="1" precision="FP32" names="MobilenetV2/expanded_conv_9/depthwise/Relu6:0,MobilenetV2/expanded_conv_9/depthwise_output:0">
					<dim>1</dim>
					<dim>384</dim>
					<dim>65</dim>
					<dim>65</dim>
				</port>
			</output>
		</layer>
		<layer id="208" name="MobilenetV2/expanded_conv_9/project/BatchNorm/FusedBatchNorm/mean/Fused_Mul__copy_compressed" type="Const" version="opset1">
			<data element_type="f16" shape="64, 384, 1, 1" offset="420068" size="49152"/>
			<output>
				<port id="0" precision="FP16">
					<dim>64</dim>
					<dim>384</dim>
					<dim>1</dim>
					<dim>1</dim>
				</port>
			</output>
		</layer>
		<layer id="209" name="MobilenetV2/expanded_conv_9/project/BatchNorm/FusedBatchNorm/mean/Fused_Mul__copy" type="Convert" version="opset1">
			<data destination_type="f32"/>
			<rt_info>
				<attribute name="decompression" version="0"/>
				<attribute name="fused_names" version="0" value="MobilenetV2/expanded_conv_9/project/BatchNorm/FusedBatchNorm/mean/Fused_Mul__copy"/>
			</rt_info>
			<input>
				<port id="0" precision="FP16">
					<dim>64</dim>
					<dim>384</dim>
					<dim>1</dim>
					<dim>1</dim>
				</port>
			</input>
			<output>
				<port id="1" precision="FP32" names="MobilenetV2/expanded_conv_9/project/weights/read:0">
					<dim>64</dim>
					<dim>384</dim>
					<dim>1</dim>
					<dim>1</dim>
				</port>
			</output>
		</layer>
		<layer id="210" name="MobilenetV2/expanded_conv_9/project/Conv2D" type="Convolution" version="opset1">
			<data strides="1, 1" dilations="1, 1" pads_begin="0, 0" pads_end="0, 0" auto_pad="same_upper"/>
			<rt_info>
				<attribute name="fused_names" version="0" value="MobilenetV2/expanded_conv_9/project/Conv2D"/>
			</rt_info>
			<input>
				<port id="0" precision="FP32">
					<dim>1</dim>
					<dim>384</dim>
					<dim>65</dim>
					<dim>65</dim>
				</port>
				<port id="1" precision="FP32">
					<dim>64</dim>
					<dim>384</dim>
					<dim>1</dim>
					<dim>1</dim>
				</port>
			</input>
			<output>
				<port id="2" precision="FP32">
					<dim>1</dim>
					<dim>64</dim>
					<dim>65</dim>
					<dim>65</dim>
				</port>
			</output>
		</layer>
		<layer id="211" name="data_add_1539515400_compressed" type="Const" version="opset1">
			<data element_type="f16" shape="1, 64, 1, 1" offset="469220" size="128"/>
			<output>
				<port id="0" precision="FP16">
					<dim>1</dim>
					<dim>64</dim>
					<dim>1</dim>
					<dim>1</dim>
				</port>
			</output>
		</layer>
		<layer id="212" name="data_add_1539515400" type="Convert" version="opset1">
			<data destination_type="f32"/>
			<rt_info>
				<attribute name="decompression" version="0"/>
				<attribute name="fused_names" version="0" value="data_add_1539515400"/>
			</rt_info>
			<input>
				<port id="0" precision="FP16">
					<dim>1</dim>
					<dim>64</dim>
					<dim>1</dim>
					<dim>1</dim>
				</port>
			</input>
			<output>
				<port id="1" precision="FP32">
					<dim>1</dim>
					<dim>64</dim>
					<dim>1</dim>
					<dim>1</dim>
				</port>
			</output>
		</layer>
		<layer id="213" name="MobilenetV2/expanded_conv_9/project/BatchNorm/FusedBatchNorm/variance/Fused_Add_" type="Add" version="opset1">
			<data auto_broadcast="numpy"/>
			<rt_info>
				<attribute name="fused_names" version="0" value="MobilenetV2/expanded_conv_9/project/BatchNorm/FusedBatchNorm/variance/Fused_Add_"/>
			</rt_info>
			<input>
				<port id="0" precision="FP32">
					<dim>1</dim>
					<dim>64</dim>
					<dim>65</dim>
					<dim>65</dim>
				</port>
				<port id="1" precision="FP32">
					<dim>1</dim>
					<dim>64</dim>
					<dim>1</dim>
					<dim>1</dim>
				</port>
			</input>
			<output>
				<port id="2" precision="FP32" names="MobilenetV2/expanded_conv_9/project/BatchNorm/FusedBatchNorm:0,MobilenetV2/expanded_conv_9/project/Identity:0">
					<dim>1</dim>
					<dim>64</dim>
					<dim>65</dim>
					<dim>65</dim>
				</port>
			</output>
		</layer>
		<layer id="214" name="MobilenetV2/expanded_conv_9/add" type="Add" version="opset1">
			<data auto_broadcast="numpy"/>
			<rt_info>
				<attribute name="fused_names" version="0" value="MobilenetV2/expanded_conv_9/add"/>
			</rt_info>
			<input>
				<port id="0" precision="FP32">
					<dim>1</dim>
					<dim>64</dim>
					<dim>65</dim>
					<dim>65</dim>
				</port>
				<port id="1" precision="FP32">
					<dim>1</dim>
					<dim>64</dim>
					<dim>65</dim>
					<dim>65</dim>
				</port>
			</input>
			<output>
				<port id="2" precision="FP32" names="MobilenetV2/expanded_conv_10/input:0,MobilenetV2/expanded_conv_9/add:0,MobilenetV2/expanded_conv_9/output:0">
					<dim>1</dim>
					<dim>64</dim>
					<dim>65</dim>
					<dim>65</dim>
				</port>
			</output>
		</layer>
		<layer id="215" name="MobilenetV2/expanded_conv_10/expand/BatchNorm/FusedBatchNorm/mean/Fused_Mul__copy_compressed" type="Const" version="opset1">
			<data element_type="f16" shape="384, 64, 1, 1" offset="469348" size="49152"/>
			<output>
				<port id="0" precision="FP16">
					<dim>384</dim>
					<dim>64</dim>
					<dim>1</dim>
					<dim>1</dim>
				</port>
			</output>
		</layer>
		<layer id="216" name="MobilenetV2/expanded_conv_10/expand/BatchNorm/FusedBatchNorm/mean/Fused_Mul__copy" type="Convert" version="opset1">
			<data destination_type="f32"/>
			<rt_info>
				<attribute name="decompression" version="0"/>
				<attribute name="fused_names" version="0" value="MobilenetV2/expanded_conv_10/expand/BatchNorm/FusedBatchNorm/mean/Fused_Mul__copy"/>
			</rt_info>
			<input>
				<port id="0" precision="FP16">
					<dim>384</dim>
					<dim>64</dim>
					<dim>1</dim>
					<dim>1</dim>
				</port>
			</input>
			<output>
				<port id="1" precision="FP32" names="MobilenetV2/expanded_conv_10/expand/weights/read:0">
					<dim>384</dim>
					<dim>64</dim>
					<dim>1</dim>
					<dim>1</dim>
				</port>
			</output>
		</layer>
		<layer id="217" name="MobilenetV2/expanded_conv_10/expand/Conv2D" type="Convolution" version="opset1">
			<data strides="1, 1" dilations="1, 1" pads_begin="0, 0" pads_end="0, 0" auto_pad="same_upper"/>
			<rt_info>
				<attribute name="fused_names" version="0" value="MobilenetV2/expanded_conv_10/expand/Conv2D"/>
			</rt_info>
			<input>
				<port id="0" precision="FP32">
					<dim>1</dim>
					<dim>64</dim>
					<dim>65</dim>
					<dim>65</dim>
				</port>
				<port id="1" precision="FP32">
					<dim>384</dim>
					<dim>64</dim>
					<dim>1</dim>
					<dim>1</dim>
				</port>
			</input>
			<output>
				<port id="2" precision="FP32">
					<dim>1</dim>
					<dim>384</dim>
					<dim>65</dim>
					<dim>65</dim>
				</port>
			</output>
		</layer>
		<layer id="218" name="data_add_1540315408_compressed" type="Const" version="opset1">
			<data element_type="f16" shape="1, 384, 1, 1" offset="518500" size="768"/>
			<output>
				<port id="0" precision="FP16">
					<dim>1</dim>
					<dim>384</dim>
					<dim>1</dim>
					<dim>1</dim>
				</port>
			</output>
		</layer>
		<layer id="219" name="data_add_1540315408" type="Convert" version="opset1">
			<data destination_type="f32"/>
			<rt_info>
				<attribute name="decompression" version="0"/>
				<attribute name="fused_names" version="0" value="data_add_1540315408"/>
			</rt_info>
			<input>
				<port id="0" precision="FP16">
					<dim>1</dim>
					<dim>384</dim>
					<dim>1</dim>
					<dim>1</dim>
				</port>
			</input>
			<output>
				<port id="1" precision="FP32">
					<dim>1</dim>
					<dim>384</dim>
					<dim>1</dim>
					<dim>1</dim>
				</port>
			</output>
		</layer>
		<layer id="220" name="MobilenetV2/expanded_conv_10/expand/BatchNorm/FusedBatchNorm/variance/Fused_Add_" type="Add" version="opset1">
			<data auto_broadcast="numpy"/>
			<rt_info>
				<attribute name="fused_names" version="0" value="MobilenetV2/expanded_conv_10/expand/BatchNorm/FusedBatchNorm/variance/Fused_Add_"/>
			</rt_info>
			<input>
				<port id="0" precision="FP32">
					<dim>1</dim>
					<dim>384</dim>
					<dim>65</dim>
					<dim>65</dim>
				</port>
				<port id="1" precision="FP32">
					<dim>1</dim>
					<dim>384</dim>
					<dim>1</dim>
					<dim>1</dim>
				</port>
			</input>
			<output>
				<port id="2" precision="FP32" names="MobilenetV2/expanded_conv_10/expand/BatchNorm/FusedBatchNorm:0">
					<dim>1</dim>
					<dim>384</dim>
					<dim>65</dim>
					<dim>65</dim>
				</port>
			</output>
		</layer>
		<layer id="221" name="MobilenetV2/expanded_conv_10/expand/Relu6" type="Clamp" version="opset1">
			<data min="0" max="6"/>
			<rt_info>
				<attribute name="fused_names" version="0" value="MobilenetV2/expanded_conv_10/expand/Relu6"/>
			</rt_info>
			<input>
				<port id="0" precision="FP32">
					<dim>1</dim>
					<dim>384</dim>
					<dim>65</dim>
					<dim>65</dim>
				</port>
			</input>
			<output>
				<port id="1" precision="FP32" names="MobilenetV2/expanded_conv_10/expand/Relu6:0,MobilenetV2/expanded_conv_10/expansion_output:0">
					<dim>1</dim>
					<dim>384</dim>
					<dim>65</dim>
					<dim>65</dim>
				</port>
			</output>
		</layer>
		<layer id="222" name="MobilenetV2/expanded_conv_10/depthwise/BatchNorm/FusedBatchNorm/mean/Fused_Mul__copy_compressed" type="Const" version="opset1">
			<data element_type="f16" shape="384, 1, 1, 3, 3" offset="519268" size="6912"/>
			<output>
				<port id="0" precision="FP16">
					<dim>384</dim>
					<dim>1</dim>
					<dim>1</dim>
					<dim>3</dim>
					<dim>3</dim>
				</port>
			</output>
		</layer>
		<layer id="223" name="MobilenetV2/expanded_conv_10/depthwise/BatchNorm/FusedBatchNorm/mean/Fused_Mul__copy" type="Convert" version="opset1">
			<data destination_type="f32"/>
			<rt_info>
				<attribute name="decompression" version="0"/>
				<attribute name="fused_names" version="0" value="MobilenetV2/expanded_conv_10/depthwise/BatchNorm/FusedBatchNorm/mean/Fused_Mul__copy"/>
			</rt_info>
			<input>
				<port id="0" precision="FP16">
					<dim>384</dim>
					<dim>1</dim>
					<dim>1</dim>
					<dim>3</dim>
					<dim>3</dim>
				</port>
			</input>
			<output>
				<port id="1" precision="FP32" names="MobilenetV2/expanded_conv_10/depthwise/depthwise_weights/read:0">
					<dim>384</dim>
					<dim>1</dim>
					<dim>1</dim>
					<dim>3</dim>
					<dim>3</dim>
				</port>
			</output>
		</layer>
		<layer id="224" name="MobilenetV2/expanded_conv_10/depthwise/depthwise" type="GroupConvolution" version="opset1">
			<data strides="1, 1" pads_begin="2, 2" pads_end="2, 2" dilations="2, 2" auto_pad="explicit"/>
			<rt_info>
				<attribute name="fused_names" version="0" value="MobilenetV2/expanded_conv_10/depthwise/depthwise"/>
			</rt_info>
			<input>
				<port id="0" precision="FP32">
					<dim>1</dim>
					<dim>384</dim>
					<dim>65</dim>
					<dim>65</dim>
				</port>
				<port id="1" precision="FP32">
					<dim>384</dim>
					<dim>1</dim>
					<dim>1</dim>
					<dim>3</dim>
					<dim>3</dim>
				</port>
			</input>
			<output>
				<port id="2" precision="FP32">
					<dim>1</dim>
					<dim>384</dim>
					<dim>65</dim>
					<dim>65</dim>
				</port>
			</output>
		</layer>
		<layer id="225" name="data_add_1541115416_compressed" type="Const" version="opset1">
			<data element_type="f16" shape="1, 384, 1, 1" offset="526180" size="768"/>
			<output>
				<port id="0" precision="FP16">
					<dim>1</dim>
					<dim>384</dim>
					<dim>1</dim>
					<dim>1</dim>
				</port>
			</output>
		</layer>
		<layer id="226" name="data_add_1541115416" type="Convert" version="opset1">
			<data destination_type="f32"/>
			<rt_info>
				<attribute name="decompression" version="0"/>
				<attribute name="fused_names" version="0" value="data_add_1541115416"/>
			</rt_info>
			<input>
				<port id="0" precision="FP16">
					<dim>1</dim>
					<dim>384</dim>
					<dim>1</dim>
					<dim>1</dim>
				</port>
			</input>
			<output>
				<port id="1" precision="FP32">
					<dim>1</dim>
					<dim>384</dim>
					<dim>1</dim>
					<dim>1</dim>
				</port>
			</output>
		</layer>
		<layer id="227" name="MobilenetV2/expanded_conv_10/depthwise/BatchNorm/FusedBatchNorm/variance/Fused_Add_" type="Add" version="opset1">
			<data auto_broadcast="numpy"/>
			<rt_info>
				<attribute name="fused_names" version="0" value="MobilenetV2/expanded_conv_10/depthwise/BatchNorm/FusedBatchNorm/variance/Fused_Add_"/>
			</rt_info>
			<input>
				<port id="0" precision="FP32">
					<dim>1</dim>
					<dim>384</dim>
					<dim>65</dim>
					<dim>65</dim>
				</port>
				<port id="1" precision="FP32">
					<dim>1</dim>
					<dim>384</dim>
					<dim>1</dim>
					<dim>1</dim>
				</port>
			</input>
			<output>
				<port id="2" precision="FP32" names="MobilenetV2/expanded_conv_10/depthwise/BatchNorm/FusedBatchNorm:0">
					<dim>1</dim>
					<dim>384</dim>
					<dim>65</dim>
					<dim>65</dim>
				</port>
			</output>
		</layer>
		<layer id="228" name="MobilenetV2/expanded_conv_10/depthwise/Relu6" type="Clamp" version="opset1">
			<data min="0" max="6"/>
			<rt_info>
				<attribute name="fused_names" version="0" value="MobilenetV2/expanded_conv_10/depthwise/Relu6"/>
			</rt_info>
			<input>
				<port id="0" precision="FP32">
					<dim>1</dim>
					<dim>384</dim>
					<dim>65</dim>
					<dim>65</dim>
				</port>
			</input>
			<output>
				<port id="1" precision="FP32" names="MobilenetV2/expanded_conv_10/depthwise/Relu6:0,MobilenetV2/expanded_conv_10/depthwise_output:0">
					<dim>1</dim>
					<dim>384</dim>
					<dim>65</dim>
					<dim>65</dim>
				</port>
			</output>
		</layer>
		<layer id="229" name="MobilenetV2/expanded_conv_10/project/BatchNorm/FusedBatchNorm/mean/Fused_Mul__copy_compressed" type="Const" version="opset1">
			<data element_type="f16" shape="96, 384, 1, 1" offset="526948" size="73728"/>
			<output>
				<port id="0" precision="FP16">
					<dim>96</dim>
					<dim>384</dim>
					<dim>1</dim>
					<dim>1</dim>
				</port>
			</output>
		</layer>
		<layer id="230" name="MobilenetV2/expanded_conv_10/project/BatchNorm/FusedBatchNorm/mean/Fused_Mul__copy" type="Convert" version="opset1">
			<data destination_type="f32"/>
			<rt_info>
				<attribute name="decompression" version="0"/>
				<attribute name="fused_names" version="0" value="MobilenetV2/expanded_conv_10/project/BatchNorm/FusedBatchNorm/mean/Fused_Mul__copy"/>
			</rt_info>
			<input>
				<port id="0" precision="FP16">
					<dim>96</dim>
					<dim>384</dim>
					<dim>1</dim>
					<dim>1</dim>
				</port>
			</input>
			<output>
				<port id="1" precision="FP32" names="MobilenetV2/expanded_conv_10/project/weights/read:0">
					<dim>96</dim>
					<dim>384</dim>
					<dim>1</dim>
					<dim>1</dim>
				</port>
			</output>
		</layer>
		<layer id="231" name="MobilenetV2/expanded_conv_10/project/Conv2D" type="Convolution" version="opset1">
			<data strides="1, 1" dilations="1, 1" pads_begin="0, 0" pads_end="0, 0" auto_pad="same_upper"/>
			<rt_info>
				<attribute name="fused_names" version="0" value="MobilenetV2/expanded_conv_10/project/Conv2D"/>
			</rt_info>
			<input>
				<port id="0" precision="FP32">
					<dim>1</dim>
					<dim>384</dim>
					<dim>65</dim>
					<dim>65</dim>
				</port>
				<port id="1" precision="FP32">
					<dim>96</dim>
					<dim>384</dim>
					<dim>1</dim>
					<dim>1</dim>
				</port>
			</input>
			<output>
				<port id="2" precision="FP32">
					<dim>1</dim>
					<dim>96</dim>
					<dim>65</dim>
					<dim>65</dim>
				</port>
			</output>
		</layer>
		<layer id="232" name="data_add_1541915424_compressed" type="Const" version="opset1">
			<data element_type="f16" shape="1, 96, 1, 1" offset="600676" size="192"/>
			<output>
				<port id="0" precision="FP16">
					<dim>1</dim>
					<dim>96</dim>
					<dim>1</dim>
					<dim>1</dim>
				</port>
			</output>
		</layer>
		<layer id="233" name="data_add_1541915424" type="Convert" version="opset1">
			<data destination_type="f32"/>
			<rt_info>
				<attribute name="decompression" version="0"/>
				<attribute name="fused_names" version="0" value="data_add_1541915424"/>
			</rt_info>
			<input>
				<port id="0" precision="FP16">
					<dim>1</dim>
					<dim>96</dim>
					<dim>1</dim>
					<dim>1</dim>
				</port>
			</input>
			<output>
				<port id="1" precision="FP32">
					<dim>1</dim>
					<dim>96</dim>
					<dim>1</dim>
					<dim>1</dim>
				</port>
			</output>
		</layer>
		<layer id="234" name="MobilenetV2/expanded_conv_10/project/BatchNorm/FusedBatchNorm/variance/Fused_Add_" type="Add" version="opset1">
			<data auto_broadcast="numpy"/>
			<rt_info>
				<attribute name="fused_names" version="0" value="MobilenetV2/expanded_conv_10/project/BatchNorm/FusedBatchNorm/variance/Fused_Add_"/>
			</rt_info>
			<input>
				<port id="0" precision="FP32">
					<dim>1</dim>
					<dim>96</dim>
					<dim>65</dim>
					<dim>65</dim>
				</port>
				<port id="1" precision="FP32">
					<dim>1</dim>
					<dim>96</dim>
					<dim>1</dim>
					<dim>1</dim>
				</port>
			</input>
			<output>
				<port id="2" precision="FP32" names="MobilenetV2/expanded_conv_10/output:0,MobilenetV2/expanded_conv_10/project/BatchNorm/FusedBatchNorm:0,MobilenetV2/expanded_conv_10/project/Identity:0,MobilenetV2/expanded_conv_11/input:0">
					<dim>1</dim>
					<dim>96</dim>
					<dim>65</dim>
					<dim>65</dim>
				</port>
			</output>
		</layer>
		<layer id="235" name="MobilenetV2/expanded_conv_11/expand/BatchNorm/FusedBatchNorm/mean/Fused_Mul__copy_compressed" type="Const" version="opset1">
			<data element_type="f16" shape="576, 96, 1, 1" offset="600868" size="110592"/>
			<output>
				<port id="0" precision="FP16">
					<dim>576</dim>
					<dim>96</dim>
					<dim>1</dim>
					<dim>1</dim>
				</port>
			</output>
		</layer>
		<layer id="236" name="MobilenetV2/expanded_conv_11/expand/BatchNorm/FusedBatchNorm/mean/Fused_Mul__copy" type="Convert" version="opset1">
			<data destination_type="f32"/>
			<rt_info>
				<attribute name="decompression" version="0"/>
				<attribute name="fused_names" version="0" value="MobilenetV2/expanded_conv_11/expand/BatchNorm/FusedBatchNorm/mean/Fused_Mul__copy"/>
			</rt_info>
			<input>
				<port id="0" precision="FP16">
					<dim>576</dim>
					<dim>96</dim>
					<dim>1</dim>
					<dim>1</dim>
				</port>
			</input>
			<output>
				<port id="1" precision="FP32" names="MobilenetV2/expanded_conv_11/expand/weights/read:0">
					<dim>576</dim>
					<dim>96</dim>
					<dim>1</dim>
					<dim>1</dim>
				</port>
			</output>
		</layer>
		<layer id="237" name="MobilenetV2/expanded_conv_11/expand/Conv2D" type="Convolution" version="opset1">
			<data strides="1, 1" dilations="1, 1" pads_begin="0, 0" pads_end="0, 0" auto_pad="same_upper"/>
			<rt_info>
				<attribute name="fused_names" version="0" value="MobilenetV2/expanded_conv_11/expand/Conv2D"/>
			</rt_info>
			<input>
				<port id="0" precision="FP32">
					<dim>1</dim>
					<dim>96</dim>
					<dim>65</dim>
					<dim>65</dim>
				</port>
				<port id="1" precision="FP32">
					<dim>576</dim>
					<dim>96</dim>
					<dim>1</dim>
					<dim>1</dim>
				</port>
			</input>
			<output>
				<port id="2" precision="FP32">
					<dim>1</dim>
					<dim>576</dim>
					<dim>65</dim>
					<dim>65</dim>
				</port>
			</output>
		</layer>
		<layer id="238" name="data_add_1542715432_compressed" type="Const" version="opset1">
			<data element_type="f16" shape="1, 576, 1, 1" offset="711460" size="1152"/>
			<output>
				<port id="0" precision="FP16">
					<dim>1</dim>
					<dim>576</dim>
					<dim>1</dim>
					<dim>1</dim>
				</port>
			</output>
		</layer>
		<layer id="239" name="data_add_1542715432" type="Convert" version="opset1">
			<data destination_type="f32"/>
			<rt_info>
				<attribute name="decompression" version="0"/>
				<attribute name="fused_names" version="0" value="data_add_1542715432"/>
			</rt_info>
			<input>
				<port id="0" precision="FP16">
					<dim>1</dim>
					<dim>576</dim>
					<dim>1</dim>
					<dim>1</dim>
				</port>
			</input>
			<output>
				<port id="1" precision="FP32">
					<dim>1</dim>
					<dim>576</dim>
					<dim>1</dim>
					<dim>1</dim>
				</port>
			</output>
		</layer>
		<layer id="240" name="MobilenetV2/expanded_conv_11/expand/BatchNorm/FusedBatchNorm/variance/Fused_Add_" type="Add" version="opset1">
			<data auto_broadcast="numpy"/>
			<rt_info>
				<attribute name="fused_names" version="0" value="MobilenetV2/expanded_conv_11/expand/BatchNorm/FusedBatchNorm/variance/Fused_Add_"/>
			</rt_info>
			<input>
				<port id="0" precision="FP32">
					<dim>1</dim>
					<dim>576</dim>
					<dim>65</dim>
					<dim>65</dim>
				</port>
				<port id="1" precision="FP32">
					<dim>1</dim>
					<dim>576</dim>
					<dim>1</dim>
					<dim>1</dim>
				</port>
			</input>
			<output>
				<port id="2" precision="FP32" names="MobilenetV2/expanded_conv_11/expand/BatchNorm/FusedBatchNorm:0">
					<dim>1</dim>
					<dim>576</dim>
					<dim>65</dim>
					<dim>65</dim>
				</port>
			</output>
		</layer>
		<layer id="241" name="MobilenetV2/expanded_conv_11/expand/Relu6" type="Clamp" version="opset1">
			<data min="0" max="6"/>
			<rt_info>
				<attribute name="fused_names" version="0" value="MobilenetV2/expanded_conv_11/expand/Relu6"/>
			</rt_info>
			<input>
				<port id="0" precision="FP32">
					<dim>1</dim>
					<dim>576</dim>
					<dim>65</dim>
					<dim>65</dim>
				</port>
			</input>
			<output>
				<port id="1" precision="FP32" names="MobilenetV2/expanded_conv_11/expand/Relu6:0,MobilenetV2/expanded_conv_11/expansion_output:0">
					<dim>1</dim>
					<dim>576</dim>
					<dim>65</dim>
					<dim>65</dim>
				</port>
			</output>
		</layer>
		<layer id="242" name="MobilenetV2/expanded_conv_11/depthwise/BatchNorm/FusedBatchNorm/mean/Fused_Mul__copy_compressed" type="Const" version="opset1">
			<data element_type="f16" shape="576, 1, 1, 3, 3" offset="712612" size="10368"/>
			<output>
				<port id="0" precision="FP16">
					<dim>576</dim>
					<dim>1</dim>
					<dim>1</dim>
					<dim>3</dim>
					<dim>3</dim>
				</port>
			</output>
		</layer>
		<layer id="243" name="MobilenetV2/expanded_conv_11/depthwise/BatchNorm/FusedBatchNorm/mean/Fused_Mul__copy" type="Convert" version="opset1">
			<data destination_type="f32"/>
			<rt_info>
				<attribute name="decompression" version="0"/>
				<attribute name="fused_names" version="0" value="MobilenetV2/expanded_conv_11/depthwise/BatchNorm/FusedBatchNorm/mean/Fused_Mul__copy"/>
			</rt_info>
			<input>
				<port id="0" precision="FP16">
					<dim>576</dim>
					<dim>1</dim>
					<dim>1</dim>
					<dim>3</dim>
					<dim>3</dim>
				</port>
			</input>
			<output>
				<port id="1" precision="FP32" names="MobilenetV2/expanded_conv_11/depthwise/depthwise_weights/read:0">
					<dim>576</dim>
					<dim>1</dim>
					<dim>1</dim>
					<dim>3</dim>
					<dim>3</dim>
				</port>
			</output>
…
		<layer id="402" name="logits/semantic/biases/read_compressed" type="Const" version="opset1">
			<data element_type="f16" shape="1, 21, 1, 1" offset="4194092" size="42"/>
			<output>
				<port id="0" precision="FP16">
					<dim>1</dim>
					<dim>21</dim>
					<dim>1</dim>
					<dim>1</dim>
				</port>
			</output>
		</layer>
		<layer id="403" name="logits/semantic/biases/read" type="Convert" version="opset1">
			<data destination_type="f32"/>
			<rt_info>
				<attribute name="decompression" version="0"/>
				<attribute name="fused_names" version="0" value="logits/semantic/biases/read"/>
			</rt_info>
			<input>
				<port id="0" precision="FP16">
					<dim>1</dim>
					<dim>21</dim>
					<dim>1</dim>
					<dim>1</dim>
				</port>
			</input>
			<output>
				<port id="1" precision="FP32" names="logits/semantic/biases/read:0">
					<dim>1</dim>
					<dim>21</dim>
					<dim>1</dim>
					<dim>1</dim>
				</port>
			</output>
		</layer>
		<layer id="404" name="logits/semantic/BiasAdd/Add" type="Add" version="opset1">
			<data auto_broadcast="numpy"/>
			<rt_info>
				<attribute name="fused_names" version="0" value="logits/semantic/BiasAdd/Add"/>
			</rt_info>
			<input>
				<port id="0" precision="FP32">
					<dim>1</dim>
					<dim>21</dim>
					<dim>65</dim>
					<dim>65</dim>
				</port>
				<port id="1" precision="FP32">
					<dim>1</dim>
					<dim>21</dim>
					<dim>1</dim>
					<dim>1</dim>
				</port>
			</input>
			<output>
				<port id="2" precision="FP32" names="logits/semantic/BiasAdd:0">
					<dim>1</dim>
					<dim>21</dim>
					<dim>65</dim>
					<dim>65</dim>
				</port>
			</output>
		</layer>
		<layer id="405" name="ResizeBilinear_2/size" type="Const" version="opset1">
			<data element_type="i64" shape="2" offset="4194134" size="16"/>
			<rt_info>
				<attribute name="fused_names" version="0" value="ResizeBilinear_2/size"/>
			</rt_info>
			<output>
				<port id="0" precision="I64" names="ResizeBilinear_2/size:0">
					<dim>2</dim>
				</port>
			</output>
		</layer>
		<layer id="406" name="1001" type="Const" version="opset1">
			<data element_type="f32" shape="2" offset="3920628" size="8"/>
			<rt_info>
				<attribute name="fused_names" version="0" value="1001"/>
			</rt_info>
			<output>
				<port id="0" precision="FP32">
					<dim>2</dim>
				</port>
			</output>
		</layer>
		<layer id="407" name="ResizeBilinear_2/shapeof" type="ShapeOf" version="opset3">
			<data output_type="i64"/>
			<rt_info>
				<attribute name="fused_names" version="0" value="ResizeBilinear_2/shapeof"/>
			</rt_info>
			<input>
				<port id="0" precision="FP32">
					<dim>1</dim>
					<dim>21</dim>
					<dim>65</dim>
					<dim>65</dim>
				</port>
			</input>
			<output>
				<port id="1" precision="I64">
					<dim>4</dim>
				</port>
			</output>
		</layer>
		<layer id="408" name="ResizeBilinear_2/shapeof/GatherNCHWtoNHWC_input_port_1/value1903524590" type="Const" version="opset1">
			<data element_type="i32" shape="4" offset="3920636" size="16"/>
			<rt_info>
				<attribute name="fused_names" version="0" value="ResizeBilinear_2/shapeof/GatherNCHWtoNHWC_input_port_1/value1903524590"/>
			</rt_info>
			<output>
				<port id="0" precision="I32">
					<dim>4</dim>
				</port>
			</output>
		</layer>
		<layer id="409" name="ResizeBilinear_2/shapeof/GatherNCHWtoNHWC_input_port_2/value1903724602" type="Const" version="opset1">
			<data element_type="i64" shape="" offset="3920620" size="8"/>
			<rt_info>
				<attribute name="fused_names" version="0" value="ResizeBilinear_2/shapeof/GatherNCHWtoNHWC_input_port_2/value1903724602"/>
			</rt_info>
			<output>
				<port id="0" precision="I64"/>
			</output>
		</layer>
		<layer id="410" name="ResizeBilinear_2/shapeof/GatherNCHWtoNHWC" type="Gather" version="opset8">
			<data batch_dims="0"/>
			<rt_info>
				<attribute name="fused_names" version="0" value="ResizeBilinear_2/shapeof/GatherNCHWtoNHWC"/>
			</rt_info>
			<input>
				<port id="0" precision="I64">
					<dim>4</dim>
				</port>
				<port id="1" precision="I32">
					<dim>4</dim>
				</port>
				<port id="2" precision="I64"/>
			</input>
			<output>
				<port id="3" precision="I64">
					<dim>4</dim>
				</port>
			</output>
		</layer>
		<layer id="411" name="ResizeBilinear_2/StridedSlice_input_port_1/value" type="Const" version="opset1">
			<data element_type="i64" shape="1" offset="3920652" size="8"/>
			<rt_info>
				<attribute name="fused_names" version="0" value="ResizeBilinear_2/StridedSlice_input_port_1/value"/>
			</rt_info>
			<output>
				<port id="0" precision="I64">
					<dim>1</dim>
				</port>
			</output>
		</layer>
		<layer id="412" name="ResizeBilinear_2/StridedSlice_input_port_2/value" type="Const" version="opset1">
			<data element_type="i64" shape="1" offset="3920660" size="8"/>
			<rt_info>
				<attribute name="fused_names" version="0" value="ResizeBilinear_2/StridedSlice_input_port_2/value"/>
			</rt_info>
			<output>
				<port id="0" precision="I64">
					<dim>1</dim>
				</port>
			</output>
		</layer>
		<layer id="413" name="ResizeBilinear_2/StridedSlice_input_port_3/value" type="Const" version="opset1">
			<data element_type="i64" shape="1" offset="3920652" size="8"/>
			<rt_info>
				<attribute name="fused_names" version="0" value="ResizeBilinear_2/StridedSlice_input_port_3/value"/>
			</rt_info>
			<output>
				<port id="0" precision="I64">
					<dim>1</dim>
				</port>
			</output>
		</layer>
		<layer id="414" name="ResizeBilinear_2/StridedSlice" type="StridedSlice" version="opset1">
			<data begin_mask="0" end_mask="0" new_axis_mask="0" shrink_axis_mask="0" ellipsis_mask="0"/>
			<rt_info>
				<attribute name="fused_names" version="0" value="ResizeBilinear_2/StridedSlice"/>
			</rt_info>
			<input>
				<port id="0" precision="I64">
					<dim>4</dim>
				</port>
				<port id="1" precision="I64">
					<dim>1</dim>
				</port>
				<port id="2" precision="I64">
					<dim>1</dim>
				</port>
				<port id="3" precision="I64">
					<dim>1</dim>
				</port>
			</input>
			<output>
				<port id="4" precision="I64">
					<dim>2</dim>
				</port>
			</output>
		</layer>
		<layer id="415" name="1000" type="Convert" version="opset1">
			<data destination_type="f32"/>
			<rt_info>
				<attribute name="fused_names" version="0" value="1000"/>
			</rt_info>
			<input>
				<port id="0" precision="I64">
					<dim>2</dim>
				</port>
			</input>
			<output>
				<port id="1" precision="FP32">
					<dim>2</dim>
				</port>
			</output>
		</layer>
		<layer id="416" name="ResizeBilinear_2/Div" type="Divide" version="opset1">
			<data auto_broadcast="numpy" m_pythondiv="true"/>
			<rt_info>
				<attribute name="fused_names" version="0" value="ResizeBilinear_2/Div"/>
			</rt_info>
			<input>
				<port id="0" precision="FP32">
					<dim>2</dim>
				</port>
				<port id="1" precision="FP32">
					<dim>2</dim>
				</port>
			</input>
			<output>
				<port id="2" precision="FP32">
					<dim>2</dim>
				</port>
			</output>
		</layer>
		<layer id="417" name="1948724413" type="Const" version="opset1">
			<data element_type="i64" shape="2" offset="3920668" size="16"/>
			<rt_info>
				<attribute name="fused_names" version="0" value="1948724413"/>
			</rt_info>
			<output>
				<port id="0" precision="I64">
					<dim>2</dim>
				</port>
			</output>
		</layer>
		<layer id="418" name="ResizeBilinear_2" type="Interpolate" version="opset4">
			<data mode="linear_onnx" shape_calculation_mode="sizes" coordinate_transformation_mode="align_corners" nearest_mode="round_prefer_floor" antialias="false" pads_begin="0, 0, 0, 0" pads_end="0, 0, 0, 0" cube_coeff="-0.75"/>
			<rt_info>
				<attribute name="fused_names" version="0" value="ResizeBilinear_2"/>
			</rt_info>
			<input>
				<port id="0" precision="FP32">
					<dim>1</dim>
					<dim>21</dim>
					<dim>65</dim>
					<dim>65</dim>
				</port>
				<port id="1" precision="I64">
					<dim>2</dim>
				</port>
				<port id="2" precision="FP32">
					<dim>2</dim>
				</port>
				<port id="3" precision="I64">
					<dim>2</dim>
				</port>
			</input>
			<output>
				<port id="4" precision="FP32" names="ResizeBilinear_2:0">
					<dim>1</dim>
					<dim>21</dim>
					<dim>65</dim>
					<dim>65</dim>
				</port>
			</output>
		</layer>
		<layer id="419" name="strided_slice_7" type="Const" version="opset1">
			<data element_type="i64" shape="2" offset="4194150" size="16"/>
			<rt_info>
				<attribute name="fused_names" version="0" value="strided_slice_7"/>
			</rt_info>
			<output>
				<port id="0" precision="I64" names="strided_slice_7:0">
					<dim>2</dim>
				</port>
			</output>
		</layer>
		<layer id="420" name="991" type="Const" version="opset1">
			<data element_type="f32" shape="2" offset="4194166" size="8"/>
			<rt_info>
				<attribute name="fused_names" version="0" value="991"/>
			</rt_info>
			<output>
				<port id="0" precision="FP32">
					<dim>2</dim>
				</port>
			</output>
		</layer>
		<layer id="421" name="ResizeBilinear_3/shapeof" type="ShapeOf" version="opset3">
			<data output_type="i64"/>
			<rt_info>
				<attribute name="fused_names" version="0" value="ResizeBilinear_3/shapeof"/>
			</rt_info>
			<input>
				<port id="0" precision="FP32">
					<dim>1</dim>
					<dim>21</dim>
					<dim>65</dim>
					<dim>65</dim>
				</port>
			</input>
			<output>
				<port id="1" precision="I64">
					<dim>4</dim>
				</port>
			</output>
		</layer>
		<layer id="422" name="ResizeBilinear_3/shapeof/GatherNCHWtoNHWC_input_port_1/value1902924725" type="Const" version="opset1">
			<data element_type="i32" shape="4" offset="3920636" size="16"/>
			<rt_info>
				<attribute name="fused_names" version="0" value="ResizeBilinear_3/shapeof/GatherNCHWtoNHWC_input_port_1/value1902924725"/>
			</rt_info>
			<output>
				<port id="0" precision="I32">
					<dim>4</dim>
				</port>
			</output>
		</layer>
		<layer id="423" name="ResizeBilinear_3/shapeof/GatherNCHWtoNHWC_input_port_2/value1903124473" type="Const" version="opset1">
			<data element_type="i64" shape="" offset="3920620" size="8"/>
			<rt_info>
				<attribute name="fused_names" version="0" value="ResizeBilinear_3/shapeof/GatherNCHWtoNHWC_input_port_2/value1903124473"/>
			</rt_info>
			<output>
				<port id="0" precision="I64"/>
			</output>
		</layer>
		<layer id="424" name="ResizeBilinear_3/shapeof/GatherNCHWtoNHWC" type="Gather" version="opset8">
			<data batch_dims="0"/>
			<rt_info>
				<attribute name="fused_names" version="0" value="ResizeBilinear_3/shapeof/GatherNCHWtoNHWC"/>
			</rt_info>
			<input>
				<port id="0" precision="I64">
					<dim>4</dim>
				</port>
				<port id="1" precision="I32">
					<dim>4</dim>
				</port>
				<port id="2" precision="I64"/>
			</input>
			<output>
				<port id="3" precision="I64">
					<dim>4</dim>
				</port>
			</output>
		</layer>
		<layer id="425" name="ResizeBilinear_3/StridedSlice_input_port_1/value" type="Const" version="opset1">
			<data element_type="i64" shape="1" offset="3920652" size="8"/>
			<rt_info>
				<attribute name="fused_names" version="0" value="ResizeBilinear_3/StridedSlice_input_port_1/value"/>
			</rt_info>
			<output>
				<port id="0" precision="I64">
					<dim>1</dim>
				</port>
			</output>
		</layer>
		<layer id="426" name="ResizeBilinear_3/StridedSlice_input_port_2/value" type="Const" version="opset1">
			<data element_type="i64" shape="1" offset="3920660" size="8"/>
			<rt_info>
				<attribute name="fused_names" version="0" value="ResizeBilinear_3/StridedSlice_input_port_2/value"/>
			</rt_info>
			<output>
				<port id="0" precision="I64">
					<dim>1</dim>
				</port>
			</output>
		</layer>
		<layer id="427" name="ResizeBilinear_3/StridedSlice_input_port_3/value" type="Const" version="opset1">
			<data element_type="i64" shape="1" offset="3920652" size="8"/>
			<rt_info>
				<attribute name="fused_names" version="0" value="ResizeBilinear_3/StridedSlice_input_port_3/value"/>
			</rt_info>
			<output>
				<port id="0" precision="I64">
					<dim>1</dim>
				</port>
			</output>
		</layer>
		<layer id="428" name="ResizeBilinear_3/StridedSlice" type="StridedSlice" version="opset1">
			<data begin_mask="0" end_mask="0" new_axis_mask="0" shrink_axis_mask="0" ellipsis_mask="0"/>
			<rt_info>
				<attribute name="fused_names" version="0" value="ResizeBilinear_3/StridedSlice"/>
			</rt_info>
			<input>
				<port id="0" precision="I64">
					<dim>4</dim>
				</port>
				<port id="1" precision="I64">
					<dim>1</dim>
				</port>
				<port id="2" precision="I64">
					<dim>1</dim>
				</port>
				<port id="3" precision="I64">
					<dim>1</dim>
				</port>
			</input>
			<output>
				<port id="4" precision="I64">
					<dim>2</dim>
				</port>
			</output>
		</layer>
		<layer id="429" name="990" type="Convert" version="opset1">
			<data destination_type="f32"/>
			<rt_info>
				<attribute name="fused_names" version="0" value="990"/>
			</rt_info>
			<input>
				<port id="0" precision="I64">
					<dim>2</dim>
				</port>
			</input>
			<output>
				<port id="1" precision="FP32">
					<dim>2</dim>
				</port>
			</output>
		</layer>
		<layer id="430" name="ResizeBilinear_3/Div" type="Divide" version="opset1">
			<data auto_broadcast="numpy" m_pythondiv="true"/>
			<rt_info>
				<attribute name="fused_names" version="0" value="ResizeBilinear_3/Div"/>
			</rt_info>
			<input>
				<port id="0" precision="FP32">
					<dim>2</dim>
				</port>
				<port id="1" precision="FP32">
					<dim>2</dim>
				</port>
			</input>
			<output>
				<port id="2" precision="FP32">
					<dim>2</dim>
				</port>
			</output>
		</layer>
		<layer id="431" name="1948124605" type="Const" version="opset1">
			<data element_type="i64" shape="2" offset="3920668" size="16"/>
			<rt_info>
				<attribute name="fused_names" version="0" value="1948124605"/>
			</rt_info>
			<output>
				<port id="0" precision="I64">
					<dim>2</dim>
				</port>
			</output>
		</layer>
		<layer id="432" name="ResizeBilinear_3" type="Interpolate" version="opset4">
			<data mode="linear_onnx" shape_calculation_mode="sizes" coordinate_transformation_mode="align_corners" nearest_mode="round_prefer_floor" antialias="false" pads_begin="0, 0, 0, 0" pads_end="0, 0, 0, 0" cube_coeff="-0.75"/>
			<rt_info>
				<attribute name="fused_names" version="0" value="ResizeBilinear_3"/>
			</rt_info>
			<input>
				<port id="0" precision="FP32">
					<dim>1</dim>
					<dim>21</dim>
					<dim>65</dim>
					<dim>65</dim>
				</port>
				<port id="1" precision="I64">
					<dim>2</dim>
				</port>
				<port id="2" precision="FP32">
					<dim>2</dim>
				</port>
				<port id="3" precision="I64">
					<dim>2</dim>
				</port>
			</input>
			<output>
				<port id="4" precision="FP32" names="ResizeBilinear_3:0">
					<dim>1</dim>
					<dim>21</dim>
					<dim>513</dim>
					<dim>513</dim>
				</port>
			</output>
		</layer>
		<layer id="433" name="ArgMax/TopK12697" type="Const" version="opset1">
			<data element_type="i32" shape="" offset="4194174" size="4"/>
			<rt_info>
				<attribute name="fused_names" version="0" value="ArgMax/TopK12697"/>
			</rt_info>
			<output>
				<port id="0" precision="I32"/>
			</output>
		</layer>
		<layer id="434" name="12694" type="TopK" version="opset3">
			<data axis="1" mode="max" sort="index" index_element_type="i64"/>
			<rt_info>
				<attribute name="fused_names" version="0" value="12694"/>
			</rt_info>
			<input>
				<port id="0" precision="FP32">
					<dim>1</dim>
					<dim>21</dim>
					<dim>513</dim>
					<dim>513</dim>
				</port>
				<port id="1" precision="I32"/>
			</input>
			<output>
				<port id="2" precision="FP32">
					<dim>1</dim>
					<dim>1</dim>
					<dim>513</dim>
					<dim>513</dim>
				</port>
				<port id="3" precision="I64">
					<dim>1</dim>
					<dim>1</dim>
					<dim>513</dim>
					<dim>513</dim>
				</port>
			</output>
		</layer>
		<layer id="435" name="Constant_1402" type="Const" version="opset1">
			<data element_type="i64" shape="1" offset="3920652" size="8"/>
			<rt_info>
				<attribute name="fused_names" version="0" value="12694/Transpose, ArgMax/Squeeze"/>
			</rt_info>
			<output>
				<port id="0" precision="I64">
					<dim>1</dim>
				</port>
			</output>
		</layer>
		<layer id="436" name="ArgMax/Squeeze" type="Squeeze" version="opset1">
			<rt_info>
				<attribute name="fused_names" version="0" value="12694/Transpose, ArgMax/Squeeze"/>
			</rt_info>
			<input>
				<port id="0" precision="I64">
					<dim>1</dim>
					<dim>1</dim>
					<dim>513</dim>
					<dim>513</dim>
				</port>
				<port id="1" precision="I64">
					<dim>1</dim>
				</port>
			</input>
			<output>
				<port id="2" precision="I64" names="ArgMax,ArgMax:0">
					<dim>1</dim>
					<dim>513</dim>
					<dim>513</dim>
				</port>
			</output>
		</layer>
		<layer id="437" name="ArgMax" type="Result" version="opset1">
			<rt_info>
				<attribute name="fused_names" version="0" value="ArgMax"/>
			</rt_info>
			<input>
				<port id="0" precision="I64">
					<dim>1</dim>
					<dim>513</dim>
					<dim>513</dim>
				</port>
			</input>
		</layer>
	</layers>
	<edges>
		<edge from-layer="0" from-port="0" to-layer="4" to-port="0"/>
		<edge from-layer="1" from-port="0" to-layer="2" to-port="0"/>
		<edge from-layer="2" from-port="1" to-layer="5" to-port="0"/>
		<edge from-layer="3" from-port="0" to-layer="4" to-port="1"/>
		<edge from-layer="4" from-port="2" to-layer="5" to-port="1"/>
		<edge from-layer="5" from-port="2" to-layer="8" to-port="0"/>
		<edge from-layer="6" from-port="0" to-layer="7" to-port="0"/>
		<edge from-layer="7" from-port="1" to-layer="8" to-port="1"/>
		<edge from-layer="8" from-port="2" to-layer="11" to-port="0"/>
		<edge from-layer="9" from-port="0" to-layer="10" to-port="0"/>
		<edge from-layer="10" from-port="1" to-layer="11" to-port="1"/>
		<edge from-layer="11" from-port="2" to-layer="14" to-port="0"/>
		<edge from-layer="12" from-port="0" to-layer="13" to-port="0"/>
		<edge from-layer="13" from-port="1" to-layer="14" to-port="1"/>
		<edge from-layer="14" from-port="2" to-layer="15" to-port="0"/>
		<edge from-layer="15" from-port="1" to-layer="18" to-port="0"/>
		<edge from-layer="16" from-port="0" to-layer="17" to-port="0"/>
		<edge from-layer="17" from-port="1" to-layer="18" to-port="1"/>
		<edge from-layer="18" from-port="2" to-layer="21" to-port="0"/>
		<edge from-layer="19" from-port="0" to-layer="20" to-port="0"/>
		<edge from-layer="20" from-port="1" to-layer="21" to-port="1"/>
		<edge from-layer="21" from-port="2" to-layer="22" to-port="0"/>
		<edge from-layer="22" from-port="1" to-layer="25" to-port="0"/>
		<edge from-layer="23" from-port="0" to-layer="24" to-port="0"/>
		<edge from-layer="24" from-port="1" to-layer="25" to-port="1"/>
		<edge from-layer="25" from-port="2" to-layer="28" to-port="0"/>
		<edge from-layer="26" from-port="0" to-layer="27" to-port="0"/>
		<edge from-layer="27" from-port="1" to-layer="28" to-port="1"/>
		<edge from-layer="28" from-port="2" to-layer="31" to-port="0"/>
		<edge from-layer="29" from-port="0" to-layer="30" to-port="0"/>
		<edge from-layer="30" from-port="1" to-layer="31" to-port="1"/>
		<edge from-layer="31" from-port="2" to-layer="34" to-port="0"/>
		<edge from-layer="32" from-port="0" to-layer="33" to-port="0"/>
		<edge from-layer="33" from-port="1" to-layer="34" to-port="1"/>
		<edge from-layer="34" from-port="2" to-layer="35" to-port="0"/>
		<edge from-layer="35" from-port="1" to-layer="38" to-port="0"/>
		<edge from-layer="36" from-port="0" to-layer="37" to-port="0"/>
		<edge from-layer="37" from-port="1" to-layer="38" to-port="1"/>
		<edge from-layer="38" from-port="2" to-layer="41" to-port="0"/>
		<edge from-layer="39" from-port="0" to-layer="40" to-port="0"/>
		<edge from-layer="40" from-port="1" to-layer="41" to-port="1"/>
		<edge from-layer="41" from-port="2" to-layer="42" to-port="0"/>
		<edge from-layer="42" from-port="1" to-layer="45" to-port="0"/>
		<edge from-layer="43" from-port="0" to-layer="44" to-port="0"/>
		<edge from-layer="44" from-port="1" to-layer="45" to-port="1"/>
		<edge from-layer="45" from-port="2" to-layer="48" to-port="0"/>
		<edge from-layer="46" from-port="0" to-layer="47" to-port="0"/>
		<edge from-layer="47" from-port="1" to-layer="48" to-port="1"/>
		<edge from-layer="48" from-port="2" to-layer="51" to-port="0"/>
		<edge from-layer="48" from-port="2" to-layer="69" to-port="0"/>
		<edge from-layer="49" from-port="0" to-layer="50" to-port="0"/>
		<edge from-layer="50" from-port="1" to-layer="51" to-port="1"/>
		<edge from-layer="51" from-port="2" to-layer="54" to-port="0"/>
		<edge from-layer="52" from-port="0" to-layer="53" to-port="0"/>
		<edge from-layer="53" from-port="1" to-layer="54" to-port="1"/>
		<edge from-layer="54" from-port="2" to-layer="55" to-port="0"/>
		<edge from-layer="55" from-port="1" to-layer="58" to-port="0"/>
		<edge from-layer="56" from-port="0" to-layer="57" to-port="0"/>
		<edge from-layer="57" from-port="1" to-layer="58" to-port="1"/>
		<edge from-layer="58" from-port="2" to-layer="61" to-port="0"/>
		<edge from-layer="59" from-port="0" to-layer="60" to-port="0"/>
		<edge from-layer="60" from-port="1" to-layer="61" to-port="1"/>
		<edge from-layer="61" from-port="2" to-layer="62" to-port="0"/>
		<edge from-layer="62" from-port="1" to-layer="65" to-port="0"/>
		<edge from-layer="63" from-port="0" to-layer="64" to-port="0"/>
		<edge from-layer="64" from-port="1" to-layer="65" to-port="1"/>
		<edge from-layer="65" from-port="2" to-layer="68" to-port="0"/>
		<edge from-layer="66" from-port="0" to-layer="67" to-port="0"/>
		<edge from-layer="67" from-port="1" to-layer="68" to-port="1"/>
		<edge from-layer="68" from-port="2" to-layer="69" to-port="1"/>
		<edge from-layer="69" from-port="2" to-layer="72" to-port="0"/>
		<edge from-layer="70" from-port="0" to-layer="71" to-port="0"/>
		<edge from-layer="71" from-port="1" to-layer="72" to-port="1"/>
		<edge from-layer="72" from-port="2" to-layer="75" to-port="0"/>
		<edge from-layer="73" from-port="0" to-layer="74" to-port="0"/>
		<edge from-layer="74" from-port="1" to-layer="75" to-port="1"/>
		<edge from-layer="75" from-port="2" to-layer="76" to-port="0"/>
		<edge from-layer="76" from-port="1" to-layer="79" to-port="0"/>
		<edge from-layer="77" from-port="0" to-layer="78" to-port="0"/>
		<edge from-layer="78" from-port="1" to-layer="79" to-port="1"/>
		<edge from-layer="79" from-port="2" to-layer="82" to-port="0"/>
		<edge from-layer="80" from-port="0" to-layer="81" to-port="0"/>
		<edge from-layer="81" from-port="1" to-layer="82" to-port="1"/>
		<edge from-layer="82" from-port="2" to-layer="83" to-port="0"/>
		<edge from-layer="83" from-port="1" to-layer="86" to-port="0"/>
		<edge from-layer="84" from-port="0" to-layer="85" to-port="0"/>
		<edge from-layer="85" from-port="1" to-layer="86" to-port="1"/>
		<edge from-layer="86" from-port="2" to-layer="89" to-port="0"/>
		<edge from-layer="87" from-port="0" to-layer="88" to-port="0"/>
		<edge from-layer="88" from-port="1" to-layer="89" to-port="1"/>
		<edge from-layer="89" from-port="2" to-layer="92" to-port="0"/>
		<edge from-layer="89" from-port="2" to-layer="110" to-port="0"/>
		<edge from-layer="90" from-port="0" to-layer="91" to-port="0"/>
		<edge from-layer="91" from-port="1" to-layer="92" to-port="1"/>
		<edge from-layer="92" from-port="2" to-layer="95" to-port="0"/>
		<edge from-layer="93" from-port="0" to-layer="94" to-port="0"/>
		<edge from-layer="94" from-port="1" to-layer="95" to-port="1"/>
		<edge from-layer="95" from-port="2" to-layer="96" to-port="0"/>
		<edge from-layer="96" from-port="1" to-layer="99" to-port="0"/>
		<edge from-layer="97" from-port="0" to-layer="98" to-port="0"/>
		<edge from-layer="98" from-port="1" to-layer="99" to-port="1"/>
		<edge from-layer="99" from-port="2" to-layer="102" to-port="0"/>
		<edge from-layer="100" from-port="0" to-layer="101" to-port="0"/>
		<edge from-layer="101" from-port="1" to-layer="102" to-port="1"/>
		<edge from-layer="102" from-port="2" to-layer="103" to-port="0"/>
		<edge from-layer="103" from-port="1" to-layer="106" to-port="0"/>
		<edge from-layer="104" from-port="0" to-layer="105" to-port="0"/>
		<edge from-layer="105" from-port="1" to-layer="106" to-port="1"/>
		<edge from-layer="106" from-port="2" to-layer="109" to-port="0"/>
		<edge from-layer="107" from-port="0" to-layer="108" to-port="0"/>
		<edge from-layer="108" from-port="1" to-layer="109" to-port="1"/>
		<edge from-layer="109" from-port="2" to-layer="110" to-port="1"/>
		<edge from-layer="110" from-port="2" to-layer="113" to-port="0"/>
		<edge from-layer="110" from-port="2" to-layer="131" to-port="0"/>
		<edge from-layer="111" from-port="0" to-layer="112" to-port="0"/>
		<edge from-layer="112" from-port="1" to-layer="113" to-port="1"/>
		<edge from-layer="113" from-port="2" to-layer="116" to-port="0"/>
		<edge from-layer="114" from-port="0" to-layer="115" to-port="0"/>
		<edge from-layer="115" from-port="1" to-layer="116" to-port="1"/>
		<edge from-layer="116" from-port="2" to-layer="117" to-port="0"/>
		<edge from-layer="117" from-port="1" to-layer="120" to-port="0"/>
		<edge from-layer="118" from-port="0" to-layer="119" to-port="0"/>
		<edge from-layer="119" from-port="1" to-layer="120" to-port="1"/>
		<edge from-layer="120" from-port="2" to-layer="123" to-port="0"/>
		<edge from-layer="121" from-port="0" to-layer="122" to-port="0"/>
		<edge from-layer="122" from-port="1" to-layer="123" to-port="1"/>
		<edge from-layer="123" from-port="2" to-layer="124" to-port="0"/>
		<edge from-layer="124" from-port="1" to-layer="127" to-port="0"/>
		<edge from-layer="125" from-port="0" to-layer="126" to-port="0"/>
		<edge from-layer="126" from-port="1" to-layer="127" to-port="1"/>
		<edge from-layer="127" from-port="2" to-layer="130" to-port="0"/>
		<edge from-layer="128" from-port="0" to-layer="129" to-port="0"/>
		<edge from-layer="129" from-port="1" to-layer="130" to-port="1"/>
		<edge from-layer="130" from-port="2" to-layer="131" to-port="1"/>
		<edge from-layer="131" from-port="2" to-layer="134" to-port="0"/>
		<edge from-layer="132" from-port="0" to-layer="133" to-port="0"/>
		<edge from-layer="133" from-port="1" to-layer="134" to-port="1"/>
		<edge from-layer="134" from-port="2" to-layer="137" to-port="0"/>
		<edge from-layer="135" from-port="0" to-layer="136" to-port="0"/>
		<edge from-layer="136" from-port="1" to-layer="137" to-port="1"/>
		<edge from-layer="137" from-port="2" to-layer="138" to-port="0"/>
		<edge from-layer="138" from-port="1" to-layer="141" to-port="0"/>
		<edge from-layer="139" from-port="0" to-layer="140" to-port="0"/>
		<edge from-layer="140" from-port="1" to-layer="141" to-port="1"/>
		<edge from-layer="141" from-port="2" to-layer="144" to-port="0"/>
		<edge from-layer="142" from-port="0" to-layer="143" to-port="0"/>
		<edge from-layer="143" from-port="1" to-layer="144" to-port="1"/>
		<edge from-layer="144" from-port="2" to-layer="145" to-port="0"/>
		<edge from-layer="145" from-port="1" to-layer="148" to-port="0"/>
		<edge from-layer="146" from-port="0" to-layer="147" to-port="0"/>
		<edge from-layer="147" from-port="1" to-layer="148" to-port="1"/>
		<edge from-layer="148" from-port="2" to-layer="151" to-port="0"/>
		<edge from-layer="149" from-port="0" to-layer="150" to-port="0"/>
		<edge from-layer="150" from-port="1" to-layer="151" to-port="1"/>
		<edge from-layer="151" from-port="2" to-layer="172" to-port="0"/>
		<edge from-layer="151" from-port="2" to-layer="154" to-port="0"/>
		<edge from-layer="152" from-port="0" to-layer="153" to-port="0"/>
		<edge from-layer="153" from-port="1" to-layer="154" to-port="1"/>
		<edge from-layer="154" from-port="2" to-layer="157" to-port="0"/>
		<edge from-layer="155" from-port="0" to-layer="156" to-port="0"/>
		<edge from-layer="156" from-port="1" to-layer="157" to-port="1"/>
		<edge from-layer="157" from-port="2" to-layer="158" to-port="0"/>
		<edge from-layer="158" from-port="1" to-layer="161" to-port="0"/>
		<edge from-layer="159" from-port="0" to-layer="160" to-port="0"/>
		<edge from-layer="160" from-port="1" to-layer="161" to-port="1"/>
		<edge from-layer="161" from-port="2" to-layer="164" to-port="0"/>
		<edge from-layer="162" from-port="0" to-layer="163" to-port="0"/>
		<edge from-layer="163" from-port="1" to-layer="164" to-port="1"/>
		<edge from-layer="164" from-port="2" to-layer="165" to-port="0"/>
		<edge from-layer="165" from-port="1" to-layer="168" to-port="0"/>
		<edge from-layer="166" from-port="0" to-layer="167" to-port="0"/>
		<edge from-layer="167" from-port="1" to-layer="168" to-port="1"/>
		<edge from-layer="168" from-port="2" to-layer="171" to-port="0"/>
		<edge from-layer="169" from-port="0" to-layer="170" to-port="0"/>
		<edge from-layer="170" from-port="1" to-layer="171" to-port="1"/>
		<edge from-layer="171" from-port="2" to-layer="172" to-port="1"/>
		<edge from-layer="172" from-port="2" to-layer="175" to-port="0"/>
		<edge from-layer="172" from-port="2" to-layer="193" to-port="0"/>
		<edge from-layer="173" from-port="0" to-layer="174" to-port="0"/>
		<edge from-layer="174" from-port="1" to-layer="175" to-port="1"/>
		<edge from-layer="175" from-port="2" to-layer="178" to-port="0"/>
		<edge from-layer="176" from-port="0" to-layer="177" to-port="0"/>
		<edge from-layer="177" from-port="1" to-layer="178" to-port="1"/>
		<edge from-layer="178" from-port="2" to-layer="179" to-port="0"/>
		<edge from-layer="179" from-port="1" to-layer="182" to-port="0"/>
		<edge from-layer="180" from-port="0" to-layer="181" to-port="0"/>
		<edge from-layer="181" from-port="1" to-layer="182" to-port="1"/>
		<edge from-layer="182" from-port="2" to-layer="185" to-port="0"/>
		<edge from-layer="183" from-port="0" to-layer="184" to-port="0"/>
		<edge from-layer="184" from-port="1" to-layer="185" to-port="1"/>
		<edge from-layer="185" from-port="2" to-layer="186" to-port="0"/>
		<edge from-layer="186" from-port="1" to-layer="189" to-port="0"/>
		<edge from-layer="187" from-port="0" to-layer="188" to-port="0"/>
		<edge from-layer="188" from-port="1" to-layer="189" to-port="1"/>
		<edge from-layer="189" from-port="2" to-layer="192" to-port="0"/>
		<edge from-layer="190" from-port="0" to-layer="191" to-port="0"/>
		<edge from-layer="191" from-port="1" to-layer="192" to-port="1"/>
		<edge from-layer="192" from-port="2" to-layer="193" to-port="1"/>
		<edge from-layer="193" from-port="2" to-layer="196" to-port="0"/>
		<edge from-layer="193" from-port="2" to-layer="214" to-port="0"/>
		<edge from-layer="194" from-port="0" to-layer="195" to-port="0"/>
		<edge from-layer="195" from-port="1" to-layer="196" to-port="1"/>
		<edge from-layer="196" from-port="2" to-layer="199" to-port="0"/>
		<edge from-layer="197" from-port="0" to-layer="198" to-port="0"/>
		<edge from-layer="198" from-port="1" to-layer="199" to-port="1"/>
		<edge from-layer="199" from-port="2" to-layer="200" to-port="0"/>
		<edge from-layer="200" from-port="1" to-layer="203" to-port="0"/>
		<edge from-layer="201" from-port="0" to-layer="202" to-port="0"/>
		<edge from-layer="202" from-port="1" to-layer="203" to-port="1"/>
		<edge from-layer="203" from-port="2" to-layer="206" to-port="0"/>
		<edge from-layer="204" from-port="0" to-layer="205" to-port="0"/>
		<edge from-layer="205" from-port="1" to-layer="206" to-port="1"/>
		<edge from-layer="206" from-port="2" to-layer="207" to-port="0"/>
		<edge from-layer="207" from-port="1" to-layer="210" to-port="0"/>
		<edge from-layer="208" from-port="0" to-layer="209" to-port="0"/>
		<edge from-layer="209" from-port="1" to-layer="210" to-port="1"/>
		<edge from-layer="210" from-port="2" to-layer="213" to-port="0"/>
		<edge from-layer="211" from-port="0" to-layer="212" to-port="0"/>
		<edge from-layer="212" from-port="1" to-layer="213" to-port="1"/>
		<edge from-layer="213" from-port="2" to-layer="214" to-port="1"/>
		<edge from-layer="214" from-port="2" to-layer="217" to-port="0"/>
		<edge from-layer="215" from-port="0" to-layer="216" to-port="0"/>
		<edge from-layer="216" from-port="1" to-layer="217" to-port="1"/>
		<edge from-layer="217" from-port="2" to-layer="220" to-port="0"/>
		<edge from-layer="218" from-port="0" to-layer="219" to-port="0"/>
		<edge from-layer="219" from-port="1" to-layer="220" to-port="1"/>
		<edge from-layer="220" from-port="2" to-layer="221" to-port="0"/>
		<edge from-layer="221" from-port="1" to-layer="224" to-port="0"/>
		<edge from-layer="222" from-port="0" to-layer="223" to-port="0"/>
		<edge from-layer="223" from-port="1" to-layer="224" to-port="1"/>
		<edge from-layer="224" from-port="2" to-layer="227" to-port="0"/>
		<edge from-layer="225" from-port="0" to-layer="226" to-port="0"/>
		<edge from-layer="226" from-port="1" to-layer="227" to-port="1"/>
		<edge from-layer="227" from-port="2" to-layer="228" to-port="0"/>
		<edge from-layer="228" from-port="1" to-layer="231" to-port="0"/>
		<edge from-layer="229" from-port="0" to-layer="230" to-port="0"/>
		<edge from-layer="230" from-port="1" to-layer="231" to-port="1"/>
		<edge from-layer="231" from-port="2" to-layer="234" to-port="0"/>
		<edge from-layer="232" from-port="0" to-layer="233" to-port="0"/>
		<edge from-layer="233" from-port="1" to-layer="234" to-port="1"/>
		<edge from-layer="234" from-port="2" to-layer="255" to-port="0"/>
		<edge from-layer="234" from-port="2" to-layer="237" to-port="0"/>
		<edge from-layer="235" from-port="0" to-layer="236" to-port="0"/>
		<edge from-layer="236" from-port="1" to-layer="237" to-port="1"/>
		<edge from-layer="237" from-port="2" to-layer="240" to-port="0"/>
		<edge from-layer="238" from-port="0" to-layer="239" to-port="0"/>
		<edge from-layer="239" from-port="1" to-layer="240" to-port="1"/>
		<edge from-layer="240" from-port="2" to-layer="241" to-port="0"/>
		<edge from-layer="241" from-port="1" to-layer="244" to-port="0"/>
		<edge from-layer="242" from-port="0" to-layer="243" to-port="0"/>
		<edge from-layer="243" from-port="1" to-layer="244" to-port="1"/>
		<edge from-layer="244" from-port="2" to-layer="247" to-port="0"/>
		<edge from-layer="245" from-port="0" to-layer="246" to-port="0"/>
		<edge from-layer="246" from-port="1" to-layer="247" to-port="1"/>
		<edge from-layer="247" from-port="2" to-layer="248" to-port="0"/>
		<edge from-layer="248" from-port="1" to-layer="251" to-port="0"/>
		<edge from-layer="249" from-port="0" to-layer="250" to-port="0"/>
		<edge from-layer="250" from-port="1" to-layer="251" to-port="1"/>
		<edge from-layer="251" from-port="2" to-layer="254" to-port="0"/>
		<edge from-layer="252" from-port="0" to-layer="253" to-port="0"/>
		<edge from-layer="253" from-port="1" to-layer="254" to-port="1"/>
		<edge from-layer="254" from-port="2" to-layer="255" to-port="1"/>
		<edge from-layer="255" from-port="2" to-layer="276" to-port="0"/>
		<edge from-layer="255" from-port="2" to-layer="258" to-port="0"/>
		<edge from-layer="256" from-port="0" to-layer="257" to-port="0"/>
		<edge from-layer="257" from-port="1" to-layer="258" to-port="1"/>
		<edge from-layer="258" from-port="2" to-layer="261" to-port="0"/>
		<edge from-layer="259" from-port="0" to-layer="260" to-port="0"/>
		<edge from-layer="260" from-port="1" to-layer="261" to-port="1"/>
		<edge from-layer="261" from-port="2" to-layer="262" to-port="0"/>
		<edge from-layer="262" from-port="1" to-layer="265" to-port="0"/>
		<edge from-layer="263" from-port="0" to-layer="264" to-port="0"/>
		<edge from-layer="264" from-port="1" to-layer="265" to-port="1"/>
		<edge from-layer="265" from-port="2" to-layer="268" to-port="0"/>
		<edge from-layer="266" from-port="0" to-layer="267" to-port="0"/>
		<edge from-layer="267" from-port="1" to-layer="268" to-port="1"/>
		<edge from-layer="268" from-port="2" to-layer="269" to-port="0"/>
		<edge from-layer="269" from-port="1" to-layer="272" to-port="0"/>
		<edge from-layer="270" from-port="0" to-layer="271" to-port="0"/>
		<edge from-layer="271" from-port="1" to-layer="272" to-port="1"/>
		<edge from-layer="272" from-port="2" to-layer="275" to-port="0"/>
		<edge from-layer="273" from-port="0" to-layer="274" to-port="0"/>
		<edge from-layer="274" from-port="1" to-layer="275" to-port="1"/>
		<edge from-layer="275" from-port="2" to-layer="276" to-port="1"/>
		<edge from-layer="276" from-port="2" to-layer="279" to-port="0"/>
		<edge from-layer="277" from-port="0" to-layer="278" to-port="0"/>
		<edge from-layer="278" from-port="1" to-layer="279" to-port="1"/>
		<edge from-layer="279" from-port="2" to-layer="282" to-port="0"/>
		<edge from-layer="280" from-port="0" to-layer="281" to-port="0"/>
		<edge from-layer="281" from-port="1" to-layer="282" to-port="1"/>
		<edge from-layer="282" from-port="2" to-layer="283" to-port="0"/>
		<edge from-layer="283" from-port="1" to-layer="286" to-port="0"/>
		<edge from-layer="284" from-port="0" to-layer="285" to-port="0"/>
		<edge from-layer="285" from-port="1" to-layer="286" to-port="1"/>
		<edge from-layer="286" from-port="2" to-layer="289" to-port="0"/>
		<edge from-layer="287" from-port="0" to-layer="288" to-port="0"/>
		<edge from-layer="288" from-port="1" to-layer="289" to-port="1"/>
		<edge from-layer="289" from-port="2" to-layer="290" to-port="0"/>
		<edge from-layer="290" from-port="1" to-layer="293" to-port="0"/>
		<edge from-layer="291" from-port="0" to-layer="292" to-port="0"/>
		<edge from-layer="292" from-port="1" to-layer="293" to-port="1"/>
		<edge from-layer="293" from-port="2" to-layer="296" to-port="0"/>
		<edge from-layer="294" from-port="0" to-layer="295" to-port="0"/>
		<edge from-layer="295" from-port="1" to-layer="296" to-port="1"/>
		<edge from-layer="296" from-port="2" to-layer="299" to-port="0"/>
		<edge from-layer="296" from-port="2" to-layer="317" to-port="0"/>
		<edge from-layer="297" from-port="0" to-layer="298" to-port="0"/>
		<edge from-layer="298" from-port="1" to-layer="299" to-port="1"/>
		<edge from-layer="299" from-port="2" to-layer="302" to-port="0"/>
		<edge from-layer="300" from-port="0" to-layer="301" to-port="0"/>
		<edge from-layer="301" from-port="1" to-layer="302" to-port="1"/>
		<edge from-layer="302" from-port="2" to-layer="303" to-port="0"/>
		<edge from-layer="303" from-port="1" to-layer="306" to-port="0"/>
		<edge from-layer="304" from-port="0" to-layer="305" to-port="0"/>
		<edge from-layer="305" from-port="1" to-layer="306" to-port="1"/>
		<edge from-layer="306" from-port="2" to-layer="309" to-port="0"/>
		<edge from-layer="307" from-port="0" to-layer="308" to-port="0"/>
		<edge from-layer="308" from-port="1" to-layer="309" to-port="1"/>
		<edge from-layer="309" from-port="2" to-layer="310" to-port="0"/>
		<edge from-layer="310" from-port="1" to-layer="313" to-port="0"/>
		<edge from-layer="311" from-port="0" to-layer="312" to-port="0"/>
		<edge from-layer="312" from-port="1" to-layer="313" to-port="1"/>
		<edge from-layer="313" from-port="2" to-layer="316" to-port="0"/>
		<edge from-layer="314" from-port="0" to-layer="315" to-port="0"/>
		<edge from-layer="315" from-port="1" to-layer="316" to-port="1"/>
		<edge from-layer="316" from-port="2" to-layer="317" to-port="1"/>
		<edge from-layer="317" from-port="2" to-layer="338" to-port="0"/>
		<edge from-layer="317" from-port="2" to-layer="320" to-port="0"/>
		<edge from-layer="318" from-port="0" to-layer="319" to-port="0"/>
		<edge from-layer="319" from-port="1" to-layer="320" to-port="1"/>
		<edge from-layer="320" from-port="2" to-layer="323" to-port="0"/>
		<edge from-layer="321" from-port="0" to-layer="322" to-port="0"/>
		<edge from-layer="322" from-port="1" to-layer="323" to-port="1"/>
		<edge from-layer="323" from-port="2" to-layer="324" to-port="0"/>
		<edge from-layer="324" from-port="1" to-layer="327" to-port="0"/>
		<edge from-layer="325" from-port="0" to-layer="326" to-port="0"/>
		<edge from-layer="326" from-port="1" to-layer="327" to-port="1"/>
		<edge from-layer="327" from-port="2" to-layer="330" to-port="0"/>
		<edge from-layer="328" from-port="0" to-layer="329" to-port="0"/>
		<edge from-layer="329" from-port="1" to-layer="330" to-port="1"/>
		<edge from-layer="330" from-port="2" to-layer="331" to-port="0"/>
		<edge from-layer="331" from-port="1" to-layer="334" to-port="0"/>
		<edge from-layer="332" from-port="0" to-layer="333" to-port="0"/>
		<edge from-layer="333" from-port="1" to-layer="334" to-port="1"/>
		<edge from-layer="334" from-port="2" to-layer="337" to-port="0"/>
		<edge from-layer="335" from-port="0" to-layer="336" to-port="0"/>
		<edge from-layer="336" from-port="1" to-layer="337" to-port="1"/>
		<edge from-layer="337" from-port="2" to-layer="338" to-port="1"/>
		<edge from-layer="338" from-port="2" to-layer="341" to-port="0"/>
		<edge from-layer="339" from-port="0" to-layer="340" to-port="0"/>
		<edge from-layer="340" from-port="1" to-layer="341" to-port="1"/>
		<edge from-layer="341" from-port="2" to-layer="344" to-port="0"/>
		<edge from-layer="342" from-port="0" to-layer="343" to-port="0"/>
		<edge from-layer="343" from-port="1" to-layer="344" to-port="1"/>
		<edge from-layer="344" from-port="2" to-layer="345" to-port="0"/>
		<edge from-layer="345" from-port="1" to-layer="348" to-port="0"/>
		<edge from-layer="346" from-port="0" to-layer="347" to-port="0"/>
		<edge from-layer="347" from-port="1" to-layer="348" to-port="1"/>
		<edge from-layer="348" from-port="2" to-layer="351" to-port="0"/>
		<edge from-layer="349" from-port="0" to-layer="350" to-port="0"/>
		<edge from-layer="350" from-port="1" to-layer="351" to-port="1"/>
		<edge from-layer="351" from-port="2" to-layer="352" to-port="0"/>
		<edge from-layer="352" from-port="1" to-layer="355" to-port="0"/>
		<edge from-layer="353" from-port="0" to-layer="354" to-port="0"/>
		<edge from-layer="354" from-port="1" to-layer="355" to-port="1"/>
		<edge from-layer="355" from-port="2" to-layer="358" to-port="0"/>
		<edge from-layer="356" from-port="0" to-layer="357" to-port="0"/>
		<edge from-layer="357" from-port="1" to-layer="358" to-port="1"/>
		<edge from-layer="358" from-port="2" to-layer="359" to-port="0"/>
		<edge from-layer="358" from-port="2" to-layer="369" to-port="0"/>
		<edge from-layer="359" from-port="1" to-layer="362" to-port="0"/>
		<edge from-layer="360" from-port="0" to-layer="361" to-port="0"/>
		<edge from-layer="361" from-port="1" to-layer="362" to-port="1"/>
		<edge from-layer="362" from-port="2" to-layer="365" to-port="0"/>
		<edge from-layer="363" from-port="0" to-layer="364" to-port="0"/>
		<edge from-layer="364" from-port="1" to-layer="365" to-port="1"/>
		<edge from-layer="365" from-port="2" to-layer="366" to-port="0"/>
		<edge from-layer="366" from-port="1" to-layer="390" to-port="0"/>
		<edge from-layer="366" from-port="1" to-layer="379" to-port="0"/>
		<edge from-layer="367" from-port="0" to-layer="368" to-port="0"/>
		<edge from-layer="368" from-port="1" to-layer="369" to-port="1"/>
		<edge from-layer="369" from-port="2" to-layer="372" to-port="0"/>
		<edge from-layer="370" from-port="0" to-layer="371" to-port="0"/>
		<edge from-layer="371" from-port="1" to-layer="372" to-port="1"/>
		<edge from-layer="372" from-port="2" to-layer="373" to-port="0"/>
		<edge from-layer="373" from-port="1" to-layer="374" to-port="0"/>
		<edge from-layer="373" from-port="1" to-layer="391" to-port="1"/>
		<edge from-layer="374" from-port="1" to-layer="377" to-port="0"/>
		<edge from-layer="375" from-port="0" to-layer="377" to-port="1"/>
		<edge from-layer="376" from-port="0" to-layer="377" to-port="2"/>
		<edge from-layer="377" from-port="3" to-layer="390" to-port="1"/>
		<edge from-layer="378" from-port="0" to-layer="388" to-port="0"/>
		<edge from-layer="379" from-port="1" to-layer="382" to-port="0"/>
		<edge from-layer="380" from-port="0" to-layer="382" to-port="1"/>
		<edge from-layer="381" from-port="0" to-layer="382" to-port="2"/>
		<edge from-layer="382" from-port="3" to-layer="386" to-port="0"/>
		<edge from-layer="383" from-port="0" to-layer="386" to-port="1"/>
		<edge from-layer="384" from-port="0" to-layer="386" to-port="2"/>
		<edge from-layer="385" from-port="0" to-layer="386" to-port="3"/>
		<edge from-layer="386" from-port="4" to-layer="387" to-port="0"/>
		<edge from-layer="387" from-port="1" to-layer="388" to-port="1"/>
		<edge from-layer="388" from-port="2" to-layer="390" to-port="2"/>
		<edge from-layer="389" from-port="0" to-layer="390" to-port="3"/>
		<edge from-layer="390" from-port="4" to-layer="391" to-port="0"/>
		<edge from-layer="391" from-port="2" to-layer="394" to-port="0"/>
		<edge from-layer="392" from-port="0" to-layer="393" to-port="0"/>
		<edge from-layer="393" from-port="1" to-layer="394" to-port="1"/>
		<edge from-layer="394" from-port="2" to-layer="397" to-port="0"/>
		<edge from-layer="395" from-port="0" to-layer="396" to-port="0"/>
		<edge from-layer="396" from-port="1" to-layer="397" to-port="1"/>
		<edge from-layer="397" from-port="2" to-layer="398" to-port="0"/>
		<edge from-layer="398" from-port="1" to-layer="401" to-port="0"/>
		<edge from-layer="399" from-port="0" to-layer="400" to-port="0"/>
		<edge from-layer="400" from-port="1" to-layer="401" to-port="1"/>
		<edge from-layer="401" from-port="2" to-layer="404" to-port="0"/>
		<edge from-layer="402" from-port="0" to-layer="403" to-port="0"/>
		<edge from-layer="403" from-port="1" to-layer="404" to-port="1"/>
		<edge from-layer="404" from-port="2" to-layer="407" to-port="0"/>
		<edge from-layer="404" from-port="2" to-layer="418" to-port="0"/>
		<edge from-layer="405" from-port="0" to-layer="418" to-port="1"/>
		<edge from-layer="406" from-port="0" to-layer="416" to-port="0"/>
		<edge from-layer="407" from-port="1" to-layer="410" to-port="0"/>
		<edge from-layer="408" from-port="0" to-layer="410" to-port="1"/>
		<edge from-layer="409" from-port="0" to-layer="410" to-port="2"/>
		<edge from-layer="410" from-port="3" to-layer="414" to-port="0"/>
		<edge from-layer="411" from-port="0" to-layer="414" to-port="1"/>
		<edge from-layer="412" from-port="0" to-layer="414" to-port="2"/>
		<edge from-layer="413" from-port="0" to-layer="414" to-port="3"/>
		<edge from-layer="414" from-port="4" to-layer="415" to-port="0"/>
		<edge from-layer="415" from-port="1" to-layer="416" to-port="1"/>
		<edge from-layer="416" from-port="2" to-layer="418" to-port="2"/>
		<edge from-layer="417" from-port="0" to-layer="418" to-port="3"/>
		<edge from-layer="418" from-port="4" to-layer="432" to-port="0"/>
		<edge from-layer="418" from-port="4" to-layer="421" to-port="0"/>
		<edge from-layer="419" from-port="0" to-layer="432" to-port="1"/>
		<edge from-layer="420" from-port="0" to-layer="430" to-port="0"/>
		<edge from-layer="421" from-port="1" to-layer="424" to-port="0"/>
		<edge from-layer="422" from-port="0" to-layer="424" to-port="1"/>
		<edge from-layer="423" from-port="0" to-layer="424" to-port="2"/>
		<edge from-layer="424" from-port="3" to-layer="428" to-port="0"/>
		<edge from-layer="425" from-port="0" to-layer="428" to-port="1"/>
		<edge from-layer="426" from-port="0" to-layer="428" to-port="2"/>
		<edge from-layer="427" from-port="0" to-layer="428" to-port="3"/>
		<edge from-layer="428" from-port="4" to-layer="429" to-port="0"/>
		<edge from-layer="429" from-port="1" to-layer="430" to-port="1"/>
		<edge from-layer="430" from-port="2" to-layer="432" to-port="2"/>
		<edge from-layer="431" from-port="0" to-layer="432" to-port="3"/>
		<edge from-layer="432" from-port="4" to-layer="434" to-port="0"/>
		<edge from-layer="433" from-port="0" to-layer="434" to-port="1"/>
		<edge from-layer="434" from-port="3" to-layer="436" to-port="0"/>
		<edge from-layer="435" from-port="0" to-layer="436" to-port="1"/>
		<edge from-layer="436" from-port="2" to-layer="437" to-port="0"/>
	</edges>
	<meta_data>
		<MO_version value="2022.1.0-7019-cdb9bec7210-releases/2022/1"/>
		<Runtime_version value="2022.1.0-7019-cdb9bec7210-releases/2022/1"/>
		<legacy_path value="True"/>
		<cli_parameters>
			<caffe_parser_path value="DIR"/>
			<compress_fp16 value="True"/>
			<data_type value="FP16"/>
			<disable_nhwc_to_nchw value="False"/>
			<disable_omitting_optional value="False"/>
			<disable_resnet_optimization value="False"/>
			<disable_weights_compression value="False"/>
			<enable_concat_optimization value="False"/>
			<enable_flattening_nested_params value="False"/>
			<enable_ssd_gluoncv value="False"/>
			<extensions value="DIR"/>
			<framework value="tf"/>
			<freeze_placeholder_with_value value="{}"/>
			<input value="1:mul_1"/>
			<input_model value="DIR/frozen_inference_graph.pb"/>
			<input_model_is_text value="False"/>
			<input_shape value="[1, 513, 513, 3]"/>
			<k value="DIR/CustomLayersMapping.xml"/>
			<layout value="1:mul_1(NHWC)"/>
			<layout_values value="{'1:mul_1': {'source_layout': 'NHWC', 'target_layout': None, 'is_input': True}}"/>
			<legacy_mxnet_model value="False"/>
			<log_level value="ERROR"/>
			<mean_scale_values value="{}"/>
			<mean_values value="()"/>
			<model_name value="deeplabv3"/>
			<output value="['ArgMax']"/>
			<output_dir value="DIR"/>
			<packed_user_shapes value="defaultdict(&lt;class 'list'&gt;, {'mul_1': [{'shape': (1, 513, 513, 3), 'in': 1, 'added': True}]})"/>
			<placeholder_data_types value="{}"/>
			<placeholder_shapes value="{'1:mul_1': (1, 513, 513, 3)}"/>
			<progress value="False"/>
			<remove_memory value="False"/>
			<remove_output_softmax value="False"/>
			<reverse_input_channels value="True"/>
			<save_params_from_nd value="False"/>
			<scale_values value="()"/>
			<silent value="False"/>
			<source_layout value="()"/>
			<static_shape value="False"/>
			<stream_output value="False"/>
			<target_layout value="()"/>
			<transform value=""/>
			<use_legacy_frontend value="False"/>
			<use_new_frontend value="False"/>
			<unset unset_cli_parameters="batch, counts, disable_fusing, finegrain_fusing, input_checkpoint, input_meta_graph, input_proto, input_symbol, mean_file, mean_file_offsets, nd_prefix_name, pretrained_model_name, saved_model_dir, saved_model_tags, scale, tensorboard_logdir, tensorflow_custom_layer_libraries, tensorflow_custom_operations_config_update, tensorflow_object_detection_api_pipeline_config, tensorflow_use_custom_operations_config, transformations_config"/>
		</cli_parameters>
	</meta_data>
</net>
