<?xml version="1.0" ?>
<net name="realesrgan" version="10">
	<layers>
		<layer id="0" name="115131151783563" type="Const" version="opset1">
			<data element_type="f32" offset="0" shape="1,1,1,1" size="4"/>
			<output>
				<port id="0" precision="FP32">
					<dim>1</dim>
					<dim>1</dim>
					<dim>1</dim>
					<dim>1</dim>
				</port>
			</output>
		</layer>
		<layer id="1" name="115141151880041" type="Const" version="opset1">
			<data element_type="f32" offset="4" shape="1,1,1,1" size="4"/>
			<output>
				<port id="0" precision="FP32">
					<dim>1</dim>
					<dim>1</dim>
					<dim>1</dim>
					<dim>1</dim>
				</port>
			</output>
		</layer>
		<layer id="2" name="115151151986188" type="Const" version="opset1">
			<data element_type="f32" offset="0" shape="1,1,1,1" size="4"/>
			<output>
				<port id="0" precision="FP32">
					<dim>1</dim>
					<dim>1</dim>
					<dim>1</dim>
					<dim>1</dim>
				</port>
			</output>
		</layer>
		<layer id="3" name="115161152079819" type="Const" version="opset1">
			<data element_type="f32" offset="4" shape="1,1,1,1" size="4"/>
			<output>
				<port id="0" precision="FP32">
					<dim>1</dim>
					<dim>1</dim>
					<dim>1</dim>
					<dim>1</dim>
				</port>
			</output>
		</layer>
		<layer id="4" name="145541455884055" type="Const" version="opset1">
			<data element_type="f32" offset="8" shape="1,1,1,1" size="4"/>
			<output>
				<port id="0" precision="FP32">
					<dim>1</dim>
					<dim>1</dim>
					<dim>1</dim>
					<dim>1</dim>
				</port>
			</output>
		</layer>
		<layer id="5" name="145551455987970" type="Const" version="opset1">
			<data element_type="f32" offset="12" shape="1,1,1,1" size="4"/>
			<output>
				<port id="0" precision="FP32">
					<dim>1</dim>
					<dim>1</dim>
					<dim>1</dim>
					<dim>1</dim>
				</port>
			</output>
		</layer>
		<layer id="6" name="145561456082624" type="Const" version="opset1">
			<data element_type="f32" offset="8" shape="1,1,1,1" size="4"/>
			<output>
				<port id="0" precision="FP32">
					<dim>1</dim>
					<dim>1</dim>
					<dim>1</dim>
					<dim>1</dim>
				</port>
			</output>
		</layer>
		<layer id="7" name="145571456189125" type="Const" version="opset1">
			<data element_type="f32" offset="12" shape="1,1,1,1" size="4"/>
			<output>
				<port id="0" precision="FP32">
					<dim>1</dim>
					<dim>1</dim>
					<dim>1</dim>
					<dim>1</dim>
				</port>
			</output>
		</layer>
		<layer id="8" name="142541425880704" type="Const" version="opset1">
			<data element_type="f32" offset="16" shape="1,1,1,1" size="4"/>
			<output>
				<port id="0" precision="FP32">
					<dim>1</dim>
					<dim>1</dim>
					<dim>1</dim>
					<dim>1</dim>
				</port>
			</output>
		</layer>
		<layer id="9" name="142551425989026" type="Const" version="opset1">
			<data element_type="f32" offset="20" shape="1,1,1,1" size="4"/>
			<output>
				<port id="0" precision="FP32">
					<dim>1</dim>
					<dim>1</dim>
					<dim>1</dim>
					<dim>1</dim>
				</port>
			</output>
		</layer>
		<layer id="10" name="142561426089431" type="Const" version="opset1">
			<data element_type="f32" offset="16" shape="1,1,1,1" size="4"/>
			<output>
				<port id="0" precision="FP32">
					<dim>1</dim>
					<dim>1</dim>
					<dim>1</dim>
					<dim>1</dim>
				</port>
			</output>
		</layer>
		<layer id="11" name="142571426185702" type="Const" version="opset1">
			<data element_type="f32" offset="20" shape="1,1,1,1" size="4"/>
			<output>
				<port id="0" precision="FP32">
					<dim>1</dim>
					<dim>1</dim>
					<dim>1</dim>
					<dim>1</dim>
				</port>
			</output>
		</layer>
		<layer id="12" name="Resize_1181/StridedSlice_scales1263268736479979705" type="Const" version="opset1">
			<data element_type="f32" offset="24" shape="2" size="8"/>
			<output>
				<port id="0" precision="FP32">
					<dim>2</dim>
				</port>
			</output>
		</layer>
		<layer id="13" name="Resize_1181/axis1261670881480082756" type="Const" version="opset1">
			<data element_type="i64" offset="32" shape="2" size="16"/>
			<output>
				<port id="0" precision="I64">
					<dim>2</dim>
				</port>
			</output>
		</layer>
		<layer id="14" name="132641326886125" type="Const" version="opset1">
			<data element_type="f32" offset="16" shape="1,1,1,1" size="4"/>
			<output>
				<port id="0" precision="FP32">
					<dim>1</dim>
					<dim>1</dim>
					<dim>1</dim>
					<dim>1</dim>
				</port>
			</output>
		</layer>
		<layer id="15" name="132651326982990" type="Const" version="opset1">
			<data element_type="f32" offset="20" shape="1,1,1,1" size="4"/>
			<output>
				<port id="0" precision="FP32">
					<dim>1</dim>
					<dim>1</dim>
					<dim>1</dim>
					<dim>1</dim>
				</port>
			</output>
		</layer>
		<layer id="16" name="132661327082045" type="Const" version="opset1">
			<data element_type="f32" offset="16" shape="1,1,1,1" size="4"/>
			<output>
				<port id="0" precision="FP32">
					<dim>1</dim>
					<dim>1</dim>
					<dim>1</dim>
					<dim>1</dim>
				</port>
			</output>
		</layer>
		<layer id="17" name="132671327185006" type="Const" version="opset1">
			<data element_type="f32" offset="20" shape="1,1,1,1" size="4"/>
			<output>
				<port id="0" precision="FP32">
					<dim>1</dim>
					<dim>1</dim>
					<dim>1</dim>
					<dim>1</dim>
				</port>
			</output>
		</layer>
		<layer id="18" name="129541295879717" type="Const" version="opset1">
			<data element_type="f32" offset="48" shape="1,1,1,1" size="4"/>
			<output>
				<port id="0" precision="FP32">
					<dim>1</dim>
					<dim>1</dim>
					<dim>1</dim>
					<dim>1</dim>
				</port>
			</output>
		</layer>
		<layer id="19" name="129551295987508" type="Const" version="opset1">
			<data element_type="f32" offset="52" shape="1,1,1,1" size="4"/>
			<output>
				<port id="0" precision="FP32">
					<dim>1</dim>
					<dim>1</dim>
					<dim>1</dim>
					<dim>1</dim>
				</port>
			</output>
		</layer>
		<layer id="20" name="129561296089275" type="Const" version="opset1">
			<data element_type="f32" offset="48" shape="1,1,1,1" size="4"/>
			<output>
				<port id="0" precision="FP32">
					<dim>1</dim>
					<dim>1</dim>
					<dim>1</dim>
					<dim>1</dim>
				</port>
			</output>
		</layer>
		<layer id="21" name="129571296183644" type="Const" version="opset1">
			<data element_type="f32" offset="52" shape="1,1,1,1" size="4"/>
			<output>
				<port id="0" precision="FP32">
					<dim>1</dim>
					<dim>1</dim>
					<dim>1</dim>
					<dim>1</dim>
				</port>
			</output>
		</layer>
		<layer id="22" name="Resize_1177/StridedSlice_scales1259870617477889281" type="Const" version="opset1">
			<data element_type="f32" offset="24" shape="2" size="8"/>
			<output>
				<port id="0" precision="FP32">
					<dim>2</dim>
				</port>
			</output>
		</layer>
		<layer id="23" name="Resize_1177/axis1258271034477989116" type="Const" version="opset1">
			<data element_type="i64" offset="32" shape="2" size="16"/>
			<output>
				<port id="0" precision="I64">
					<dim>2</dim>
				</port>
			</output>
		</layer>
		<layer id="24" name="131941319884775" type="Const" version="opset1">
			<data element_type="f32" offset="48" shape="1,1,1,1" size="4"/>
			<output>
				<port id="0" precision="FP32">
					<dim>1</dim>
					<dim>1</dim>
					<dim>1</dim>
					<dim>1</dim>
				</port>
			</output>
		</layer>
		<layer id="25" name="131951319982843" type="Const" version="opset1">
			<data element_type="f32" offset="52" shape="1,1,1,1" size="4"/>
			<output>
				<port id="0" precision="FP32">
					<dim>1</dim>
					<dim>1</dim>
					<dim>1</dim>
					<dim>1</dim>
				</port>
			</output>
		</layer>
		<layer id="26" name="131961320088987" type="Const" version="opset1">
			<data element_type="f32" offset="48" shape="1,1,1,1" size="4"/>
			<output>
				<port id="0" precision="FP32">
					<dim>1</dim>
					<dim>1</dim>
					<dim>1</dim>
					<dim>1</dim>
				</port>
			</output>
		</layer>
		<layer id="27" name="131971320187517" type="Const" version="opset1">
			<data element_type="f32" offset="52" shape="1,1,1,1" size="4"/>
			<output>
				<port id="0" precision="FP32">
					<dim>1</dim>
					<dim>1</dim>
					<dim>1</dim>
					<dim>1</dim>
				</port>
			</output>
		</layer>
		<layer id="28" name="141141411879009" type="Const" version="opset1">
			<data element_type="f32" offset="56" shape="1,1,1,1" size="4"/>
			<output>
				<port id="0" precision="FP32">
					<dim>1</dim>
					<dim>1</dim>
					<dim>1</dim>
					<dim>1</dim>
				</port>
			</output>
		</layer>
		<layer id="29" name="141151411981640" type="Const" version="opset1">
			<data element_type="f32" offset="60" shape="1,1,1,1" size="4"/>
			<output>
				<port id="0" precision="FP32">
					<dim>1</dim>
					<dim>1</dim>
					<dim>1</dim>
					<dim>1</dim>
				</port>
			</output>
		</layer>
		<layer id="30" name="141161412083776" type="Const" version="opset1">
			<data element_type="f32" offset="56" shape="1,1,1,1" size="4"/>
			<output>
				<port id="0" precision="FP32">
					<dim>1</dim>
					<dim>1</dim>
					<dim>1</dim>
					<dim>1</dim>
				</port>
			</output>
		</layer>
		<layer id="31" name="141171412188993" type="Const" version="opset1">
			<data element_type="f32" offset="60" shape="1,1,1,1" size="4"/>
			<output>
				<port id="0" precision="FP32">
					<dim>1</dim>
					<dim>1</dim>
					<dim>1</dim>
					<dim>1</dim>
				</port>
			</output>
		</layer>
		<layer id="32" name="154341543889563" type="Const" version="opset1">
			<data element_type="f32" offset="64" shape="1,1,1,1" size="4"/>
			<output>
				<port id="0" precision="FP32">
					<dim>1</dim>
					<dim>1</dim>
					<dim>1</dim>
					<dim>1</dim>
				</port>
			</output>
		</layer>
		<layer id="33" name="154351543986053" type="Const" version="opset1">
			<data element_type="f32" offset="68" shape="1,1,1,1" size="4"/>
			<output>
				<port id="0" precision="FP32">
					<dim>1</dim>
					<dim>1</dim>
					<dim>1</dim>
					<dim>1</dim>
				</port>
			</output>
		</layer>
		<layer id="34" name="154361544087127" type="Const" version="opset1">
			<data element_type="f32" offset="64" shape="1,1,1,1" size="4"/>
			<output>
				<port id="0" precision="FP32">
					<dim>1</dim>
					<dim>1</dim>
					<dim>1</dim>
					<dim>1</dim>
				</port>
			</output>
		</layer>
		<layer id="35" name="154371544180647" type="Const" version="opset1">
			<data element_type="f32" offset="68" shape="1,1,1,1" size="4"/>
			<output>
				<port id="0" precision="FP32">
					<dim>1</dim>
					<dim>1</dim>
					<dim>1</dim>
					<dim>1</dim>
				</port>
			</output>
		</layer>
		<layer id="36" name="input.1" type="Parameter" version="opset1">
			<data element_type="f32" shape="1,3,64,64"/>
			<output>
				<port id="0" names="input.1" precision="FP32">
					<dim>1</dim>
					<dim>3</dim>
					<dim>64</dim>
					<dim>64</dim>
				</port>
			</output>
		</layer>
		<layer id="37" name="Conv_0/WithoutBiases/fq_input_0" type="FakeQuantize" version="opset1">
			<data auto_broadcast="numpy" levels="256"/>
			<input>
				<port id="0">
					<dim>1</dim>
					<dim>3</dim>
					<dim>64</dim>
					<dim>64</dim>
				</port>
				<port id="1">
					<dim>1</dim>
					<dim>1</dim>
					<dim>1</dim>
					<dim>1</dim>
				</port>
				<port id="2">
					<dim>1</dim>
					<dim>1</dim>
					<dim>1</dim>
					<dim>1</dim>
				</port>
				<port id="3">
					<dim>1</dim>
					<dim>1</dim>
					<dim>1</dim>
					<dim>1</dim>
				</port>
				<port id="4">
					<dim>1</dim>
					<dim>1</dim>
					<dim>1</dim>
					<dim>1</dim>
				</port>
			</input>
			<output>
				<port id="5" precision="FP32">
					<dim>1</dim>
					<dim>3</dim>
					<dim>64</dim>
					<dim>64</dim>
				</port>
			</output>
		</layer>
		<layer id="38" name="conv_first.weight241147957/quantized5772487931" type="Const" version="opset1">
			<data element_type="i8" offset="72" shape="64,3,3,3" size="1728"/>
			<output>
				<port id="0" precision="I8">
					<dim>64</dim>
					<dim>3</dim>
					<dim>3</dim>
					<dim>3</dim>
				</port>
			</output>
		</layer>
		<layer id="39" name="conv_first.weight241147957/quantized/to_f32" type="Convert" version="opset1">
			<data destination_type="f32"/>
			<input>
				<port id="0">
					<dim>64</dim>
					<dim>3</dim>
					<dim>3</dim>
					<dim>3</dim>
				</port>
			</input>
			<output>
				<port id="1" precision="FP32">
					<dim>64</dim>
					<dim>3</dim>
					<dim>3</dim>
					<dim>3</dim>
				</port>
			</output>
		</layer>
		<layer id="40" name="Conv_0/WithoutBiases/fq_weights_1/zero_point5774381481" type="Const" version="opset1">
			<data element_type="f32" offset="1800" shape="64,1,1,1" size="256"/>
			<output>
				<port id="0" precision="FP32">
					<dim>64</dim>
					<dim>1</dim>
					<dim>1</dim>
					<dim>1</dim>
				</port>
			</output>
		</layer>
		<layer id="41" name="Conv_0/WithoutBiases/fq_weights_1/minus_zp" type="Subtract" version="opset1">
			<data auto_broadcast="numpy"/>
			<input>
				<port id="0">
					<dim>64</dim>
					<dim>3</dim>
					<dim>3</dim>
					<dim>3</dim>
				</port>
				<port id="1">
					<dim>64</dim>
					<dim>1</dim>
					<dim>1</dim>
					<dim>1</dim>
				</port>
			</input>
			<output>
				<port id="2" precision="FP32">
					<dim>64</dim>
					<dim>3</dim>
					<dim>3</dim>
					<dim>3</dim>
				</port>
			</output>
		</layer>
		<layer id="42" name="Conv_0/WithoutBiases/fq_weights_1/scale5773283797" type="Const" version="opset1">
			<data element_type="f32" offset="2056" shape="64,1,1,1" size="256"/>
			<output>
				<port id="0" precision="FP32">
					<dim>64</dim>
					<dim>1</dim>
					<dim>1</dim>
					<dim>1</dim>
				</port>
			</output>
		</layer>
		<layer id="43" name="Conv_0/WithoutBiases/fq_weights_1/mulpiply_by_scale" type="Multiply" version="opset1">
			<data auto_broadcast="numpy"/>
			<input>
				<port id="0">
					<dim>64</dim>
					<dim>3</dim>
					<dim>3</dim>
					<dim>3</dim>
				</port>
				<port id="1">
					<dim>64</dim>
					<dim>1</dim>
					<dim>1</dim>
					<dim>1</dim>
				</port>
			</input>
			<output>
				<port id="2" precision="FP32">
					<dim>64</dim>
					<dim>3</dim>
					<dim>3</dim>
					<dim>3</dim>
				</port>
			</output>
		</layer>
		<layer id="44" name="Conv_0/WithoutBiases" type="Convolution" version="opset1">
			<data auto_pad="explicit" dilations="1,1" pads_begin="1,1" pads_end="1,1" strides="1,1"/>
			<input>
				<port id="0">
					<dim>1</dim>
					<dim>3</dim>
					<dim>64</dim>
					<dim>64</dim>
				</port>
				<port id="1">
					<dim>64</dim>
					<dim>3</dim>
					<dim>3</dim>
					<dim>3</dim>
				</port>
			</input>
			<output>
				<port id="2" precision="FP32">
					<dim>1</dim>
					<dim>64</dim>
					<dim>64</dim>
					<dim>64</dim>
				</port>
			</output>
		</layer>
		<layer id="45" name="Conv_0/Dims15189241388285" type="Const" version="opset1">
			<data element_type="f32" offset="2312" shape="1,64,1,1" size="256"/>
			<output>
				<port id="0" precision="FP32">
					<dim>1</dim>
					<dim>64</dim>
					<dim>1</dim>
					<dim>1</dim>
				</port>
			</output>
		</layer>
		<layer id="46" name="Conv_0" type="Add" version="opset1">
			<data auto_broadcast="numpy"/>
			<input>
				<port id="0">
					<dim>1</dim>
					<dim>64</dim>
					<dim>64</dim>
					<dim>64</dim>
				</port>
				<port id="1">
					<dim>1</dim>
					<dim>64</dim>
					<dim>1</dim>
					<dim>1</dim>
				</port>
			</input>
			<output>
				<port id="2" names="input" precision="FP32">
					<dim>1</dim>
					<dim>64</dim>
					<dim>64</dim>
					<dim>64</dim>
				</port>
			</output>
		</layer>
		<layer id="47" name="Add_1175/fq_input_0" type="FakeQuantize" version="opset1">
			<data auto_broadcast="numpy" levels="256"/>
			<input>
				<port id="0">
					<dim>1</dim>
					<dim>64</dim>
					<dim>64</dim>
					<dim>64</dim>
				</port>
				<port id="1">
					<dim>1</dim>
					<dim>1</dim>
					<dim>1</dim>
					<dim>1</dim>
				</port>
				<port id="2">
					<dim>1</dim>
					<dim>1</dim>
					<dim>1</dim>
					<dim>1</dim>
				</port>
				<port id="3">
					<dim>1</dim>
					<dim>1</dim>
					<dim>1</dim>
					<dim>1</dim>
				</port>
				<port id="4">
					<dim>1</dim>
					<dim>1</dim>
					<dim>1</dim>
					<dim>1</dim>
				</port>
			</input>
			<output>
				<port id="5" precision="FP32">
					<dim>1</dim>
					<dim>64</dim>
					<dim>64</dim>
					<dim>64</dim>
				</port>
			</output>
		</layer>
		<layer id="48" name="141241412880662" type="Const" version="opset1">
			<data element_type="f32" offset="2568" shape="1,1,1,1" size="4"/>
			<output>
				<port id="0" precision="FP32">
					<dim>1</dim>
					<dim>1</dim>
					<dim>1</dim>
					<dim>1</dim>
				</port>
			</output>
		</layer>
		<layer id="49" name="141251412979450" type="Const" version="opset1">
			<data element_type="f32" offset="2572" shape="1,1,1,1" size="4"/>
			<output>
				<port id="0" precision="FP32">
					<dim>1</dim>
					<dim>1</dim>
					<dim>1</dim>
					<dim>1</dim>
				</port>
			</output>
		</layer>
		<layer id="50" name="141261413079561" type="Const" version="opset1">
			<data element_type="f32" offset="2568" shape="1,1,1,1" size="4"/>
			<output>
				<port id="0" precision="FP32">
					<dim>1</dim>
					<dim>1</dim>
					<dim>1</dim>
					<dim>1</dim>
				</port>
			</output>
		</layer>
		<layer id="51" name="141271413182282" type="Const" version="opset1">
			<data element_type="f32" offset="2572" shape="1,1,1,1" size="4"/>
			<output>
				<port id="0" precision="FP32">
					<dim>1</dim>
					<dim>1</dim>
					<dim>1</dim>
					<dim>1</dim>
				</port>
			</output>
		</layer>
		<layer id="52" name="106131061783320" type="Const" version="opset1">
			<data element_type="f32" offset="2576" shape="1,1,1,1" size="4"/>
			<output>
				<port id="0" precision="FP32">
					<dim>1</dim>
					<dim>1</dim>
					<dim>1</dim>
					<dim>1</dim>
				</port>
			</output>
		</layer>
		<layer id="53" name="106141061882384" type="Const" version="opset1">
			<data element_type="f32" offset="2580" shape="1,1,1,1" size="4"/>
			<output>
				<port id="0" precision="FP32">
					<dim>1</dim>
					<dim>1</dim>
					<dim>1</dim>
					<dim>1</dim>
				</port>
			</output>
		</layer>
		<layer id="54" name="106151061986827" type="Const" version="opset1">
			<data element_type="f32" offset="2576" shape="1,1,1,1" size="4"/>
			<output>
				<port id="0" precision="FP32">
					<dim>1</dim>
					<dim>1</dim>
					<dim>1</dim>
					<dim>1</dim>
				</port>
			</output>
		</layer>
		<layer id="55" name="106161062088438" type="Const" version="opset1">
			<data element_type="f32" offset="2580" shape="1,1,1,1" size="4"/>
			<output>
				<port id="0" precision="FP32">
					<dim>1</dim>
					<dim>1</dim>
					<dim>1</dim>
					<dim>1</dim>
				</port>
			</output>
		</layer>
		<layer id="56" name="8833883779252" type="Const" version="opset1">
			<data element_type="f32" offset="2584" shape="1,1,1,1" size="4"/>
			<output>
				<port id="0" precision="FP32">
					<dim>1</dim>
					<dim>1</dim>
					<dim>1</dim>
					<dim>1</dim>
				</port>
			</output>
		</layer>
		<layer id="57" name="8834883885507" type="Const" version="opset1">
			<data element_type="f32" offset="2588" shape="1,1,1,1" size="4"/>
			<output>
				<port id="0" precision="FP32">
					<dim>1</dim>
					<dim>1</dim>
					<dim>1</dim>
					<dim>1</dim>
				</port>
			</output>
		</layer>
		<layer id="58" name="8835883983236" type="Const" version="opset1">
			<data element_type="f32" offset="2584" shape="1,1,1,1" size="4"/>
			<output>
				<port id="0" precision="FP32">
					<dim>1</dim>
					<dim>1</dim>
					<dim>1</dim>
					<dim>1</dim>
				</port>
			</output>
		</layer>
		<layer id="59" name="8836884082336" type="Const" version="opset1">
			<data element_type="f32" offset="2588" shape="1,1,1,1" size="4"/>
			<output>
				<port id="0" precision="FP32">
					<dim>1</dim>
					<dim>1</dim>
					<dim>1</dim>
					<dim>1</dim>
				</port>
			</output>
		</layer>
		<layer id="60" name="171341713881706" type="Const" version="opset1">
			<data element_type="f32" offset="2592" shape="1,1,1,1" size="4"/>
			<output>
				<port id="0" precision="FP32">
					<dim>1</dim>
					<dim>1</dim>
					<dim>1</dim>
					<dim>1</dim>
				</port>
			</output>
		</layer>
		<layer id="61" name="171351713988327" type="Const" version="opset1">
			<data element_type="f32" offset="2596" shape="1,1,1,1" size="4"/>
			<output>
				<port id="0" precision="FP32">
					<dim>1</dim>
					<dim>1</dim>
					<dim>1</dim>
					<dim>1</dim>
				</port>
			</output>
		</layer>
		<layer id="62" name="171361714080368" type="Const" version="opset1">
			<data element_type="f32" offset="2592" shape="1,1,1,1" size="4"/>
			<output>
				<port id="0" precision="FP32">
					<dim>1</dim>
					<dim>1</dim>
					<dim>1</dim>
					<dim>1</dim>
				</port>
			</output>
		</layer>
		<layer id="63" name="171371714189317" type="Const" version="opset1">
			<data element_type="f32" offset="2596" shape="1,1,1,1" size="4"/>
			<output>
				<port id="0" precision="FP32">
					<dim>1</dim>
					<dim>1</dim>
					<dim>1</dim>
					<dim>1</dim>
				</port>
			</output>
		</layer>
		<layer id="64" name="145741457880668" type="Const" version="opset1">
			<data element_type="f32" offset="2600" shape="1,1,1,1" size="4"/>
			<output>
				<port id="0" precision="FP32">
					<dim>1</dim>
					<dim>1</dim>
					<dim>1</dim>
					<dim>1</dim>
				</port>
			</output>
		</layer>
		<layer id="65" name="145751457988654" type="Const" version="opset1">
			<data element_type="f32" offset="2604" shape="1,1,1,1" size="4"/>
			<output>
				<port id="0" precision="FP32">
					<dim>1</dim>
					<dim>1</dim>
					<dim>1</dim>
					<dim>1</dim>
				</port>
			</output>
		</layer>
		<layer id="66" name="145761458081595" type="Const" version="opset1">
			<data element_type="f32" offset="2600" shape="1,1,1,1" size="4"/>
			<output>
				<port id="0" precision="FP32">
					<dim>1</dim>
					<dim>1</dim>
					<dim>1</dim>
					<dim>1</dim>
				</port>
			</output>
		</layer>
		<layer id="67" name="145771458180920" type="Const" version="opset1">
			<data element_type="f32" offset="2604" shape="1,1,1,1" size="4"/>
			<output>
				<port id="0" precision="FP32">
					<dim>1</dim>
					<dim>1</dim>
					<dim>1</dim>
					<dim>1</dim>
				</port>
			</output>
		</layer>
		<layer id="68" name="235662357079633" type="Const" version="opset1">
			<data element_type="f32" offset="2608" shape="1,1,1,1" size="4"/>
			<output>
				<port id="0" precision="FP32">
					<dim>1</dim>
					<dim>1</dim>
					<dim>1</dim>
					<dim>1</dim>
				</port>
			</output>
		</layer>
		<layer id="69" name="235672357183380" type="Const" version="opset1">
			<data element_type="f32" offset="2612" shape="1,1,1,1" size="4"/>
			<output>
				<port id="0" precision="FP32">
					<dim>1</dim>
					<dim>1</dim>
					<dim>1</dim>
					<dim>1</dim>
				</port>
			</output>
		</layer>
		<layer id="70" name="235682357279309" type="Const" version="opset1">
			<data element_type="f32" offset="2608" shape="1,1,1,1" size="4"/>
			<output>
				<port id="0" precision="FP32">
					<dim>1</dim>
					<dim>1</dim>
					<dim>1</dim>
					<dim>1</dim>
				</port>
			</output>
		</layer>
		<layer id="71" name="235692357380038" type="Const" version="opset1">
			<data element_type="f32" offset="2612" shape="1,1,1,1" size="4"/>
			<output>
				<port id="0" precision="FP32">
					<dim>1</dim>
					<dim>1</dim>
					<dim>1</dim>
					<dim>1</dim>
				</port>
			</output>
		</layer>
		<layer id="72" name="235162352084784" type="Const" version="opset1">
			<data element_type="f32" offset="2616" shape="1,1,1,1" size="4"/>
			<output>
				<port id="0" precision="FP32">
					<dim>1</dim>
					<dim>1</dim>
					<dim>1</dim>
					<dim>1</dim>
				</port>
			</output>
		</layer>
		<layer id="73" name="235172352180236" type="Const" version="opset1">
			<data element_type="f32" offset="2620" shape="1,1,1,1" size="4"/>
			<output>
				<port id="0" precision="FP32">
					<dim>1</dim>
					<dim>1</dim>
					<dim>1</dim>
					<dim>1</dim>
				</port>
			</output>
		</layer>
		<layer id="74" name="235182352284088" type="Const" version="opset1">
			<data element_type="f32" offset="2616" shape="1,1,1,1" size="4"/>
			<output>
				<port id="0" precision="FP32">
					<dim>1</dim>
					<dim>1</dim>
					<dim>1</dim>
					<dim>1</dim>
				</port>
			</output>
		</layer>
		<layer id="75" name="235192352387220" type="Const" version="opset1">
			<data element_type="f32" offset="2620" shape="1,1,1,1" size="4"/>
			<output>
				<port id="0" precision="FP32">
					<dim>1</dim>
					<dim>1</dim>
					<dim>1</dim>
					<dim>1</dim>
				</port>
			</output>
		</layer>
		<layer id="76" name="234762348087901" type="Const" version="opset1">
			<data element_type="f32" offset="2624" shape="1,1,1,1" size="4"/>
			<output>
				<port id="0" precision="FP32">
					<dim>1</dim>
					<dim>1</dim>
					<dim>1</dim>
					<dim>1</dim>
				</port>
			</output>
		</layer>
		<layer id="77" name="234772348180335" type="Const" version="opset1">
			<data element_type="f32" offset="2628" shape="1,1,1,1" size="4"/>
			<output>
				<port id="0" precision="FP32">
					<dim>1</dim>
					<dim>1</dim>
					<dim>1</dim>
					<dim>1</dim>
				</port>
			</output>
		</layer>
		<layer id="78" name="234782348280524" type="Const" version="opset1">
			<data element_type="f32" offset="2624" shape="1,1,1,1" size="4"/>
			<output>
				<port id="0" precision="FP32">
					<dim>1</dim>
					<dim>1</dim>
					<dim>1</dim>
					<dim>1</dim>
				</port>
			</output>
		</layer>
		<layer id="79" name="234792348385804" type="Const" version="opset1">
			<data element_type="f32" offset="2628" shape="1,1,1,1" size="4"/>
			<output>
				<port id="0" precision="FP32">
					<dim>1</dim>
					<dim>1</dim>
					<dim>1</dim>
					<dim>1</dim>
				</port>
			</output>
		</layer>
		<layer id="80" name="234462345084640" type="Const" version="opset1">
			<data element_type="f32" offset="2632" shape="1,1,1,1" size="4"/>
			<output>
				<port id="0" precision="FP32">
					<dim>1</dim>
					<dim>1</dim>
					<dim>1</dim>
					<dim>1</dim>
				</port>
			</output>
		</layer>
		<layer id="81" name="234472345181547" type="Const" version="opset1">
			<data element_type="f32" offset="2636" shape="1,1,1,1" size="4"/>
			<output>
				<port id="0" precision="FP32">
					<dim>1</dim>
					<dim>1</dim>
					<dim>1</dim>
					<dim>1</dim>
				</port>
			</output>
		</layer>
		<layer id="82" name="234482345289251" type="Const" version="opset1">
			<data element_type="f32" offset="2632" shape="1,1,1,1" size="4"/>
			<output>
				<port id="0" precision="FP32">
					<dim>1</dim>
					<dim>1</dim>
					<dim>1</dim>
					<dim>1</dim>
				</port>
			</output>
		</layer>
		<layer id="83" name="234492345387346" type="Const" version="opset1">
			<data element_type="f32" offset="2636" shape="1,1,1,1" size="4"/>
			<output>
				<port id="0" precision="FP32">
					<dim>1</dim>
					<dim>1</dim>
					<dim>1</dim>
					<dim>1</dim>
				</port>
			</output>
		</layer>
		<layer id="84" name="145841458883512" type="Const" version="opset1">
			<data element_type="f32" offset="2640" shape="1,1,1,1" size="4"/>
			<output>
				<port id="0" precision="FP32">
					<dim>1</dim>
					<dim>1</dim>
					<dim>1</dim>
					<dim>1</dim>
				</port>
			</output>
		</layer>
		<layer id="85" name="145851458987502" type="Const" version="opset1">
			<data element_type="f32" offset="2644" shape="1,1,1,1" size="4"/>
			<output>
				<port id="0" precision="FP32">
					<dim>1</dim>
					<dim>1</dim>
					<dim>1</dim>
					<dim>1</dim>
				</port>
			</output>
		</layer>
		<layer id="86" name="145861459082042" type="Const" version="opset1">
			<data element_type="f32" offset="2640" shape="1,1,1,1" size="4"/>
			<output>
				<port id="0" precision="FP32">
					<dim>1</dim>
					<dim>1</dim>
					<dim>1</dim>
					<dim>1</dim>
				</port>
			</output>
		</layer>
		<layer id="87" name="145871459180179" type="Const" version="opset1">
			<data element_type="f32" offset="2644" shape="1,1,1,1" size="4"/>
			<output>
				<port id="0" precision="FP32">
					<dim>1</dim>
					<dim>1</dim>
					<dim>1</dim>
					<dim>1</dim>
				</port>
			</output>
		</layer>
		<layer id="88" name="165941659881508" type="Const" version="opset1">
			<data element_type="f32" offset="2648" shape="1,1,1,1" size="4"/>
			<output>
				<port id="0" precision="FP32">
					<dim>1</dim>
					<dim>1</dim>
					<dim>1</dim>
					<dim>1</dim>
				</port>
			</output>
		</layer>
		<layer id="89" name="165951659979990" type="Const" version="opset1">
			<data element_type="f32" offset="2652" shape="1,1,1,1" size="4"/>
			<output>
				<port id="0" precision="FP32">
					<dim>1</dim>
					<dim>1</dim>
					<dim>1</dim>
					<dim>1</dim>
				</port>
			</output>
		</layer>
		<layer id="90" name="165961660086659" type="Const" version="opset1">
			<data element_type="f32" offset="2648" shape="1,1,1,1" size="4"/>
			<output>
				<port id="0" precision="FP32">
					<dim>1</dim>
					<dim>1</dim>
					<dim>1</dim>
					<dim>1</dim>
				</port>
			</output>
		</layer>
		<layer id="91" name="165971660179498" type="Const" version="opset1">
			<data element_type="f32" offset="2652" shape="1,1,1,1" size="4"/>
			<output>
				<port id="0" precision="FP32">
					<dim>1</dim>
					<dim>1</dim>
					<dim>1</dim>
					<dim>1</dim>
				</port>
			</output>
		</layer>
		<layer id="92" name="234262343079495" type="Const" version="opset1">
			<data element_type="f32" offset="2656" shape="1,1,1,1" size="4"/>
			<output>
				<port id="0" precision="FP32">
					<dim>1</dim>
					<dim>1</dim>
					<dim>1</dim>
					<dim>1</dim>
				</port>
			</output>
		</layer>
		<layer id="93" name="234272343183785" type="Const" version="opset1">
			<data element_type="f32" offset="2660" shape="1,1,1,1" size="4"/>
			<output>
				<port id="0" precision="FP32">
					<dim>1</dim>
					<dim>1</dim>
					<dim>1</dim>
					<dim>1</dim>
				</port>
			</output>
		</layer>
		<layer id="94" name="234282343286203" type="Const" version="opset1">
			<data element_type="f32" offset="2656" shape="1,1,1,1" size="4"/>
			<output>
				<port id="0" precision="FP32">
					<dim>1</dim>
					<dim>1</dim>
					<dim>1</dim>
					<dim>1</dim>
				</port>
			</output>
		</layer>
		<layer id="95" name="234292343382564" type="Const" version="opset1">
			<data element_type="f32" offset="2660" shape="1,1,1,1" size="4"/>
			<output>
				<port id="0" precision="FP32">
					<dim>1</dim>
					<dim>1</dim>
					<dim>1</dim>
					<dim>1</dim>
				</port>
			</output>
		</layer>
		<layer id="96" name="233262333088873" type="Const" version="opset1">
			<data element_type="f32" offset="2664" shape="1,1,1,1" size="4"/>
			<output>
				<port id="0" precision="FP32">
					<dim>1</dim>
					<dim>1</dim>
					<dim>1</dim>
					<dim>1</dim>
				</port>
			</output>
		</layer>
		<layer id="97" name="233272333182597" type="Const" version="opset1">
			<data element_type="f32" offset="2668" shape="1,1,1,1" size="4"/>
			<output>
				<port id="0" precision="FP32">
					<dim>1</dim>
					<dim>1</dim>
					<dim>1</dim>
					<dim>1</dim>
				</port>
			</output>
		</layer>
		<layer id="98" name="233282333285327" type="Const" version="opset1">
			<data element_type="f32" offset="2664" shape="1,1,1,1" size="4"/>
			<output>
				<port id="0" precision="FP32">
					<dim>1</dim>
					<dim>1</dim>
					<dim>1</dim>
					<dim>1</dim>
				</port>
			</output>
		</layer>
		<layer id="99" name="233292333382234" type="Const" version="opset1">
			<data element_type="f32" offset="2668" shape="1,1,1,1" size="4"/>
			<output>
				<port id="0" precision="FP32">
					<dim>1</dim>
					<dim>1</dim>
					<dim>1</dim>
					<dim>1</dim>
				</port>
			</output>
		</layer>
		<layer id="100" name="232862329082378" type="Const" version="opset1">
			<data element_type="f32" offset="2672" shape="1,1,1,1" size="4"/>
			<output>
				<port id="0" precision="FP32">
					<dim>1</dim>
					<dim>1</dim>
					<dim>1</dim>
					<dim>1</dim>
				</port>
			</output>
		</layer>
		<layer id="101" name="232872329183038" type="Const" version="opset1">
			<data element_type="f32" offset="2676" shape="1,1,1,1" size="4"/>
			<output>
				<port id="0" precision="FP32">
					<dim>1</dim>
					<dim>1</dim>
					<dim>1</dim>
					<dim>1</dim>
				</port>
			</output>
		</layer>
		<layer id="102" name="232882329282531" type="Const" version="opset1">
			<data element_type="f32" offset="2672" shape="1,1,1,1" size="4"/>
			<output>
				<port id="0" precision="FP32">
					<dim>1</dim>
					<dim>1</dim>
					<dim>1</dim>
					<dim>1</dim>
				</port>
			</output>
		</layer>
		<layer id="103" name="232892329383770" type="Const" version="opset1">
			<data element_type="f32" offset="2676" shape="1,1,1,1" size="4"/>
			<output>
				<port id="0" precision="FP32">
					<dim>1</dim>
					<dim>1</dim>
					<dim>1</dim>
					<dim>1</dim>
				</port>
			</output>
		</layer>
		<layer id="104" name="232562326084058" type="Const" version="opset1">
			<data element_type="f32" offset="2680" shape="1,1,1,1" size="4"/>
			<output>
				<port id="0" precision="FP32">
					<dim>1</dim>
					<dim>1</dim>
					<dim>1</dim>
					<dim>1</dim>
				</port>
			</output>
		</layer>
		<layer id="105" name="232572326184973" type="Const" version="opset1">
			<data element_type="f32" offset="2684" shape="1,1,1,1" size="4"/>
			<output>
				<port id="0" precision="FP32">
					<dim>1</dim>
					<dim>1</dim>
					<dim>1</dim>
					<dim>1</dim>
				</port>
			</output>
		</layer>
		<layer id="106" name="232582326288612" type="Const" version="opset1">
			<data element_type="f32" offset="2680" shape="1,1,1,1" size="4"/>
			<output>
				<port id="0" precision="FP32">
					<dim>1</dim>
					<dim>1</dim>
					<dim>1</dim>
					<dim>1</dim>
				</port>
			</output>
		</layer>
		<layer id="107" name="232592326387388" type="Const" version="opset1">
			<data element_type="f32" offset="2684" shape="1,1,1,1" size="4"/>
			<output>
				<port id="0" precision="FP32">
					<dim>1</dim>
					<dim>1</dim>
					<dim>1</dim>
					<dim>1</dim>
				</port>
			</output>
		</layer>
		<layer id="108" name="166041660883482" type="Const" version="opset1">
			<data element_type="f32" offset="2688" shape="1,1,1,1" size="4"/>
			<output>
				<port id="0" precision="FP32">
					<dim>1</dim>
					<dim>1</dim>
					<dim>1</dim>
					<dim>1</dim>
				</port>
			</output>
		</layer>
		<layer id="109" name="166051660980299" type="Const" version="opset1">
			<data element_type="f32" offset="2692" shape="1,1,1,1" size="4"/>
			<output>
				<port id="0" precision="FP32">
					<dim>1</dim>
					<dim>1</dim>
					<dim>1</dim>
					<dim>1</dim>
				</port>
			</output>
		</layer>
		<layer id="110" name="166061661081187" type="Const" version="opset1">
			<data element_type="f32" offset="2688" shape="1,1,1,1" size="4"/>
			<output>
				<port id="0" precision="FP32">
					<dim>1</dim>
					<dim>1</dim>
					<dim>1</dim>
					<dim>1</dim>
				</port>
			</output>
		</layer>
		<layer id="111" name="166071661180416" type="Const" version="opset1">
			<data element_type="f32" offset="2692" shape="1,1,1,1" size="4"/>
			<output>
				<port id="0" precision="FP32">
					<dim>1</dim>
					<dim>1</dim>
					<dim>1</dim>
					<dim>1</dim>
				</port>
			</output>
		</layer>
		<layer id="112" name="140941409886833" type="Const" version="opset1">
			<data element_type="f32" offset="2696" shape="1,1,1,1" size="4"/>
			<output>
				<port id="0" precision="FP32">
					<dim>1</dim>
					<dim>1</dim>
					<dim>1</dim>
					<dim>1</dim>
				</port>
			</output>
		</layer>
		<layer id="113" name="140951409981868" type="Const" version="opset1">
			<data element_type="f32" offset="2700" shape="1,1,1,1" size="4"/>
			<output>
				<port id="0" precision="FP32">
					<dim>1</dim>
					<dim>1</dim>
					<dim>1</dim>
					<dim>1</dim>
				</port>
			</output>
		</layer>
		<layer id="114" name="140961410082231" type="Const" version="opset1">
			<data element_type="f32" offset="2696" shape="1,1,1,1" size="4"/>
			<output>
				<port id="0" precision="FP32">
					<dim>1</dim>
					<dim>1</dim>
					<dim>1</dim>
					<dim>1</dim>
				</port>
			</output>
		</layer>
		<layer id="115" name="140971410182117" type="Const" version="opset1">
			<data element_type="f32" offset="2700" shape="1,1,1,1" size="4"/>
			<output>
				<port id="0" precision="FP32">
					<dim>1</dim>
					<dim>1</dim>
					<dim>1</dim>
					<dim>1</dim>
				</port>
			</output>
		</layer>
		<layer id="116" name="232362324083023" type="Const" version="opset1">
			<data element_type="f32" offset="2704" shape="1,1,1,1" size="4"/>
			<output>
				<port id="0" precision="FP32">
					<dim>1</dim>
					<dim>1</dim>
					<dim>1</dim>
					<dim>1</dim>
				</port>
			</output>
		</layer>
		<layer id="117" name="232372324189086" type="Const" version="opset1">
			<data element_type="f32" offset="2708" shape="1,1,1,1" size="4"/>
			<output>
				<port id="0" precision="FP32">
					<dim>1</dim>
					<dim>1</dim>
					<dim>1</dim>
					<dim>1</dim>
				</port>
			</output>
		</layer>
		<layer id="118" name="232382324280770" type="Const" version="opset1">
			<data element_type="f32" offset="2704" shape="1,1,1,1" size="4"/>
			<output>
				<port id="0" precision="FP32">
					<dim>1</dim>
					<dim>1</dim>
					<dim>1</dim>
					<dim>1</dim>
				</port>
			</output>
		</layer>
		<layer id="119" name="232392324385708" type="Const" version="opset1">
			<data element_type="f32" offset="2708" shape="1,1,1,1" size="4"/>
			<output>
				<port id="0" precision="FP32">
					<dim>1</dim>
					<dim>1</dim>
					<dim>1</dim>
					<dim>1</dim>
				</port>
			</output>
		</layer>
		<layer id="120" name="231862319078778" type="Const" version="opset1">
			<data element_type="f32" offset="2712" shape="1,1,1,1" size="4"/>
			<output>
				<port id="0" precision="FP32">
					<dim>1</dim>
					<dim>1</dim>
					<dim>1</dim>
					<dim>1</dim>
				</port>
			</output>
		</layer>
		<layer id="121" name="231872319179159" type="Const" version="opset1">
			<data element_type="f32" offset="2716" shape="1,1,1,1" size="4"/>
			<output>
				<port id="0" precision="FP32">
					<dim>1</dim>
					<dim>1</dim>
					<dim>1</dim>
					<dim>1</dim>
				</port>
			</output>
		</layer>
		<layer id="122" name="231882319283197" type="Const" version="opset1">
			<data element_type="f32" offset="2712" shape="1,1,1,1" size="4"/>
			<output>
				<port id="0" precision="FP32">
					<dim>1</dim>
					<dim>1</dim>
					<dim>1</dim>
					<dim>1</dim>
				</port>
			</output>
		</layer>
		<layer id="123" name="231892319389269" type="Const" version="opset1">
			<data element_type="f32" offset="2716" shape="1,1,1,1" size="4"/>
			<output>
				<port id="0" precision="FP32">
					<dim>1</dim>
					<dim>1</dim>
					<dim>1</dim>
					<dim>1</dim>
				</port>
			</output>
		</layer>
		<layer id="124" name="231462315084172" type="Const" version="opset1">
			<data element_type="f32" offset="2720" shape="1,1,1,1" size="4"/>
			<output>
				<port id="0" precision="FP32">
					<dim>1</dim>
					<dim>1</dim>
					<dim>1</dim>
					<dim>1</dim>
				</port>
			</output>
		</layer>
		<layer id="125" name="231472315181133" type="Const" version="opset1">
			<data element_type="f32" offset="2724" shape="1,1,1,1" size="4"/>
			<output>
				<port id="0" precision="FP32">
					<dim>1</dim>
					<dim>1</dim>
					<dim>1</dim>
					<dim>1</dim>
				</port>
			</output>
		</layer>
		<layer id="126" name="231482315287205" type="Const" version="opset1">
			<data element_type="f32" offset="2720" shape="1,1,1,1" size="4"/>
			<output>
				<port id="0" precision="FP32">
					<dim>1</dim>
					<dim>1</dim>
					<dim>1</dim>
					<dim>1</dim>
				</port>
			</output>
		</layer>
		<layer id="127" name="231492315384451" type="Const" version="opset1">
			<data element_type="f32" offset="2724" shape="1,1,1,1" size="4"/>
			<output>
				<port id="0" precision="FP32">
					<dim>1</dim>
					<dim>1</dim>
					<dim>1</dim>
					<dim>1</dim>
				</port>
			</output>
		</layer>
		<layer id="128" name="231162312089623" type="Const" version="opset1">
			<data element_type="f32" offset="2728" shape="1,1,1,1" size="4"/>
			<output>
				<port id="0" precision="FP32">
					<dim>1</dim>
					<dim>1</dim>
					<dim>1</dim>
					<dim>1</dim>
				</port>
			</output>
		</layer>
		<layer id="129" name="231172312189182" type="Const" version="opset1">
			<data element_type="f32" offset="2732" shape="1,1,1,1" size="4"/>
			<output>
				<port id="0" precision="FP32">
					<dim>1</dim>
					<dim>1</dim>
					<dim>1</dim>
					<dim>1</dim>
				</port>
			</output>
		</layer>
		<layer id="130" name="231182312288645" type="Const" version="opset1">
			<data element_type="f32" offset="2728" shape="1,1,1,1" size="4"/>
			<output>
				<port id="0" precision="FP32">
					<dim>1</dim>
					<dim>1</dim>
					<dim>1</dim>
					<dim>1</dim>
				</port>
			</output>
		</layer>
		<layer id="131" name="231192312386275" type="Const" version="opset1">
			<data element_type="f32" offset="2732" shape="1,1,1,1" size="4"/>
			<output>
				<port id="0" precision="FP32">
					<dim>1</dim>
					<dim>1</dim>
					<dim>1</dim>
					<dim>1</dim>
				</port>
			</output>
		</layer>
		<layer id="132" name="141041410882855" type="Const" version="opset1">
			<data element_type="f32" offset="2736" shape="1,1,1,1" size="4"/>
			<output>
				<port id="0" precision="FP32">
					<dim>1</dim>
					<dim>1</dim>
					<dim>1</dim>
					<dim>1</dim>
				</port>
			</output>
		</layer>
		<layer id="133" name="141051410985705" type="Const" version="opset1">
			<data element_type="f32" offset="2740" shape="1,1,1,1" size="4"/>
			<output>
				<port id="0" precision="FP32">
					<dim>1</dim>
					<dim>1</dim>
					<dim>1</dim>
					<dim>1</dim>
				</port>
			</output>
		</layer>
		<layer id="134" name="141061411082339" type="Const" version="opset1">
			<data element_type="f32" offset="2736" shape="1,1,1,1" size="4"/>
			<output>
				<port id="0" precision="FP32">
					<dim>1</dim>
					<dim>1</dim>
					<dim>1</dim>
					<dim>1</dim>
				</port>
			</output>
		</layer>
		<layer id="135" name="141071411186824" type="Const" version="opset1">
			<data element_type="f32" offset="2740" shape="1,1,1,1" size="4"/>
			<output>
				<port id="0" precision="FP32">
					<dim>1</dim>
					<dim>1</dim>
					<dim>1</dim>
					<dim>1</dim>
				</port>
			</output>
		</layer>
		<layer id="136" name="100531005782627" type="Const" version="opset1">
			<data element_type="f32" offset="2744" shape="1,1,1,1" size="4"/>
			<output>
				<port id="0" precision="FP32">
					<dim>1</dim>
					<dim>1</dim>
					<dim>1</dim>
					<dim>1</dim>
				</port>
			</output>
		</layer>
		<layer id="137" name="100541005881355" type="Const" version="opset1">
			<data element_type="f32" offset="2748" shape="1,1,1,1" size="4"/>
			<output>
				<port id="0" precision="FP32">
					<dim>1</dim>
					<dim>1</dim>
					<dim>1</dim>
					<dim>1</dim>
				</port>
			</output>
		</layer>
		<layer id="138" name="100551005981049" type="Const" version="opset1">
			<data element_type="f32" offset="2744" shape="1,1,1,1" size="4"/>
			<output>
				<port id="0" precision="FP32">
					<dim>1</dim>
					<dim>1</dim>
					<dim>1</dim>
					<dim>1</dim>
				</port>
			</output>
		</layer>
		<layer id="139" name="100561006086077" type="Const" version="opset1">
			<data element_type="f32" offset="2748" shape="1,1,1,1" size="4"/>
			<output>
				<port id="0" precision="FP32">
					<dim>1</dim>
					<dim>1</dim>
					<dim>1</dim>
					<dim>1</dim>
				</port>
			</output>
		</layer>
		<layer id="140" name="168341683889449" type="Const" version="opset1">
			<data element_type="f32" offset="2752" shape="1,1,1,1" size="4"/>
			<output>
				<port id="0" precision="FP32">
					<dim>1</dim>
					<dim>1</dim>
					<dim>1</dim>
					<dim>1</dim>
				</port>
			</output>
		</layer>
		<layer id="141" name="168351683985078" type="Const" version="opset1">
			<data element_type="f32" offset="2756" shape="1,1,1,1" size="4"/>
			<output>
				<port id="0" precision="FP32">
					<dim>1</dim>
					<dim>1</dim>
					<dim>1</dim>
					<dim>1</dim>
				</port>
			</output>
		</layer>
		<layer id="142" name="168361684080911" type="Const" version="opset1">
			<data element_type="f32" offset="2752" shape="1,1,1,1" size="4"/>
			<output>
				<port id="0" precision="FP32">
					<dim>1</dim>
					<dim>1</dim>
					<dim>1</dim>
					<dim>1</dim>
				</port>
			</output>
		</layer>
		<layer id="143" name="168371684189395" type="Const" version="opset1">
			<data element_type="f32" offset="2756" shape="1,1,1,1" size="4"/>
			<output>
				<port id="0" precision="FP32">
					<dim>1</dim>
					<dim>1</dim>
					<dim>1</dim>
					<dim>1</dim>
				</port>
			</output>
		</layer>
		<layer id="144" name="156741567879465" type="Const" version="opset1">
			<data element_type="f32" offset="2760" shape="1,1,1,1" size="4"/>
			<output>
				<port id="0" precision="FP32">
					<dim>1</dim>
					<dim>1</dim>
					<dim>1</dim>
					<dim>1</dim>
				</port>
			</output>
		</layer>
		<layer id="145" name="156751567982669" type="Const" version="opset1">
			<data element_type="f32" offset="2764" shape="1,1,1,1" size="4"/>
			<output>
				<port id="0" precision="FP32">
					<dim>1</dim>
					<dim>1</dim>
					<dim>1</dim>
					<dim>1</dim>
				</port>
			</output>
		</layer>
		<layer id="146" name="156761568083110" type="Const" version="opset1">
			<data element_type="f32" offset="2760" shape="1,1,1,1" size="4"/>
			<output>
				<port id="0" precision="FP32">
					<dim>1</dim>
					<dim>1</dim>
					<dim>1</dim>
					<dim>1</dim>
				</port>
			</output>
		</layer>
		<layer id="147" name="156771568182939" type="Const" version="opset1">
			<data element_type="f32" offset="2764" shape="1,1,1,1" size="4"/>
			<output>
				<port id="0" precision="FP32">
					<dim>1</dim>
					<dim>1</dim>
					<dim>1</dim>
					<dim>1</dim>
				</port>
			</output>
		</layer>
		<layer id="148" name="230562306079228" type="Const" version="opset1">
			<data element_type="f32" offset="2768" shape="1,1,1,1" size="4"/>
			<output>
				<port id="0" precision="FP32">
					<dim>1</dim>
					<dim>1</dim>
					<dim>1</dim>
					<dim>1</dim>
				</port>
			</output>
		</layer>
		<layer id="149" name="230572306184544" type="Const" version="opset1">
			<data element_type="f32" offset="2772" shape="1,1,1,1" size="4"/>
			<output>
				<port id="0" precision="FP32">
					<dim>1</dim>
					<dim>1</dim>
					<dim>1</dim>
					<dim>1</dim>
				</port>
			</output>
		</layer>
		<layer id="150" name="230582306283440" type="Const" version="opset1">
			<data element_type="f32" offset="2768" shape="1,1,1,1" size="4"/>
			<output>
				<port id="0" precision="FP32">
					<dim>1</dim>
					<dim>1</dim>
					<dim>1</dim>
					<dim>1</dim>
				</port>
			</output>
		</layer>
		<layer id="151" name="230592306385399" type="Const" version="opset1">
			<data element_type="f32" offset="2772" shape="1,1,1,1" size="4"/>
			<output>
				<port id="0" precision="FP32">
					<dim>1</dim>
					<dim>1</dim>
					<dim>1</dim>
					<dim>1</dim>
				</port>
			</output>
		</layer>
		<layer id="152" name="230062301080083" type="Const" version="opset1">
			<data element_type="f32" offset="2776" shape="1,1,1,1" size="4"/>
			<output>
				<port id="0" precision="FP32">
					<dim>1</dim>
					<dim>1</dim>
					<dim>1</dim>
					<dim>1</dim>
				</port>
			</output>
		</layer>
		<layer id="153" name="230072301185879" type="Const" version="opset1">
			<data element_type="f32" offset="2780" shape="1,1,1,1" size="4"/>
			<output>
				<port id="0" precision="FP32">
					<dim>1</dim>
					<dim>1</dim>
					<dim>1</dim>
					<dim>1</dim>
				</port>
			</output>
		</layer>
		<layer id="154" name="230082301288603" type="Const" version="opset1">
			<data element_type="f32" offset="2776" shape="1,1,1,1" size="4"/>
			<output>
				<port id="0" precision="FP32">
					<dim>1</dim>
					<dim>1</dim>
					<dim>1</dim>
					<dim>1</dim>
				</port>
			</output>
		</layer>
		<layer id="155" name="230092301385651" type="Const" version="opset1">
			<data element_type="f32" offset="2780" shape="1,1,1,1" size="4"/>
			<output>
				<port id="0" precision="FP32">
					<dim>1</dim>
					<dim>1</dim>
					<dim>1</dim>
					<dim>1</dim>
				</port>
			</output>
		</layer>
		<layer id="156" name="229662297079003" type="Const" version="opset1">
			<data element_type="f32" offset="2784" shape="1,1,1,1" size="4"/>
			<output>
				<port id="0" precision="FP32">
					<dim>1</dim>
					<dim>1</dim>
					<dim>1</dim>
					<dim>1</dim>
				</port>
			</output>
		</layer>
		<layer id="157" name="229672297179522" type="Const" version="opset1">
			<data element_type="f32" offset="2788" shape="1,1,1,1" size="4"/>
			<output>
				<port id="0" precision="FP32">
					<dim>1</dim>
					<dim>1</dim>
					<dim>1</dim>
					<dim>1</dim>
				</port>
			</output>
		</layer>
		<layer id="158" name="229682297286497" type="Const" version="opset1">
			<data element_type="f32" offset="2784" shape="1,1,1,1" size="4"/>
			<output>
				<port id="0" precision="FP32">
					<dim>1</dim>
					<dim>1</dim>
					<dim>1</dim>
					<dim>1</dim>
				</port>
			</output>
		</layer>
		<layer id="159" name="229692297379348" type="Const" version="opset1">
			<data element_type="f32" offset="2788" shape="1,1,1,1" size="4"/>
			<output>
				<port id="0" precision="FP32">
					<dim>1</dim>
					<dim>1</dim>
					<dim>1</dim>
					<dim>1</dim>
				</port>
			</output>
		</layer>
		<layer id="160" name="229362294079408" type="Const" version="opset1">
			<data element_type="f32" offset="2792" shape="1,1,1,1" size="4"/>
			<output>
				<port id="0" precision="FP32">
					<dim>1</dim>
					<dim>1</dim>
					<dim>1</dim>
					<dim>1</dim>
				</port>
			</output>
		</layer>
		<layer id="161" name="229372294180248" type="Const" version="opset1">
			<data element_type="f32" offset="2796" shape="1,1,1,1" size="4"/>
			<output>
				<port id="0" precision="FP32">
					<dim>1</dim>
					<dim>1</dim>
					<dim>1</dim>
					<dim>1</dim>
				</port>
			</output>
		</layer>
		<layer id="162" name="229382294281385" type="Const" version="opset1">
			<data element_type="f32" offset="2792" shape="1,1,1,1" size="4"/>
			<output>
				<port id="0" precision="FP32">
					<dim>1</dim>
					<dim>1</dim>
					<dim>1</dim>
					<dim>1</dim>
				</port>
			</output>
		</layer>
		<layer id="163" name="229392294380578" type="Const" version="opset1">
			<data element_type="f32" offset="2796" shape="1,1,1,1" size="4"/>
			<output>
				<port id="0" precision="FP32">
					<dim>1</dim>
					<dim>1</dim>
					<dim>1</dim>
					<dim>1</dim>
				</port>
			</output>
		</layer>
		<layer id="164" name="156841568887445" type="Const" version="opset1">
			<data element_type="f32" offset="2800" shape="1,1,1,1" size="4"/>
			<output>
				<port id="0" precision="FP32">
					<dim>1</dim>
					<dim>1</dim>
					<dim>1</dim>
					<dim>1</dim>
				</port>
			</output>
		</layer>
		<layer id="165" name="156851568983182" type="Const" version="opset1">
			<data element_type="f32" offset="2804" shape="1,1,1,1" size="4"/>
			<output>
				<port id="0" precision="FP32">
					<dim>1</dim>
					<dim>1</dim>
					<dim>1</dim>
					<dim>1</dim>
				</port>
			</output>
		</layer>
		<layer id="166" name="156861569085831" type="Const" version="opset1">
			<data element_type="f32" offset="2800" shape="1,1,1,1" size="4"/>
			<output>
				<port id="0" precision="FP32">
					<dim>1</dim>
					<dim>1</dim>
					<dim>1</dim>
					<dim>1</dim>
				</port>
			</output>
		</layer>
		<layer id="167" name="156871569180764" type="Const" version="opset1">
			<data element_type="f32" offset="2804" shape="1,1,1,1" size="4"/>
			<output>
				<port id="0" precision="FP32">
					<dim>1</dim>
					<dim>1</dim>
					<dim>1</dim>
					<dim>1</dim>
				</port>
			</output>
		</layer>
		<layer id="168" name="104731047789107" type="Const" version="opset1">
			<data element_type="f32" offset="2808" shape="1,1,1,1" size="4"/>
			<output>
				<port id="0" precision="FP32">
					<dim>1</dim>
					<dim>1</dim>
					<dim>1</dim>
					<dim>1</dim>
				</port>
			</output>
		</layer>
		<layer id="169" name="104741047889248" type="Const" version="opset1">
			<data element_type="f32" offset="2812" shape="1,1,1,1" size="4"/>
			<output>
				<port id="0" precision="FP32">
					<dim>1</dim>
					<dim>1</dim>
					<dim>1</dim>
					<dim>1</dim>
				</port>
			</output>
		</layer>
		<layer id="170" name="104751047983191" type="Const" version="opset1">
			<data element_type="f32" offset="2808" shape="1,1,1,1" size="4"/>
			<output>
				<port id="0" precision="FP32">
					<dim>1</dim>
					<dim>1</dim>
					<dim>1</dim>
					<dim>1</dim>
				</port>
			</output>
		</layer>
		<layer id="171" name="104761048086584" type="Const" version="opset1">
			<data element_type="f32" offset="2812" shape="1,1,1,1" size="4"/>
			<output>
				<port id="0" precision="FP32">
					<dim>1</dim>
					<dim>1</dim>
					<dim>1</dim>
					<dim>1</dim>
				</port>
			</output>
		</layer>
		<layer id="172" name="229162292082063" type="Const" version="opset1">
			<data element_type="f32" offset="2816" shape="1,1,1,1" size="4"/>
			<output>
				<port id="0" precision="FP32">
					<dim>1</dim>
					<dim>1</dim>
					<dim>1</dim>
					<dim>1</dim>
				</port>
			</output>
		</layer>
		<layer id="173" name="229172292188624" type="Const" version="opset1">
			<data element_type="f32" offset="2820" shape="1,1,1,1" size="4"/>
			<output>
				<port id="0" precision="FP32">
					<dim>1</dim>
					<dim>1</dim>
					<dim>1</dim>
					<dim>1</dim>
				</port>
			</output>
		</layer>
		<layer id="174" name="229182292280287" type="Const" version="opset1">
			<data element_type="f32" offset="2816" shape="1,1,1,1" size="4"/>
			<output>
				<port id="0" precision="FP32">
					<dim>1</dim>
					<dim>1</dim>
					<dim>1</dim>
					<dim>1</dim>
				</port>
			</output>
		</layer>
		<layer id="175" name="229192292381529" type="Const" version="opset1">
			<data element_type="f32" offset="2820" shape="1,1,1,1" size="4"/>
			<output>
				<port id="0" precision="FP32">
					<dim>1</dim>
					<dim>1</dim>
					<dim>1</dim>
					<dim>1</dim>
				</port>
			</output>
		</layer>
		<layer id="176" name="228662287084028" type="Const" version="opset1">
			<data element_type="f32" offset="2824" shape="1,1,1,1" size="4"/>
			<output>
				<port id="0" precision="FP32">
					<dim>1</dim>
					<dim>1</dim>
					<dim>1</dim>
					<dim>1</dim>
				</port>
			</output>
		</layer>
		<layer id="177" name="228672287183410" type="Const" version="opset1">
			<data element_type="f32" offset="2828" shape="1,1,1,1" size="4"/>
			<output>
				<port id="0" precision="FP32">
					<dim>1</dim>
					<dim>1</dim>
					<dim>1</dim>
					<dim>1</dim>
				</port>
			</output>
		</layer>
		<layer id="178" name="228682287289548" type="Const" version="opset1">
			<data element_type="f32" offset="2824" shape="1,1,1,1" size="4"/>
			<output>
				<port id="0" precision="FP32">
					<dim>1</dim>
					<dim>1</dim>
					<dim>1</dim>
					<dim>1</dim>
				</port>
			</output>
		</layer>
		<layer id="179" name="228692287380605" type="Const" version="opset1">
			<data element_type="f32" offset="2828" shape="1,1,1,1" size="4"/>
			<output>
				<port id="0" precision="FP32">
					<dim>1</dim>
					<dim>1</dim>
					<dim>1</dim>
					<dim>1</dim>
				</port>
			</output>
		</layer>
		<layer id="180" name="228262283081880" type="Const" version="opset1">
			<data element_type="f32" offset="2832" shape="1,1,1,1" size="4"/>
			<output>
				<port id="0" precision="FP32">
					<dim>1</dim>
					<dim>1</dim>
					<dim>1</dim>
					<dim>1</dim>
				</port>
			</output>
		</layer>
		<layer id="181" name="228272283186746" type="Const" version="opset1">
			<data element_type="f32" offset="2836" shape="1,1,1,1" size="4"/>
			<output>
				<port id="0" precision="FP32">
					<dim>1</dim>
					<dim>1</dim>
					<dim>1</dim>
					<dim>1</dim>
				</port>
			</output>
		</layer>
		<layer id="182" name="228282283284277" type="Const" version="opset1">
			<data element_type="f32" offset="2832" shape="1,1,1,1" size="4"/>
			<output>
				<port id="0" precision="FP32">
					<dim>1</dim>
					<dim>1</dim>
					<dim>1</dim>
					<dim>1</dim>
				</port>
			</output>
		</layer>
		<layer id="183" name="228292283384547" type="Const" version="opset1">
			<data element_type="f32" offset="2836" shape="1,1,1,1" size="4"/>
			<output>
				<port id="0" precision="FP32">
					<dim>1</dim>
					<dim>1</dim>
					<dim>1</dim>
					<dim>1</dim>
				</port>
			</output>
		</layer>
		<layer id="184" name="227962280085663" type="Const" version="opset1">
			<data element_type="f32" offset="2840" shape="1,1,1,1" size="4"/>
			<output>
				<port id="0" precision="FP32">
					<dim>1</dim>
					<dim>1</dim>
					<dim>1</dim>
					<dim>1</dim>
				</port>
			</output>
		</layer>
		<layer id="185" name="227972280185237" type="Const" version="opset1">
			<data element_type="f32" offset="2844" shape="1,1,1,1" size="4"/>
			<output>
				<port id="0" precision="FP32">
					<dim>1</dim>
					<dim>1</dim>
					<dim>1</dim>
					<dim>1</dim>
				</port>
			</output>
		</layer>
		<layer id="186" name="227982280288339" type="Const" version="opset1">
			<data element_type="f32" offset="2840" shape="1,1,1,1" size="4"/>
			<output>
				<port id="0" precision="FP32">
					<dim>1</dim>
					<dim>1</dim>
					<dim>1</dim>
					<dim>1</dim>
				</port>
			</output>
		</layer>
		<layer id="187" name="227992280388162" type="Const" version="opset1">
			<data element_type="f32" offset="2844" shape="1,1,1,1" size="4"/>
			<output>
				<port id="0" precision="FP32">
					<dim>1</dim>
					<dim>1</dim>
					<dim>1</dim>
					<dim>1</dim>
				</port>
			</output>
		</layer>
		<layer id="188" name="104831048782375" type="Const" version="opset1">
			<data element_type="f32" offset="2848" shape="1,1,1,1" size="4"/>
			<output>
				<port id="0" precision="FP32">
					<dim>1</dim>
					<dim>1</dim>
					<dim>1</dim>
					<dim>1</dim>
				</port>
			</output>
		</layer>
		<layer id="189" name="104841048882849" type="Const" version="opset1">
			<data element_type="f32" offset="2852" shape="1,1,1,1" size="4"/>
			<output>
				<port id="0" precision="FP32">
					<dim>1</dim>
					<dim>1</dim>
					<dim>1</dim>
					<dim>1</dim>
				</port>
			</output>
		</layer>
		<layer id="190" name="104851048979018" type="Const" version="opset1">
			<data element_type="f32" offset="2848" shape="1,1,1,1" size="4"/>
			<output>
				<port id="0" precision="FP32">
					<dim>1</dim>
					<dim>1</dim>
					<dim>1</dim>
					<dim>1</dim>
				</port>
			</output>
		</layer>
		<layer id="191" name="104861049087676" type="Const" version="opset1">
			<data element_type="f32" offset="2852" shape="1,1,1,1" size="4"/>
			<output>
				<port id="0" precision="FP32">
					<dim>1</dim>
					<dim>1</dim>
					<dim>1</dim>
					<dim>1</dim>
				</port>
			</output>
		</layer>
		<layer id="192" name="138941389885816" type="Const" version="opset1">
			<data element_type="f32" offset="2856" shape="1,1,1,1" size="4"/>
			<output>
				<port id="0" precision="FP32">
					<dim>1</dim>
					<dim>1</dim>
					<dim>1</dim>
					<dim>1</dim>
				</port>
			</output>
		</layer>
		<layer id="193" name="138951389984046" type="Const" version="opset1">
			<data element_type="f32" offset="2860" shape="1,1,1,1" size="4"/>
			<output>
				<port id="0" precision="FP32">
					<dim>1</dim>
					<dim>1</dim>
					<dim>1</dim>
					<dim>1</dim>
				</port>
			</output>
		</layer>
		<layer id="194" name="138961390083455" type="Const" version="opset1">
			<data element_type="f32" offset="2856" shape="1,1,1,1" size="4"/>
			<output>
				<port id="0" precision="FP32">
					<dim>1</dim>
					<dim>1</dim>
					<dim>1</dim>
					<dim>1</dim>
				</port>
			</output>
		</layer>
		<layer id="195" name="138971390181664" type="Const" version="opset1">
			<data element_type="f32" offset="2860" shape="1,1,1,1" size="4"/>
			<output>
				<port id="0" precision="FP32">
					<dim>1</dim>
					<dim>1</dim>
					<dim>1</dim>
					<dim>1</dim>
				</port>
			</output>
		</layer>
		<layer id="196" name="227462275080170" type="Const" version="opset1">
			<data element_type="f32" offset="2864" shape="1,1,1,1" size="4"/>
			<output>
				<port id="0" precision="FP32">
					<dim>1</dim>
					<dim>1</dim>
					<dim>1</dim>
					<dim>1</dim>
				</port>
			</output>
		</layer>
		<layer id="197" name="227472275185144" type="Const" version="opset1">
			<data element_type="f32" offset="2868" shape="1,1,1,1" size="4"/>
			<output>
				<port id="0" precision="FP32">
					<dim>1</dim>
					<dim>1</dim>
					<dim>1</dim>
					<dim>1</dim>
				</port>
			</output>
		</layer>
		<layer id="198" name="227482275279405" type="Const" version="opset1">
			<data element_type="f32" offset="2864" shape="1,1,1,1" size="4"/>
			<output>
				<port id="0" precision="FP32">
					<dim>1</dim>
					<dim>1</dim>
					<dim>1</dim>
					<dim>1</dim>
				</port>
			</output>
		</layer>
		<layer id="199" name="227492275382489" type="Const" version="opset1">
			<data element_type="f32" offset="2868" shape="1,1,1,1" size="4"/>
			<output>
				<port id="0" precision="FP32">
					<dim>1</dim>
					<dim>1</dim>
					<dim>1</dim>
					<dim>1</dim>
				</port>
			</output>
		</layer>
		<layer id="200" name="226962270079090" type="Const" version="opset1">
			<data element_type="f32" offset="2872" shape="1,1,1,1" size="4"/>
			<output>
				<port id="0" precision="FP32">
					<dim>1</dim>
					<dim>1</dim>
					<dim>1</dim>
					<dim>1</dim>
				</port>
			</output>
		</layer>
		<layer id="201" name="226972270184904" type="Const" version="opset1">
			<data element_type="f32" offset="2876" shape="1,1,1,1" size="4"/>
			<output>
				<port id="0" precision="FP32">
					<dim>1</dim>
					<dim>1</dim>
					<dim>1</dim>
					<dim>1</dim>
				</port>
			</output>
		</layer>
		<layer id="202" name="226982270284955" type="Const" version="opset1">
			<data element_type="f32" offset="2872" shape="1,1,1,1" size="4"/>
			<output>
				<port id="0" precision="FP32">
					<dim>1</dim>
					<dim>1</dim>
					<dim>1</dim>
					<dim>1</dim>
				</port>
			</output>
		</layer>
		<layer id="203" name="226992270384142" type="Const" version="opset1">
			<data element_type="f32" offset="2876" shape="1,1,1,1" size="4"/>
			<output>
				<port id="0" precision="FP32">
					<dim>1</dim>
					<dim>1</dim>
					<dim>1</dim>
					<dim>1</dim>
				</port>
			</output>
		</layer>
		<layer id="204" name="226562266083164" type="Const" version="opset1">
			<data element_type="f32" offset="2880" shape="1,1,1,1" size="4"/>
			<output>
				<port id="0" precision="FP32">
					<dim>1</dim>
					<dim>1</dim>
					<dim>1</dim>
					<dim>1</dim>
				</port>
			</output>
		</layer>
		<layer id="205" name="226572266187817" type="Const" version="opset1">
			<data element_type="f32" offset="2884" shape="1,1,1,1" size="4"/>
			<output>
				<port id="0" precision="FP32">
					<dim>1</dim>
					<dim>1</dim>
					<dim>1</dim>
					<dim>1</dim>
				</port>
			</output>
		</layer>
		<layer id="206" name="226582266282951" type="Const" version="opset1">
			<data element_type="f32" offset="2880" shape="1,1,1,1" size="4"/>
			<output>
				<port id="0" precision="FP32">
					<dim>1</dim>
					<dim>1</dim>
					<dim>1</dim>
					<dim>1</dim>
				</port>
			</output>
		</layer>
		<layer id="207" name="226592266388192" type="Const" version="opset1">
			<data element_type="f32" offset="2884" shape="1,1,1,1" size="4"/>
			<output>
				<port id="0" precision="FP32">
					<dim>1</dim>
					<dim>1</dim>
					<dim>1</dim>
					<dim>1</dim>
				</port>
			</output>
		</layer>
		<layer id="208" name="226262263082243" type="Const" version="opset1">
			<data element_type="f32" offset="2888" shape="1,1,1,1" size="4"/>
			<output>
				<port id="0" precision="FP32">
					<dim>1</dim>
					<dim>1</dim>
					<dim>1</dim>
					<dim>1</dim>
				</port>
			</output>
		</layer>
		<layer id="209" name="226272263181775" type="Const" version="opset1">
			<data element_type="f32" offset="2892" shape="1,1,1,1" size="4"/>
			<output>
				<port id="0" precision="FP32">
					<dim>1</dim>
					<dim>1</dim>
					<dim>1</dim>
					<dim>1</dim>
				</port>
			</output>
		</layer>
		<layer id="210" name="226282263279582" type="Const" version="opset1">
			<data element_type="f32" offset="2888" shape="1,1,1,1" size="4"/>
			<output>
				<port id="0" precision="FP32">
					<dim>1</dim>
					<dim>1</dim>
					<dim>1</dim>
					<dim>1</dim>
				</port>
			</output>
		</layer>
		<layer id="211" name="226292263386749" type="Const" version="opset1">
			<data element_type="f32" offset="2892" shape="1,1,1,1" size="4"/>
			<output>
				<port id="0" precision="FP32">
					<dim>1</dim>
					<dim>1</dim>
					<dim>1</dim>
					<dim>1</dim>
				</port>
			</output>
		</layer>
		<layer id="212" name="139041390881298" type="Const" version="opset1">
			<data element_type="f32" offset="2896" shape="1,1,1,1" size="4"/>
			<output>
				<port id="0" precision="FP32">
					<dim>1</dim>
					<dim>1</dim>
					<dim>1</dim>
					<dim>1</dim>
				</port>
			</output>
		</layer>
		<layer id="213" name="139051390982771" type="Const" version="opset1">
			<data element_type="f32" offset="2900" shape="1,1,1,1" size="4"/>
			<output>
				<port id="0" precision="FP32">
					<dim>1</dim>
					<dim>1</dim>
					<dim>1</dim>
					<dim>1</dim>
				</port>
			</output>
		</layer>
		<layer id="214" name="139061391085207" type="Const" version="opset1">
			<data element_type="f32" offset="2896" shape="1,1,1,1" size="4"/>
			<output>
				<port id="0" precision="FP32">
					<dim>1</dim>
					<dim>1</dim>
					<dim>1</dim>
					<dim>1</dim>
				</port>
			</output>
		</layer>
		<layer id="215" name="139071391187244" type="Const" version="opset1">
			<data element_type="f32" offset="2900" shape="1,1,1,1" size="4"/>
			<output>
				<port id="0" precision="FP32">
					<dim>1</dim>
					<dim>1</dim>
					<dim>1</dim>
					<dim>1</dim>
				</port>
			</output>
		</layer>
		<layer id="216" name="100131001781265" type="Const" version="opset1">
			<data element_type="f32" offset="2904" shape="1,1,1,1" size="4"/>
			<output>
				<port id="0" precision="FP32">
					<dim>1</dim>
					<dim>1</dim>
					<dim>1</dim>
					<dim>1</dim>
				</port>
			</output>
		</layer>
		<layer id="217" name="100141001887652" type="Const" version="opset1">
			<data element_type="f32" offset="2908" shape="1,1,1,1" size="4"/>
			<output>
				<port id="0" precision="FP32">
					<dim>1</dim>
					<dim>1</dim>
					<dim>1</dim>
					<dim>1</dim>
				</port>
			</output>
		</layer>
		<layer id="218" name="100151001985738" type="Const" version="opset1">
			<data element_type="f32" offset="2904" shape="1,1,1,1" size="4"/>
			<output>
				<port id="0" precision="FP32">
					<dim>1</dim>
					<dim>1</dim>
					<dim>1</dim>
					<dim>1</dim>
				</port>
			</output>
		</layer>
		<layer id="219" name="100161002089353" type="Const" version="opset1">
			<data element_type="f32" offset="2908" shape="1,1,1,1" size="4"/>
			<output>
				<port id="0" precision="FP32">
					<dim>1</dim>
					<dim>1</dim>
					<dim>1</dim>
					<dim>1</dim>
				</port>
			</output>
		</layer>
		<layer id="220" name="112131121784508" type="Const" version="opset1">
			<data element_type="f32" offset="2912" shape="1,1,1,1" size="4"/>
			<output>
				<port id="0" precision="FP32">
					<dim>1</dim>
					<dim>1</dim>
					<dim>1</dim>
					<dim>1</dim>
				</port>
			</output>
		</layer>
		<layer id="221" name="112141121887904" type="Const" version="opset1">
			<data element_type="f32" offset="2916" shape="1,1,1,1" size="4"/>
			<output>
				<port id="0" precision="FP32">
					<dim>1</dim>
					<dim>1</dim>
					<dim>1</dim>
					<dim>1</dim>
				</port>
			</output>
		</layer>
		<layer id="222" name="112151121986437" type="Const" version="opset1">
			<data element_type="f32" offset="2912" shape="1,1,1,1" size="4"/>
			<output>
				<port id="0" precision="FP32">
					<dim>1</dim>
					<dim>1</dim>
					<dim>1</dim>
					<dim>1</dim>
				</port>
			</output>
		</layer>
		<layer id="223" name="112161122080755" type="Const" version="opset1">
			<data element_type="f32" offset="2916" shape="1,1,1,1" size="4"/>
			<output>
				<port id="0" precision="FP32">
					<dim>1</dim>
					<dim>1</dim>
					<dim>1</dim>
					<dim>1</dim>
				</port>
			</output>
		</layer>
		<layer id="224" name="139741397885063" type="Const" version="opset1">
			<data element_type="f32" offset="2920" shape="1,1,1,1" size="4"/>
			<output>
				<port id="0" precision="FP32">
					<dim>1</dim>
					<dim>1</dim>
					<dim>1</dim>
					<dim>1</dim>
				</port>
			</output>
		</layer>
		<layer id="225" name="139751397985156" type="Const" version="opset1">
			<data element_type="f32" offset="2924" shape="1,1,1,1" size="4"/>
			<output>
				<port id="0" precision="FP32">
					<dim>1</dim>
					<dim>1</dim>
					<dim>1</dim>
					<dim>1</dim>
				</port>
			</output>
		</layer>
		<layer id="226" name="139761398084280" type="Const" version="opset1">
			<data element_type="f32" offset="2920" shape="1,1,1,1" size="4"/>
			<output>
				<port id="0" precision="FP32">
					<dim>1</dim>
					<dim>1</dim>
					<dim>1</dim>
					<dim>1</dim>
				</port>
			</output>
		</layer>
		<layer id="227" name="139771398180812" type="Const" version="opset1">
			<data element_type="f32" offset="2924" shape="1,1,1,1" size="4"/>
			<output>
				<port id="0" precision="FP32">
					<dim>1</dim>
					<dim>1</dim>
					<dim>1</dim>
					<dim>1</dim>
				</port>
			</output>
		</layer>
		<layer id="228" name="226062261080665" type="Const" version="opset1">
			<data element_type="f32" offset="2928" shape="1,1,1,1" size="4"/>
			<output>
				<port id="0" precision="FP32">
					<dim>1</dim>
					<dim>1</dim>
					<dim>1</dim>
					<dim>1</dim>
				</port>
			</output>
		</layer>
		<layer id="229" name="226072261186293" type="Const" version="opset1">
			<data element_type="f32" offset="2932" shape="1,1,1,1" size="4"/>
			<output>
				<port id="0" precision="FP32">
					<dim>1</dim>
					<dim>1</dim>
					<dim>1</dim>
					<dim>1</dim>
				</port>
			</output>
		</layer>
		<layer id="230" name="226082261281280" type="Const" version="opset1">
			<data element_type="f32" offset="2928" shape="1,1,1,1" size="4"/>
			<output>
				<port id="0" precision="FP32">
					<dim>1</dim>
					<dim>1</dim>
					<dim>1</dim>
					<dim>1</dim>
				</port>
			</output>
		</layer>
		<layer id="231" name="226092261386842" type="Const" version="opset1">
			<data element_type="f32" offset="2932" shape="1,1,1,1" size="4"/>
			<output>
				<port id="0" precision="FP32">
					<dim>1</dim>
					<dim>1</dim>
					<dim>1</dim>
					<dim>1</dim>
				</port>
			</output>
		</layer>
		<layer id="232" name="225562256083734" type="Const" version="opset1">
			<data element_type="f32" offset="2936" shape="1,1,1,1" size="4"/>
			<output>
				<port id="0" precision="FP32">
					<dim>1</dim>
					<dim>1</dim>
					<dim>1</dim>
					<dim>1</dim>
				</port>
			</output>
		</layer>
		<layer id="233" name="225572256183980" type="Const" version="opset1">
			<data element_type="f32" offset="2940" shape="1,1,1,1" size="4"/>
			<output>
				<port id="0" precision="FP32">
					<dim>1</dim>
					<dim>1</dim>
					<dim>1</dim>
					<dim>1</dim>
				</port>
			</output>
		</layer>
		<layer id="234" name="225582256285525" type="Const" version="opset1">
			<data element_type="f32" offset="2936" shape="1,1,1,1" size="4"/>
			<output>
				<port id="0" precision="FP32">
					<dim>1</dim>
					<dim>1</dim>
					<dim>1</dim>
					<dim>1</dim>
				</port>
			</output>
		</layer>
		<layer id="235" name="225592256389371" type="Const" version="opset1">
			<data element_type="f32" offset="2940" shape="1,1,1,1" size="4"/>
			<output>
				<port id="0" precision="FP32">
					<dim>1</dim>
					<dim>1</dim>
					<dim>1</dim>
					<dim>1</dim>
				</port>
			</output>
		</layer>
		<layer id="236" name="224962250085366" type="Const" version="opset1">
			<data element_type="f32" offset="2944" shape="1,1,1,1" size="4"/>
			<output>
				<port id="0" precision="FP32">
					<dim>1</dim>
					<dim>1</dim>
					<dim>1</dim>
					<dim>1</dim>
				</port>
			</output>
		</layer>
		<layer id="237" name="224972250188924" type="Const" version="opset1">
			<data element_type="f32" offset="2948" shape="1,1,1,1" size="4"/>
			<output>
				<port id="0" precision="FP32">
					<dim>1</dim>
					<dim>1</dim>
					<dim>1</dim>
					<dim>1</dim>
				</port>
			</output>
		</layer>
		<layer id="238" name="224982250283143" type="Const" version="opset1">
			<data element_type="f32" offset="2944" shape="1,1,1,1" size="4"/>
			<output>
				<port id="0" precision="FP32">
					<dim>1</dim>
					<dim>1</dim>
					<dim>1</dim>
					<dim>1</dim>
				</port>
			</output>
		</layer>
		<layer id="239" name="224992250388636" type="Const" version="opset1">
			<data element_type="f32" offset="2948" shape="1,1,1,1" size="4"/>
			<output>
				<port id="0" precision="FP32">
					<dim>1</dim>
					<dim>1</dim>
					<dim>1</dim>
					<dim>1</dim>
				</port>
			</output>
		</layer>
		<layer id="240" name="224662247083962" type="Const" version="opset1">
			<data element_type="f32" offset="2952" shape="1,1,1,1" size="4"/>
			<output>
				<port id="0" precision="FP32">
					<dim>1</dim>
					<dim>1</dim>
					<dim>1</dim>
					<dim>1</dim>
				</port>
			</output>
		</layer>
		<layer id="241" name="224672247187433" type="Const" version="opset1">
			<data element_type="f32" offset="2956" shape="1,1,1,1" size="4"/>
			<output>
				<port id="0" precision="FP32">
					<dim>1</dim>
					<dim>1</dim>
					<dim>1</dim>
					<dim>1</dim>
				</port>
			</output>
		</layer>
		<layer id="242" name="224682247285066" type="Const" version="opset1">
			<data element_type="f32" offset="2952" shape="1,1,1,1" size="4"/>
			<output>
				<port id="0" precision="FP32">
					<dim>1</dim>
					<dim>1</dim>
					<dim>1</dim>
					<dim>1</dim>
				</port>
			</output>
		</layer>
		<layer id="243" name="224692247386161" type="Const" version="opset1">
			<data element_type="f32" offset="2956" shape="1,1,1,1" size="4"/>
			<output>
				<port id="0" precision="FP32">
					<dim>1</dim>
					<dim>1</dim>
					<dim>1</dim>
					<dim>1</dim>
				</port>
			</output>
		</layer>
		<layer id="244" name="139841398881181" type="Const" version="opset1">
			<data element_type="f32" offset="2960" shape="1,1,1,1" size="4"/>
			<output>
				<port id="0" precision="FP32">
					<dim>1</dim>
					<dim>1</dim>
					<dim>1</dim>
					<dim>1</dim>
				</port>
			</output>
		</layer>
		<layer id="245" name="139851398984796" type="Const" version="opset1">
			<data element_type="f32" offset="2964" shape="1,1,1,1" size="4"/>
			<output>
				<port id="0" precision="FP32">
					<dim>1</dim>
					<dim>1</dim>
					<dim>1</dim>
					<dim>1</dim>
				</port>
			</output>
		</layer>
		<layer id="246" name="139861399084583" type="Const" version="opset1">
			<data element_type="f32" offset="2960" shape="1,1,1,1" size="4"/>
			<output>
				<port id="0" precision="FP32">
					<dim>1</dim>
					<dim>1</dim>
					<dim>1</dim>
					<dim>1</dim>
				</port>
			</output>
		</layer>
		<layer id="247" name="139871399184505" type="Const" version="opset1">
			<data element_type="f32" offset="2964" shape="1,1,1,1" size="4"/>
			<output>
				<port id="0" precision="FP32">
					<dim>1</dim>
					<dim>1</dim>
					<dim>1</dim>
					<dim>1</dim>
				</port>
			</output>
		</layer>
		<layer id="248" name="152341523883596" type="Const" version="opset1">
			<data element_type="f32" offset="2968" shape="1,1,1,1" size="4"/>
			<output>
				<port id="0" precision="FP32">
					<dim>1</dim>
					<dim>1</dim>
					<dim>1</dim>
					<dim>1</dim>
				</port>
			</output>
		</layer>
		<layer id="249" name="152351523987658" type="Const" version="opset1">
			<data element_type="f32" offset="2972" shape="1,1,1,1" size="4"/>
			<output>
				<port id="0" precision="FP32">
					<dim>1</dim>
					<dim>1</dim>
					<dim>1</dim>
					<dim>1</dim>
				</port>
			</output>
		</layer>
		<layer id="250" name="152361524080467" type="Const" version="opset1">
			<data element_type="f32" offset="2968" shape="1,1,1,1" size="4"/>
			<output>
				<port id="0" precision="FP32">
					<dim>1</dim>
					<dim>1</dim>
					<dim>1</dim>
					<dim>1</dim>
				</port>
			</output>
		</layer>
		<layer id="251" name="152371524180380" type="Const" version="opset1">
			<data element_type="f32" offset="2972" shape="1,1,1,1" size="4"/>
			<output>
				<port id="0" precision="FP32">
					<dim>1</dim>
					<dim>1</dim>
					<dim>1</dim>
					<dim>1</dim>
				</port>
			</output>
		</layer>
		<layer id="252" name="224462245080140" type="Const" version="opset1">
			<data element_type="f32" offset="2976" shape="1,1,1,1" size="4"/>
			<output>
				<port id="0" precision="FP32">
					<dim>1</dim>
					<dim>1</dim>
					<dim>1</dim>
					<dim>1</dim>
				</port>
			</output>
		</layer>
		<layer id="253" name="224472245184949" type="Const" version="opset1">
			<data element_type="f32" offset="2980" shape="1,1,1,1" size="4"/>
			<output>
				<port id="0" precision="FP32">
					<dim>1</dim>
					<dim>1</dim>
					<dim>1</dim>
					<dim>1</dim>
				</port>
			</output>
		</layer>
		<layer id="254" name="224482245279852" type="Const" version="opset1">
			<data element_type="f32" offset="2976" shape="1,1,1,1" size="4"/>
			<output>
				<port id="0" precision="FP32">
					<dim>1</dim>
					<dim>1</dim>
					<dim>1</dim>
					<dim>1</dim>
				</port>
			</output>
		</layer>
		<layer id="255" name="224492245382681" type="Const" version="opset1">
			<data element_type="f32" offset="2980" shape="1,1,1,1" size="4"/>
			<output>
				<port id="0" precision="FP32">
					<dim>1</dim>
					<dim>1</dim>
					<dim>1</dim>
					<dim>1</dim>
				</port>
			</output>
		</layer>
		<layer id="256" name="223962240089044" type="Const" version="opset1">
			<data element_type="f32" offset="2984" shape="1,1,1,1" size="4"/>
			<output>
				<port id="0" precision="FP32">
					<dim>1</dim>
					<dim>1</dim>
					<dim>1</dim>
					<dim>1</dim>
				</port>
			</output>
		</layer>
		<layer id="257" name="223972240181028" type="Const" version="opset1">
			<data element_type="f32" offset="2988" shape="1,1,1,1" size="4"/>
			<output>
				<port id="0" precision="FP32">
					<dim>1</dim>
					<dim>1</dim>
					<dim>1</dim>
					<dim>1</dim>
				</port>
			</output>
		</layer>
		<layer id="258" name="223982240288030" type="Const" version="opset1">
			<data element_type="f32" offset="2984" shape="1,1,1,1" size="4"/>
			<output>
				<port id="0" precision="FP32">
					<dim>1</dim>
					<dim>1</dim>
					<dim>1</dim>
					<dim>1</dim>
				</port>
			</output>
		</layer>
		<layer id="259" name="223992240379480" type="Const" version="opset1">
			<data element_type="f32" offset="2988" shape="1,1,1,1" size="4"/>
			<output>
				<port id="0" precision="FP32">
					<dim>1</dim>
					<dim>1</dim>
					<dim>1</dim>
					<dim>1</dim>
				</port>
			</output>
		</layer>
		<layer id="260" name="223562236087559" type="Const" version="opset1">
			<data element_type="f32" offset="2992" shape="1,1,1,1" size="4"/>
			<output>
				<port id="0" precision="FP32">
					<dim>1</dim>
					<dim>1</dim>
					<dim>1</dim>
					<dim>1</dim>
				</port>
			</output>
		</layer>
		<layer id="261" name="223572236189509" type="Const" version="opset1">
			<data element_type="f32" offset="2996" shape="1,1,1,1" size="4"/>
			<output>
				<port id="0" precision="FP32">
					<dim>1</dim>
					<dim>1</dim>
					<dim>1</dim>
					<dim>1</dim>
				</port>
			</output>
		</layer>
		<layer id="262" name="223582236286221" type="Const" version="opset1">
			<data element_type="f32" offset="2992" shape="1,1,1,1" size="4"/>
			<output>
				<port id="0" precision="FP32">
					<dim>1</dim>
					<dim>1</dim>
					<dim>1</dim>
					<dim>1</dim>
				</port>
			</output>
		</layer>
		<layer id="263" name="223592236381145" type="Const" version="opset1">
			<data element_type="f32" offset="2996" shape="1,1,1,1" size="4"/>
			<output>
				<port id="0" precision="FP32">
					<dim>1</dim>
					<dim>1</dim>
					<dim>1</dim>
					<dim>1</dim>
				</port>
			</output>
		</layer>
		<layer id="264" name="223262233085135" type="Const" version="opset1">
			<data element_type="f32" offset="3000" shape="1,1,1,1" size="4"/>
			<output>
				<port id="0" precision="FP32">
					<dim>1</dim>
					<dim>1</dim>
					<dim>1</dim>
					<dim>1</dim>
				</port>
			</output>
		</layer>
		<layer id="265" name="223272233186011" type="Const" version="opset1">
			<data element_type="f32" offset="3004" shape="1,1,1,1" size="4"/>
			<output>
				<port id="0" precision="FP32">
					<dim>1</dim>
					<dim>1</dim>
					<dim>1</dim>
					<dim>1</dim>
				</port>
			</output>
		</layer>
		<layer id="266" name="223282233282057" type="Const" version="opset1">
			<data element_type="f32" offset="3000" shape="1,1,1,1" size="4"/>
			<output>
				<port id="0" precision="FP32">
					<dim>1</dim>
					<dim>1</dim>
					<dim>1</dim>
					<dim>1</dim>
				</port>
			</output>
		</layer>
		<layer id="267" name="223292233382237" type="Const" version="opset1">
			<data element_type="f32" offset="3004" shape="1,1,1,1" size="4"/>
			<output>
				<port id="0" precision="FP32">
					<dim>1</dim>
					<dim>1</dim>
					<dim>1</dim>
					<dim>1</dim>
				</port>
			</output>
		</layer>
		<layer id="268" name="152441524884316" type="Const" version="opset1">
			<data element_type="f32" offset="3008" shape="1,1,1,1" size="4"/>
			<output>
				<port id="0" precision="FP32">
					<dim>1</dim>
					<dim>1</dim>
					<dim>1</dim>
					<dim>1</dim>
				</port>
			</output>
		</layer>
		<layer id="269" name="152451524983554" type="Const" version="opset1">
			<data element_type="f32" offset="3012" shape="1,1,1,1" size="4"/>
			<output>
				<port id="0" precision="FP32">
					<dim>1</dim>
					<dim>1</dim>
					<dim>1</dim>
					<dim>1</dim>
				</port>
			</output>
		</layer>
		<layer id="270" name="152461525086752" type="Const" version="opset1">
			<data element_type="f32" offset="3008" shape="1,1,1,1" size="4"/>
			<output>
				<port id="0" precision="FP32">
					<dim>1</dim>
					<dim>1</dim>
					<dim>1</dim>
					<dim>1</dim>
				</port>
			</output>
		</layer>
		<layer id="271" name="152471525186074" type="Const" version="opset1">
			<data element_type="f32" offset="3012" shape="1,1,1,1" size="4"/>
			<output>
				<port id="0" precision="FP32">
					<dim>1</dim>
					<dim>1</dim>
					<dim>1</dim>
					<dim>1</dim>
				</port>
			</output>
		</layer>
		<layer id="272" name="168741687887895" type="Const" version="opset1">
			<data element_type="f32" offset="3016" shape="1,1,1,1" size="4"/>
			<output>
				<port id="0" precision="FP32">
					<dim>1</dim>
					<dim>1</dim>
					<dim>1</dim>
					<dim>1</dim>
				</port>
			</output>
		</layer>
		<layer id="273" name="168751687979501" type="Const" version="opset1">
			<data element_type="f32" offset="3020" shape="1,1,1,1" size="4"/>
			<output>
				<port id="0" precision="FP32">
					<dim>1</dim>
					<dim>1</dim>
					<dim>1</dim>
					<dim>1</dim>
				</port>
			</output>
		</layer>
		<layer id="274" name="168761688083179" type="Const" version="opset1">
			<data element_type="f32" offset="3016" shape="1,1,1,1" size="4"/>
			<output>
				<port id="0" precision="FP32">
					<dim>1</dim>
					<dim>1</dim>
					<dim>1</dim>
					<dim>1</dim>
				</port>
			</output>
		</layer>
		<layer id="275" name="168771688188411" type="Const" version="opset1">
			<data element_type="f32" offset="3020" shape="1,1,1,1" size="4"/>
			<output>
				<port id="0" precision="FP32">
					<dim>1</dim>
					<dim>1</dim>
					<dim>1</dim>
					<dim>1</dim>
				</port>
			</output>
		</layer>
		<layer id="276" name="223062231079330" type="Const" version="opset1">
			<data element_type="f32" offset="3024" shape="1,1,1,1" size="4"/>
			<output>
				<port id="0" precision="FP32">
					<dim>1</dim>
					<dim>1</dim>
					<dim>1</dim>
					<dim>1</dim>
				</port>
			</output>
		</layer>
		<layer id="277" name="223072231185111" type="Const" version="opset1">
			<data element_type="f32" offset="3028" shape="1,1,1,1" size="4"/>
			<output>
				<port id="0" precision="FP32">
					<dim>1</dim>
					<dim>1</dim>
					<dim>1</dim>
					<dim>1</dim>
				</port>
			</output>
		</layer>
		<layer id="278" name="223082231283998" type="Const" version="opset1">
			<data element_type="f32" offset="3024" shape="1,1,1,1" size="4"/>
			<output>
				<port id="0" precision="FP32">
					<dim>1</dim>
					<dim>1</dim>
					<dim>1</dim>
					<dim>1</dim>
				</port>
			</output>
		</layer>
		<layer id="279" name="223092231383377" type="Const" version="opset1">
			<data element_type="f32" offset="3028" shape="1,1,1,1" size="4"/>
			<output>
				<port id="0" precision="FP32">
					<dim>1</dim>
					<dim>1</dim>
					<dim>1</dim>
					<dim>1</dim>
				</port>
			</output>
		</layer>
		<layer id="280" name="222562226088864" type="Const" version="opset1">
			<data element_type="f32" offset="3032" shape="1,1,1,1" size="4"/>
			<output>
				<port id="0" precision="FP32">
					<dim>1</dim>
					<dim>1</dim>
					<dim>1</dim>
					<dim>1</dim>
				</port>
			</output>
		</layer>
		<layer id="281" name="222572226188711" type="Const" version="opset1">
			<data element_type="f32" offset="3036" shape="1,1,1,1" size="4"/>
			<output>
				<port id="0" precision="FP32">
					<dim>1</dim>
					<dim>1</dim>
					<dim>1</dim>
					<dim>1</dim>
				</port>
			</output>
		</layer>
		<layer id="282" name="222582226283347" type="Const" version="opset1">
			<data element_type="f32" offset="3032" shape="1,1,1,1" size="4"/>
			<output>
				<port id="0" precision="FP32">
					<dim>1</dim>
					<dim>1</dim>
					<dim>1</dim>
					<dim>1</dim>
				</port>
			</output>
		</layer>
		<layer id="283" name="222592226386083" type="Const" version="opset1">
			<data element_type="f32" offset="3036" shape="1,1,1,1" size="4"/>
			<output>
				<port id="0" precision="FP32">
					<dim>1</dim>
					<dim>1</dim>
					<dim>1</dim>
					<dim>1</dim>
				</port>
			</output>
		</layer>
		<layer id="284" name="222162222083404" type="Const" version="opset1">
			<data element_type="f32" offset="3040" shape="1,1,1,1" size="4"/>
			<output>
				<port id="0" precision="FP32">
					<dim>1</dim>
					<dim>1</dim>
					<dim>1</dim>
					<dim>1</dim>
				</port>
			</output>
		</layer>
		<layer id="285" name="222172222185384" type="Const" version="opset1">
			<data element_type="f32" offset="3044" shape="1,1,1,1" size="4"/>
			<output>
				<port id="0" precision="FP32">
					<dim>1</dim>
					<dim>1</dim>
					<dim>1</dim>
					<dim>1</dim>
				</port>
			</output>
		</layer>
		<layer id="286" name="222182222281892" type="Const" version="opset1">
			<data element_type="f32" offset="3040" shape="1,1,1,1" size="4"/>
			<output>
				<port id="0" precision="FP32">
					<dim>1</dim>
					<dim>1</dim>
					<dim>1</dim>
					<dim>1</dim>
				</port>
			</output>
		</layer>
		<layer id="287" name="222192222386581" type="Const" version="opset1">
			<data element_type="f32" offset="3044" shape="1,1,1,1" size="4"/>
			<output>
				<port id="0" precision="FP32">
					<dim>1</dim>
					<dim>1</dim>
					<dim>1</dim>
					<dim>1</dim>
				</port>
			</output>
		</layer>
		<layer id="288" name="221862219089050" type="Const" version="opset1">
			<data element_type="f32" offset="3048" shape="1,1,1,1" size="4"/>
			<output>
				<port id="0" precision="FP32">
					<dim>1</dim>
					<dim>1</dim>
					<dim>1</dim>
					<dim>1</dim>
				</port>
			</output>
		</layer>
		<layer id="289" name="221872219182270" type="Const" version="opset1">
			<data element_type="f32" offset="3052" shape="1,1,1,1" size="4"/>
			<output>
				<port id="0" precision="FP32">
					<dim>1</dim>
					<dim>1</dim>
					<dim>1</dim>
					<dim>1</dim>
				</port>
			</output>
		</layer>
		<layer id="290" name="221882219288813" type="Const" version="opset1">
			<data element_type="f32" offset="3048" shape="1,1,1,1" size="4"/>
			<output>
				<port id="0" precision="FP32">
					<dim>1</dim>
					<dim>1</dim>
					<dim>1</dim>
					<dim>1</dim>
				</port>
			</output>
		</layer>
		<layer id="291" name="221892219381553" type="Const" version="opset1">
			<data element_type="f32" offset="3052" shape="1,1,1,1" size="4"/>
			<output>
				<port id="0" precision="FP32">
					<dim>1</dim>
					<dim>1</dim>
					<dim>1</dim>
					<dim>1</dim>
				</port>
			</output>
		</layer>
		<layer id="292" name="168841688882084" type="Const" version="opset1">
			<data element_type="f32" offset="3056" shape="1,1,1,1" size="4"/>
			<output>
				<port id="0" precision="FP32">
					<dim>1</dim>
					<dim>1</dim>
					<dim>1</dim>
					<dim>1</dim>
				</port>
			</output>
		</layer>
		<layer id="293" name="168851688987529" type="Const" version="opset1">
			<data element_type="f32" offset="3060" shape="1,1,1,1" size="4"/>
			<output>
				<port id="0" precision="FP32">
					<dim>1</dim>
					<dim>1</dim>
					<dim>1</dim>
					<dim>1</dim>
				</port>
			</output>
		</layer>
		<layer id="294" name="168861689085660" type="Const" version="opset1">
			<data element_type="f32" offset="3056" shape="1,1,1,1" size="4"/>
			<output>
				<port id="0" precision="FP32">
					<dim>1</dim>
					<dim>1</dim>
					<dim>1</dim>
					<dim>1</dim>
				</port>
			</output>
		</layer>
		<layer id="295" name="168871689187088" type="Const" version="opset1">
			<data element_type="f32" offset="3060" shape="1,1,1,1" size="4"/>
			<output>
				<port id="0" precision="FP32">
					<dim>1</dim>
					<dim>1</dim>
					<dim>1</dim>
					<dim>1</dim>
				</port>
			</output>
		</layer>
		<layer id="296" name="125331253789401" type="Const" version="opset1">
			<data element_type="f32" offset="3064" shape="1,1,1,1" size="4"/>
			<output>
				<port id="0" precision="FP32">
					<dim>1</dim>
					<dim>1</dim>
					<dim>1</dim>
					<dim>1</dim>
				</port>
			</output>
		</layer>
		<layer id="297" name="125341253879282" type="Const" version="opset1">
			<data element_type="f32" offset="3068" shape="1,1,1,1" size="4"/>
			<output>
				<port id="0" precision="FP32">
					<dim>1</dim>
					<dim>1</dim>
					<dim>1</dim>
					<dim>1</dim>
				</port>
			</output>
		</layer>
		<layer id="298" name="125351253986401" type="Const" version="opset1">
			<data element_type="f32" offset="3064" shape="1,1,1,1" size="4"/>
			<output>
				<port id="0" precision="FP32">
					<dim>1</dim>
					<dim>1</dim>
					<dim>1</dim>
					<dim>1</dim>
				</port>
			</output>
		</layer>
		<layer id="299" name="125361254087703" type="Const" version="opset1">
			<data element_type="f32" offset="3068" shape="1,1,1,1" size="4"/>
			<output>
				<port id="0" precision="FP32">
					<dim>1</dim>
					<dim>1</dim>
					<dim>1</dim>
					<dim>1</dim>
				</port>
			</output>
		</layer>
		<layer id="300" name="115931159782264" type="Const" version="opset1">
			<data element_type="f32" offset="3072" shape="1,1,1,1" size="4"/>
			<output>
				<port id="0" precision="FP32">
					<dim>1</dim>
					<dim>1</dim>
					<dim>1</dim>
					<dim>1</dim>
				</port>
			</output>
		</layer>
		<layer id="301" name="115941159880263" type="Const" version="opset1">
			<data element_type="f32" offset="3076" shape="1,1,1,1" size="4"/>
			<output>
				<port id="0" precision="FP32">
					<dim>1</dim>
					<dim>1</dim>
					<dim>1</dim>
					<dim>1</dim>
				</port>
			</output>
		</layer>
		<layer id="302" name="115951159982672" type="Const" version="opset1">
			<data element_type="f32" offset="3072" shape="1,1,1,1" size="4"/>
			<output>
				<port id="0" precision="FP32">
					<dim>1</dim>
					<dim>1</dim>
					<dim>1</dim>
					<dim>1</dim>
				</port>
			</output>
		</layer>
		<layer id="303" name="115961160087451" type="Const" version="opset1">
			<data element_type="f32" offset="3076" shape="1,1,1,1" size="4"/>
			<output>
				<port id="0" precision="FP32">
					<dim>1</dim>
					<dim>1</dim>
					<dim>1</dim>
					<dim>1</dim>
				</port>
			</output>
		</layer>
		<layer id="304" name="151341513878952" type="Const" version="opset1">
			<data element_type="f32" offset="3080" shape="1,1,1,1" size="4"/>
			<output>
				<port id="0" precision="FP32">
					<dim>1</dim>
					<dim>1</dim>
					<dim>1</dim>
					<dim>1</dim>
				</port>
			</output>
		</layer>
		<layer id="305" name="151351513979618" type="Const" version="opset1">
			<data element_type="f32" offset="3084" shape="1,1,1,1" size="4"/>
			<output>
				<port id="0" precision="FP32">
					<dim>1</dim>
					<dim>1</dim>
					<dim>1</dim>
					<dim>1</dim>
				</port>
			</output>
		</layer>
		<layer id="306" name="151361514083263" type="Const" version="opset1">
			<data element_type="f32" offset="3080" shape="1,1,1,1" size="4"/>
			<output>
				<port id="0" precision="FP32">
					<dim>1</dim>
					<dim>1</dim>
					<dim>1</dim>
					<dim>1</dim>
				</port>
			</output>
		</layer>
		<layer id="307" name="151371514179816" type="Const" version="opset1">
			<data element_type="f32" offset="3084" shape="1,1,1,1" size="4"/>
			<output>
				<port id="0" precision="FP32">
					<dim>1</dim>
					<dim>1</dim>
					<dim>1</dim>
					<dim>1</dim>
				</port>
			</output>
		</layer>
		<layer id="308" name="221662217084721" type="Const" version="opset1">
			<data element_type="f32" offset="3088" shape="1,1,1,1" size="4"/>
			<output>
				<port id="0" precision="FP32">
					<dim>1</dim>
					<dim>1</dim>
					<dim>1</dim>
					<dim>1</dim>
				</port>
			</output>
		</layer>
		<layer id="309" name="221672217179966" type="Const" version="opset1">
			<data element_type="f32" offset="3092" shape="1,1,1,1" size="4"/>
			<output>
				<port id="0" precision="FP32">
					<dim>1</dim>
					<dim>1</dim>
					<dim>1</dim>
					<dim>1</dim>
				</port>
			</output>
		</layer>
		<layer id="310" name="221682217280848" type="Const" version="opset1">
			<data element_type="f32" offset="3088" shape="1,1,1,1" size="4"/>
			<output>
				<port id="0" precision="FP32">
					<dim>1</dim>
					<dim>1</dim>
					<dim>1</dim>
					<dim>1</dim>
				</port>
			</output>
		</layer>
		<layer id="311" name="221692217389152" type="Const" version="opset1">
			<data element_type="f32" offset="3092" shape="1,1,1,1" size="4"/>
			<output>
				<port id="0" precision="FP32">
					<dim>1</dim>
					<dim>1</dim>
					<dim>1</dim>
					<dim>1</dim>
				</port>
			</output>
		</layer>
		<layer id="312" name="221162212081100" type="Const" version="opset1">
			<data element_type="f32" offset="3096" shape="1,1,1,1" size="4"/>
			<output>
				<port id="0" precision="FP32">
					<dim>1</dim>
					<dim>1</dim>
					<dim>1</dim>
					<dim>1</dim>
				</port>
			</output>
		</layer>
		<layer id="313" name="221172212181436" type="Const" version="opset1">
			<data element_type="f32" offset="3100" shape="1,1,1,1" size="4"/>
			<output>
				<port id="0" precision="FP32">
					<dim>1</dim>
					<dim>1</dim>
					<dim>1</dim>
					<dim>1</dim>
				</port>
			</output>
		</layer>
		<layer id="314" name="221182212288009" type="Const" version="opset1">
			<data element_type="f32" offset="3096" shape="1,1,1,1" size="4"/>
			<output>
				<port id="0" precision="FP32">
					<dim>1</dim>
					<dim>1</dim>
					<dim>1</dim>
					<dim>1</dim>
				</port>
			</output>
		</layer>
		<layer id="315" name="221192212384400" type="Const" version="opset1">
			<data element_type="f32" offset="3100" shape="1,1,1,1" size="4"/>
			<output>
				<port id="0" precision="FP32">
					<dim>1</dim>
					<dim>1</dim>
					<dim>1</dim>
					<dim>1</dim>
				</port>
			</output>
		</layer>
		<layer id="316" name="220762208081748" type="Const" version="opset1">
			<data element_type="f32" offset="3104" shape="1,1,1,1" size="4"/>
			<output>
				<port id="0" precision="FP32">
					<dim>1</dim>
					<dim>1</dim>
					<dim>1</dim>
					<dim>1</dim>
				</port>
			</output>
		</layer>
		<layer id="317" name="220772208184070" type="Const" version="opset1">
			<data element_type="f32" offset="3108" shape="1,1,1,1" size="4"/>
			<output>
				<port id="0" precision="FP32">
					<dim>1</dim>
					<dim>1</dim>
					<dim>1</dim>
					<dim>1</dim>
				</port>
			</output>
		</layer>
		<layer id="318" name="220782208281610" type="Const" version="opset1">
			<data element_type="f32" offset="3104" shape="1,1,1,1" size="4"/>
			<output>
				<port id="0" precision="FP32">
					<dim>1</dim>
					<dim>1</dim>
					<dim>1</dim>
					<dim>1</dim>
				</port>
			</output>
		</layer>
		<layer id="319" name="220792208383782" type="Const" version="opset1">
			<data element_type="f32" offset="3108" shape="1,1,1,1" size="4"/>
			<output>
				<port id="0" precision="FP32">
					<dim>1</dim>
					<dim>1</dim>
					<dim>1</dim>
					<dim>1</dim>
				</port>
			</output>
		</layer>
		<layer id="320" name="220462205084304" type="Const" version="opset1">
			<data element_type="f32" offset="3112" shape="1,1,1,1" size="4"/>
			<output>
				<port id="0" precision="FP32">
					<dim>1</dim>
					<dim>1</dim>
					<dim>1</dim>
					<dim>1</dim>
				</port>
			</output>
		</layer>
		<layer id="321" name="220472205188060" type="Const" version="opset1">
			<data element_type="f32" offset="3116" shape="1,1,1,1" size="4"/>
			<output>
				<port id="0" precision="FP32">
					<dim>1</dim>
					<dim>1</dim>
					<dim>1</dim>
					<dim>1</dim>
				</port>
			</output>
		</layer>
		<layer id="322" name="220482205281526" type="Const" version="opset1">
			<data element_type="f32" offset="3112" shape="1,1,1,1" size="4"/>
			<output>
				<port id="0" precision="FP32">
					<dim>1</dim>
					<dim>1</dim>
					<dim>1</dim>
					<dim>1</dim>
				</port>
			</output>
		</layer>
		<layer id="323" name="220492205385561" type="Const" version="opset1">
			<data element_type="f32" offset="3116" shape="1,1,1,1" size="4"/>
			<output>
				<port id="0" precision="FP32">
					<dim>1</dim>
					<dim>1</dim>
					<dim>1</dim>
					<dim>1</dim>
				</port>
			</output>
		</layer>
		<layer id="324" name="151441514879033" type="Const" version="opset1">
			<data element_type="f32" offset="3120" shape="1,1,1,1" size="4"/>
			<output>
				<port id="0" precision="FP32">
					<dim>1</dim>
					<dim>1</dim>
					<dim>1</dim>
					<dim>1</dim>
				</port>
			</output>
		</layer>
		<layer id="325" name="151451514984049" type="Const" version="opset1">
			<data element_type="f32" offset="3124" shape="1,1,1,1" size="4"/>
			<output>
				<port id="0" precision="FP32">
					<dim>1</dim>
					<dim>1</dim>
					<dim>1</dim>
					<dim>1</dim>
				</port>
			</output>
		</layer>
		<layer id="326" name="151461515088357" type="Const" version="opset1">
			<data element_type="f32" offset="3120" shape="1,1,1,1" size="4"/>
			<output>
				<port id="0" precision="FP32">
					<dim>1</dim>
					<dim>1</dim>
					<dim>1</dim>
					<dim>1</dim>
				</port>
			</output>
		</layer>
		<layer id="327" name="151471515187469" type="Const" version="opset1">
			<data element_type="f32" offset="3124" shape="1,1,1,1" size="4"/>
			<output>
				<port id="0" precision="FP32">
					<dim>1</dim>
					<dim>1</dim>
					<dim>1</dim>
					<dim>1</dim>
				</port>
			</output>
		</layer>
		<layer id="328" name="159141591882078" type="Const" version="opset1">
			<data element_type="f32" offset="3128" shape="1,1,1,1" size="4"/>
			<output>
				<port id="0" precision="FP32">
					<dim>1</dim>
					<dim>1</dim>
					<dim>1</dim>
					<dim>1</dim>
				</port>
			</output>
		</layer>
		<layer id="329" name="159151591980734" type="Const" version="opset1">
			<data element_type="f32" offset="3132" shape="1,1,1,1" size="4"/>
			<output>
				<port id="0" precision="FP32">
					<dim>1</dim>
					<dim>1</dim>
					<dim>1</dim>
					<dim>1</dim>
				</port>
			</output>
		</layer>
		<layer id="330" name="159161592081514" type="Const" version="opset1">
			<data element_type="f32" offset="3128" shape="1,1,1,1" size="4"/>
			<output>
				<port id="0" precision="FP32">
					<dim>1</dim>
					<dim>1</dim>
					<dim>1</dim>
					<dim>1</dim>
				</port>
			</output>
		</layer>
		<layer id="331" name="159171592181094" type="Const" version="opset1">
			<data element_type="f32" offset="3132" shape="1,1,1,1" size="4"/>
			<output>
				<port id="0" precision="FP32">
					<dim>1</dim>
					<dim>1</dim>
					<dim>1</dim>
					<dim>1</dim>
				</port>
			</output>
		</layer>
		<layer id="332" name="316463165088243" type="Const" version="opset1">
			<data element_type="f32" offset="3136" shape="1,1,1,1" size="4"/>
			<output>
				<port id="0" precision="FP32">
					<dim>1</dim>
					<dim>1</dim>
					<dim>1</dim>
					<dim>1</dim>
				</port>
			</output>
		</layer>
		<layer id="333" name="316473165184754" type="Const" version="opset1">
			<data element_type="f32" offset="3140" shape="1,1,1,1" size="4"/>
			<output>
				<port id="0" precision="FP32">
					<dim>1</dim>
					<dim>1</dim>
					<dim>1</dim>
					<dim>1</dim>
				</port>
			</output>
		</layer>
		<layer id="334" name="316483165281517" type="Const" version="opset1">
			<data element_type="f32" offset="3136" shape="1,1,1,1" size="4"/>
			<output>
				<port id="0" precision="FP32">
					<dim>1</dim>
					<dim>1</dim>
					<dim>1</dim>
					<dim>1</dim>
				</port>
			</output>
		</layer>
		<layer id="335" name="316493165382273" type="Const" version="opset1">
			<data element_type="f32" offset="3140" shape="1,1,1,1" size="4"/>
			<output>
				<port id="0" precision="FP32">
					<dim>1</dim>
					<dim>1</dim>
					<dim>1</dim>
					<dim>1</dim>
				</port>
			</output>
		</layer>
		<layer id="336" name="315963160085249" type="Const" version="opset1">
			<data element_type="f32" offset="3144" shape="1,1,1,1" size="4"/>
			<output>
				<port id="0" precision="FP32">
					<dim>1</dim>
					<dim>1</dim>
					<dim>1</dim>
					<dim>1</dim>
				</port>
			</output>
		</layer>
		<layer id="337" name="315973160182954" type="Const" version="opset1">
			<data element_type="f32" offset="3148" shape="1,1,1,1" size="4"/>
			<output>
				<port id="0" precision="FP32">
					<dim>1</dim>
					<dim>1</dim>
					<dim>1</dim>
					<dim>1</dim>
				</port>
			</output>
		</layer>
		<layer id="338" name="315983160281829" type="Const" version="opset1">
			<data element_type="f32" offset="3144" shape="1,1,1,1" size="4"/>
			<output>
				<port id="0" precision="FP32">
					<dim>1</dim>
					<dim>1</dim>
					<dim>1</dim>
					<dim>1</dim>
				</port>
			</output>
		</layer>
		<layer id="339" name="315993160388564" type="Const" version="opset1">
			<data element_type="f32" offset="3148" shape="1,1,1,1" size="4"/>
			<output>
				<port id="0" precision="FP32">
					<dim>1</dim>
					<dim>1</dim>
					<dim>1</dim>
					<dim>1</dim>
				</port>
			</output>
		</layer>
		<layer id="340" name="315563156082060" type="Const" version="opset1">
			<data element_type="f32" offset="3152" shape="1,1,1,1" size="4"/>
			<output>
				<port id="0" precision="FP32">
					<dim>1</dim>
					<dim>1</dim>
					<dim>1</dim>
					<dim>1</dim>
				</port>
			</output>
		</layer>
		<layer id="341" name="315573156186485" type="Const" version="opset1">
			<data element_type="f32" offset="3156" shape="1,1,1,1" size="4"/>
			<output>
				<port id="0" precision="FP32">
					<dim>1</dim>
					<dim>1</dim>
					<dim>1</dim>
					<dim>1</dim>
				</port>
			</output>
		</layer>
		<layer id="342" name="315583156286611" type="Const" version="opset1">
			<data element_type="f32" offset="3152" shape="1,1,1,1" size="4"/>
			<output>
				<port id="0" precision="FP32">
					<dim>1</dim>
					<dim>1</dim>
					<dim>1</dim>
					<dim>1</dim>
				</port>
			</output>
		</layer>
		<layer id="343" name="315593156385294" type="Const" version="opset1">
			<data element_type="f32" offset="3156" shape="1,1,1,1" size="4"/>
			<output>
				<port id="0" precision="FP32">
					<dim>1</dim>
					<dim>1</dim>
					<dim>1</dim>
					<dim>1</dim>
				</port>
			</output>
		</layer>
		<layer id="344" name="315263153089056" type="Const" version="opset1">
			<data element_type="f32" offset="3160" shape="1,1,1,1" size="4"/>
			<output>
				<port id="0" precision="FP32">
					<dim>1</dim>
					<dim>1</dim>
					<dim>1</dim>
					<dim>1</dim>
				</port>
			</output>
		</layer>
		<layer id="345" name="315273153185312" type="Const" version="opset1">
			<data element_type="f32" offset="3164" shape="1,1,1,1" size="4"/>
			<output>
				<port id="0" precision="FP32">
					<dim>1</dim>
					<dim>1</dim>
					<dim>1</dim>
					<dim>1</dim>
				</port>
			</output>
		</layer>
		<layer id="346" name="315283153279141" type="Const" version="opset1">
			<data element_type="f32" offset="3160" shape="1,1,1,1" size="4"/>
			<output>
				<port id="0" precision="FP32">
					<dim>1</dim>
					<dim>1</dim>
					<dim>1</dim>
					<dim>1</dim>
				</port>
			</output>
		</layer>
		<layer id="347" name="315293153381742" type="Const" version="opset1">
			<data element_type="f32" offset="3164" shape="1,1,1,1" size="4"/>
			<output>
				<port id="0" precision="FP32">
					<dim>1</dim>
					<dim>1</dim>
					<dim>1</dim>
					<dim>1</dim>
				</port>
			</output>
		</layer>
		<layer id="348" name="159241592886938" type="Const" version="opset1">
			<data element_type="f32" offset="3168" shape="1,1,1,1" size="4"/>
			<output>
				<port id="0" precision="FP32">
					<dim>1</dim>
					<dim>1</dim>
					<dim>1</dim>
					<dim>1</dim>
				</port>
			</output>
		</layer>
		<layer id="349" name="159251592980413" type="Const" version="opset1">
			<data element_type="f32" offset="3172" shape="1,1,1,1" size="4"/>
			<output>
				<port id="0" precision="FP32">
					<dim>1</dim>
					<dim>1</dim>
					<dim>1</dim>
					<dim>1</dim>
				</port>
			</output>
		</layer>
		<layer id="350" name="159261593087784" type="Const" version="opset1">
			<data element_type="f32" offset="3168" shape="1,1,1,1" size="4"/>
			<output>
				<port id="0" precision="FP32">
					<dim>1</dim>
					<dim>1</dim>
					<dim>1</dim>
					<dim>1</dim>
				</port>
			</output>
		</layer>
		<layer id="351" name="159271593186680" type="Const" version="opset1">
			<data element_type="f32" offset="3172" shape="1,1,1,1" size="4"/>
			<output>
				<port id="0" precision="FP32">
					<dim>1</dim>
					<dim>1</dim>
					<dim>1</dim>
					<dim>1</dim>
				</port>
			</output>
		</layer>
		<layer id="352" name="170141701881862" type="Const" version="opset1">
			<data element_type="f32" offset="3176" shape="1,1,1,1" size="4"/>
			<output>
				<port id="0" precision="FP32">
					<dim>1</dim>
					<dim>1</dim>
					<dim>1</dim>
					<dim>1</dim>
				</port>
			</output>
		</layer>
		<layer id="353" name="170151701981337" type="Const" version="opset1">
			<data element_type="f32" offset="3180" shape="1,1,1,1" size="4"/>
			<output>
				<port id="0" precision="FP32">
					<dim>1</dim>
					<dim>1</dim>
					<dim>1</dim>
					<dim>1</dim>
				</port>
			</output>
		</layer>
		<layer id="354" name="170161702088570" type="Const" version="opset1">
			<data element_type="f32" offset="3176" shape="1,1,1,1" size="4"/>
			<output>
				<port id="0" precision="FP32">
					<dim>1</dim>
					<dim>1</dim>
					<dim>1</dim>
					<dim>1</dim>
				</port>
			</output>
		</layer>
		<layer id="355" name="170171702182357" type="Const" version="opset1">
			<data element_type="f32" offset="3180" shape="1,1,1,1" size="4"/>
			<output>
				<port id="0" precision="FP32">
					<dim>1</dim>
					<dim>1</dim>
					<dim>1</dim>
					<dim>1</dim>
				</port>
			</output>
		</layer>
		<layer id="356" name="315063151080863" type="Const" version="opset1">
			<data element_type="f32" offset="3184" shape="1,1,1,1" size="4"/>
			<output>
				<port id="0" precision="FP32">
					<dim>1</dim>
					<dim>1</dim>
					<dim>1</dim>
					<dim>1</dim>
				</port>
			</output>
		</layer>
		<layer id="357" name="315073151179945" type="Const" version="opset1">
			<data element_type="f32" offset="3188" shape="1,1,1,1" size="4"/>
			<output>
				<port id="0" precision="FP32">
					<dim>1</dim>
					<dim>1</dim>
					<dim>1</dim>
					<dim>1</dim>
				</port>
			</output>
		</layer>
		<layer id="358" name="315083151285009" type="Const" version="opset1">
			<data element_type="f32" offset="3184" shape="1,1,1,1" size="4"/>
			<output>
				<port id="0" precision="FP32">
					<dim>1</dim>
					<dim>1</dim>
					<dim>1</dim>
					<dim>1</dim>
				</port>
			</output>
		</layer>
		<layer id="359" name="315093151388750" type="Const" version="opset1">
			<data element_type="f32" offset="3188" shape="1,1,1,1" size="4"/>
			<output>
				<port id="0" precision="FP32">
					<dim>1</dim>
					<dim>1</dim>
					<dim>1</dim>
					<dim>1</dim>
				</port>
			</output>
		</layer>
		<layer id="360" name="314563146082165" type="Const" version="opset1">
			<data element_type="f32" offset="3192" shape="1,1,1,1" size="4"/>
			<output>
				<port id="0" precision="FP32">
					<dim>1</dim>
					<dim>1</dim>
					<dim>1</dim>
					<dim>1</dim>
				</port>
			</output>
		</layer>
		<layer id="361" name="314573146189545" type="Const" version="opset1">
			<data element_type="f32" offset="3196" shape="1,1,1,1" size="4"/>
			<output>
				<port id="0" precision="FP32">
					<dim>1</dim>
					<dim>1</dim>
					<dim>1</dim>
					<dim>1</dim>
				</port>
			</output>
		</layer>
		<layer id="362" name="314583146280821" type="Const" version="opset1">
			<data element_type="f32" offset="3192" shape="1,1,1,1" size="4"/>
			<output>
				<port id="0" precision="FP32">
					<dim>1</dim>
					<dim>1</dim>
					<dim>1</dim>
					<dim>1</dim>
				</port>
			</output>
		</layer>
		<layer id="363" name="314593146383605" type="Const" version="opset1">
			<data element_type="f32" offset="3196" shape="1,1,1,1" size="4"/>
			<output>
				<port id="0" precision="FP32">
					<dim>1</dim>
					<dim>1</dim>
					<dim>1</dim>
					<dim>1</dim>
				</port>
			</output>
		</layer>
		<layer id="364" name="314163142085072" type="Const" version="opset1">
			<data element_type="f32" offset="3200" shape="1,1,1,1" size="4"/>
			<output>
				<port id="0" precision="FP32">
					<dim>1</dim>
					<dim>1</dim>
					<dim>1</dim>
					<dim>1</dim>
				</port>
			</output>
		</layer>
		<layer id="365" name="314173142185360" type="Const" version="opset1">
			<data element_type="f32" offset="3204" shape="1,1,1,1" size="4"/>
			<output>
				<port id="0" precision="FP32">
					<dim>1</dim>
					<dim>1</dim>
					<dim>1</dim>
					<dim>1</dim>
				</port>
			</output>
		</layer>
		<layer id="366" name="314183142283518" type="Const" version="opset1">
			<data element_type="f32" offset="3200" shape="1,1,1,1" size="4"/>
			<output>
				<port id="0" precision="FP32">
					<dim>1</dim>
					<dim>1</dim>
					<dim>1</dim>
					<dim>1</dim>
				</port>
			</output>
		</layer>
		<layer id="367" name="314193142389434" type="Const" version="opset1">
			<data element_type="f32" offset="3204" shape="1,1,1,1" size="4"/>
			<output>
				<port id="0" precision="FP32">
					<dim>1</dim>
					<dim>1</dim>
					<dim>1</dim>
					<dim>1</dim>
				</port>
			</output>
		</layer>
		<layer id="368" name="313863139085933" type="Const" version="opset1">
			<data element_type="f32" offset="3208" shape="1,1,1,1" size="4"/>
			<output>
				<port id="0" precision="FP32">
					<dim>1</dim>
					<dim>1</dim>
					<dim>1</dim>
					<dim>1</dim>
				</port>
			</output>
		</layer>
		<layer id="369" name="313873139187307" type="Const" version="opset1">
			<data element_type="f32" offset="3212" shape="1,1,1,1" size="4"/>
			<output>
				<port id="0" precision="FP32">
					<dim>1</dim>
					<dim>1</dim>
					<dim>1</dim>
					<dim>1</dim>
				</port>
			</output>
		</layer>
		<layer id="370" name="313883139284562" type="Const" version="opset1">
			<data element_type="f32" offset="3208" shape="1,1,1,1" size="4"/>
			<output>
				<port id="0" precision="FP32">
					<dim>1</dim>
					<dim>1</dim>
					<dim>1</dim>
					<dim>1</dim>
				</port>
			</output>
		</layer>
		<layer id="371" name="313893139387736" type="Const" version="opset1">
			<data element_type="f32" offset="3212" shape="1,1,1,1" size="4"/>
			<output>
				<port id="0" precision="FP32">
					<dim>1</dim>
					<dim>1</dim>
					<dim>1</dim>
					<dim>1</dim>
				</port>
			</output>
		</layer>
		<layer id="372" name="125431254781865" type="Const" version="opset1">
			<data element_type="f32" offset="3216" shape="1,1,1,1" size="4"/>
			<output>
				<port id="0" precision="FP32">
					<dim>1</dim>
					<dim>1</dim>
					<dim>1</dim>
					<dim>1</dim>
				</port>
			</output>
		</layer>
		<layer id="373" name="125441254880866" type="Const" version="opset1">
			<data element_type="f32" offset="3220" shape="1,1,1,1" size="4"/>
			<output>
				<port id="0" precision="FP32">
					<dim>1</dim>
					<dim>1</dim>
					<dim>1</dim>
					<dim>1</dim>
				</port>
			</output>
		</layer>
		<layer id="374" name="125451254984817" type="Const" version="opset1">
			<data element_type="f32" offset="3216" shape="1,1,1,1" size="4"/>
			<output>
				<port id="0" precision="FP32">
					<dim>1</dim>
					<dim>1</dim>
					<dim>1</dim>
					<dim>1</dim>
				</port>
			</output>
		</layer>
		<layer id="375" name="125461255078880" type="Const" version="opset1">
			<data element_type="f32" offset="3220" shape="1,1,1,1" size="4"/>
			<output>
				<port id="0" precision="FP32">
					<dim>1</dim>
					<dim>1</dim>
					<dim>1</dim>
					<dim>1</dim>
				</port>
			</output>
		</layer>
		<layer id="376" name="103731037779831" type="Const" version="opset1">
			<data element_type="f32" offset="3224" shape="1,1,1,1" size="4"/>
			<output>
				<port id="0" precision="FP32">
					<dim>1</dim>
					<dim>1</dim>
					<dim>1</dim>
					<dim>1</dim>
				</port>
			</output>
		</layer>
		<layer id="377" name="103741037885429" type="Const" version="opset1">
			<data element_type="f32" offset="3228" shape="1,1,1,1" size="4"/>
			<output>
				<port id="0" precision="FP32">
					<dim>1</dim>
					<dim>1</dim>
					<dim>1</dim>
					<dim>1</dim>
				</port>
			</output>
		</layer>
		<layer id="378" name="103751037981127" type="Const" version="opset1">
			<data element_type="f32" offset="3224" shape="1,1,1,1" size="4"/>
			<output>
				<port id="0" precision="FP32">
					<dim>1</dim>
					<dim>1</dim>
					<dim>1</dim>
					<dim>1</dim>
				</port>
			</output>
		</layer>
		<layer id="379" name="103761038086686" type="Const" version="opset1">
			<data element_type="f32" offset="3228" shape="1,1,1,1" size="4"/>
			<output>
				<port id="0" precision="FP32">
					<dim>1</dim>
					<dim>1</dim>
					<dim>1</dim>
					<dim>1</dim>
				</port>
			</output>
		</layer>
		<layer id="380" name="143141431888015" type="Const" version="opset1">
			<data element_type="f32" offset="3232" shape="1,1,1,1" size="4"/>
			<output>
				<port id="0" precision="FP32">
					<dim>1</dim>
					<dim>1</dim>
					<dim>1</dim>
					<dim>1</dim>
				</port>
			</output>
		</layer>
		<layer id="381" name="143151431981502" type="Const" version="opset1">
			<data element_type="f32" offset="3236" shape="1,1,1,1" size="4"/>
			<output>
				<port id="0" precision="FP32">
					<dim>1</dim>
					<dim>1</dim>
					<dim>1</dim>
					<dim>1</dim>
				</port>
			</output>
		</layer>
		<layer id="382" name="143161432084406" type="Const" version="opset1">
			<data element_type="f32" offset="3232" shape="1,1,1,1" size="4"/>
			<output>
				<port id="0" precision="FP32">
					<dim>1</dim>
					<dim>1</dim>
					<dim>1</dim>
					<dim>1</dim>
				</port>
			</output>
		</layer>
		<layer id="383" name="143171432179735" type="Const" version="opset1">
			<data element_type="f32" offset="3236" shape="1,1,1,1" size="4"/>
			<output>
				<port id="0" precision="FP32">
					<dim>1</dim>
					<dim>1</dim>
					<dim>1</dim>
					<dim>1</dim>
				</port>
			</output>
		</layer>
		<layer id="384" name="9173917781805" type="Const" version="opset1">
			<data element_type="f32" offset="3240" shape="1,1,1,1" size="4"/>
			<output>
				<port id="0" precision="FP32">
					<dim>1</dim>
					<dim>1</dim>
					<dim>1</dim>
					<dim>1</dim>
				</port>
			</output>
		</layer>
		<layer id="385" name="9174917880212" type="Const" version="opset1">
			<data element_type="f32" offset="3244" shape="1,1,1,1" size="4"/>
			<output>
				<port id="0" precision="FP32">
					<dim>1</dim>
					<dim>1</dim>
					<dim>1</dim>
					<dim>1</dim>
				</port>
			</output>
		</layer>
		<layer id="386" name="9175917986002" type="Const" version="opset1">
			<data element_type="f32" offset="3240" shape="1,1,1,1" size="4"/>
			<output>
				<port id="0" precision="FP32">
					<dim>1</dim>
					<dim>1</dim>
					<dim>1</dim>
					<dim>1</dim>
				</port>
			</output>
		</layer>
		<layer id="387" name="9176918083653" type="Const" version="opset1">
			<data element_type="f32" offset="3244" shape="1,1,1,1" size="4"/>
			<output>
				<port id="0" precision="FP32">
					<dim>1</dim>
					<dim>1</dim>
					<dim>1</dim>
					<dim>1</dim>
				</port>
			</output>
		</layer>
		<layer id="388" name="313663137088741" type="Const" version="opset1">
			<data element_type="f32" offset="3248" shape="1,1,1,1" size="4"/>
			<output>
				<port id="0" precision="FP32">
					<dim>1</dim>
					<dim>1</dim>
					<dim>1</dim>
					<dim>1</dim>
				</port>
			</output>
		</layer>
		<layer id="389" name="313673137186782" type="Const" version="opset1">
			<data element_type="f32" offset="3252" shape="1,1,1,1" size="4"/>
			<output>
				<port id="0" precision="FP32">
					<dim>1</dim>
					<dim>1</dim>
					<dim>1</dim>
					<dim>1</dim>
				</port>
			</output>
		</layer>
		<layer id="390" name="313683137287541" type="Const" version="opset1">
			<data element_type="f32" offset="3248" shape="1,1,1,1" size="4"/>
			<output>
				<port id="0" precision="FP32">
					<dim>1</dim>
					<dim>1</dim>
					<dim>1</dim>
					<dim>1</dim>
				</port>
			</output>
		</layer>
		<layer id="391" name="313693137383941" type="Const" version="opset1">
			<data element_type="f32" offset="3252" shape="1,1,1,1" size="4"/>
			<output>
				<port id="0" precision="FP32">
					<dim>1</dim>
					<dim>1</dim>
					<dim>1</dim>
					<dim>1</dim>
				</port>
			</output>
		</layer>
		<layer id="392" name="313163132088300" type="Const" version="opset1">
			<data element_type="f32" offset="3256" shape="1,1,1,1" size="4"/>
			<output>
				<port id="0" precision="FP32">
					<dim>1</dim>
					<dim>1</dim>
					<dim>1</dim>
					<dim>1</dim>
				</port>
			</output>
		</layer>
		<layer id="393" name="313173132187976" type="Const" version="opset1">
			<data element_type="f32" offset="3260" shape="1,1,1,1" size="4"/>
			<output>
				<port id="0" precision="FP32">
					<dim>1</dim>
					<dim>1</dim>
					<dim>1</dim>
					<dim>1</dim>
				</port>
			</output>
		</layer>
		<layer id="394" name="313183132287742" type="Const" version="opset1">
			<data element_type="f32" offset="3256" shape="1,1,1,1" size="4"/>
			<output>
				<port id="0" precision="FP32">
					<dim>1</dim>
					<dim>1</dim>
					<dim>1</dim>
					<dim>1</dim>
				</port>
			</output>
		</layer>
		<layer id="395" name="313193132379549" type="Const" version="opset1">
			<data element_type="f32" offset="3260" shape="1,1,1,1" size="4"/>
			<output>
				<port id="0" precision="FP32">
					<dim>1</dim>
					<dim>1</dim>
					<dim>1</dim>
					<dim>1</dim>
				</port>
			</output>
		</layer>
		<layer id="396" name="312263123084091" type="Const" version="opset1">
			<data element_type="f32" offset="3264" shape="1,1,1,1" size="4"/>
			<output>
				<port id="0" precision="FP32">
					<dim>1</dim>
					<dim>1</dim>
					<dim>1</dim>
					<dim>1</dim>
				</port>
			</output>
		</layer>
		<layer id="397" name="312273123182459" type="Const" version="opset1">
			<data element_type="f32" offset="3268" shape="1,1,1,1" size="4"/>
			<output>
				<port id="0" precision="FP32">
					<dim>1</dim>
					<dim>1</dim>
					<dim>1</dim>
					<dim>1</dim>
				</port>
			</output>
		</layer>
		<layer id="398" name="312283123279471" type="Const" version="opset1">
			<data element_type="f32" offset="3264" shape="1,1,1,1" size="4"/>
			<output>
				<port id="0" precision="FP32">
					<dim>1</dim>
					<dim>1</dim>
					<dim>1</dim>
					<dim>1</dim>
				</port>
			</output>
		</layer>
		<layer id="399" name="312293123381679" type="Const" version="opset1">
			<data element_type="f32" offset="3268" shape="1,1,1,1" size="4"/>
			<output>
				<port id="0" precision="FP32">
					<dim>1</dim>
					<dim>1</dim>
					<dim>1</dim>
					<dim>1</dim>
				</port>
			</output>
		</layer>
		<layer id="400" name="311963120085075" type="Const" version="opset1">
			<data element_type="f32" offset="3272" shape="1,1,1,1" size="4"/>
			<output>
				<port id="0" precision="FP32">
					<dim>1</dim>
					<dim>1</dim>
					<dim>1</dim>
					<dim>1</dim>
				</port>
			</output>
		</layer>
		<layer id="401" name="311973120183086" type="Const" version="opset1">
			<data element_type="f32" offset="3276" shape="1,1,1,1" size="4"/>
			<output>
				<port id="0" precision="FP32">
					<dim>1</dim>
					<dim>1</dim>
					<dim>1</dim>
					<dim>1</dim>
				</port>
			</output>
		</layer>
		<layer id="402" name="311983120288720" type="Const" version="opset1">
			<data element_type="f32" offset="3272" shape="1,1,1,1" size="4"/>
			<output>
				<port id="0" precision="FP32">
					<dim>1</dim>
					<dim>1</dim>
					<dim>1</dim>
					<dim>1</dim>
				</port>
			</output>
		</layer>
		<layer id="403" name="311993120380689" type="Const" version="opset1">
			<data element_type="f32" offset="3276" shape="1,1,1,1" size="4"/>
			<output>
				<port id="0" precision="FP32">
					<dim>1</dim>
					<dim>1</dim>
					<dim>1</dim>
					<dim>1</dim>
				</port>
			</output>
		</layer>
		<layer id="404" name="9183918788165" type="Const" version="opset1">
			<data element_type="f32" offset="3280" shape="1,1,1,1" size="4"/>
			<output>
				<port id="0" precision="FP32">
					<dim>1</dim>
					<dim>1</dim>
					<dim>1</dim>
					<dim>1</dim>
				</port>
			</output>
		</layer>
		<layer id="405" name="9184918878769" type="Const" version="opset1">
			<data element_type="f32" offset="3284" shape="1,1,1,1" size="4"/>
			<output>
				<port id="0" precision="FP32">
					<dim>1</dim>
					<dim>1</dim>
					<dim>1</dim>
					<dim>1</dim>
				</port>
			</output>
		</layer>
		<layer id="406" name="9185918985069" type="Const" version="opset1">
			<data element_type="f32" offset="3280" shape="1,1,1,1" size="4"/>
			<output>
				<port id="0" precision="FP32">
					<dim>1</dim>
					<dim>1</dim>
					<dim>1</dim>
					<dim>1</dim>
				</port>
			</output>
		</layer>
		<layer id="407" name="9186919079285" type="Const" version="opset1">
			<data element_type="f32" offset="3284" shape="1,1,1,1" size="4"/>
			<output>
				<port id="0" precision="FP32">
					<dim>1</dim>
					<dim>1</dim>
					<dim>1</dim>
					<dim>1</dim>
				</port>
			</output>
		</layer>
		<layer id="408" name="8873887780620" type="Const" version="opset1">
			<data element_type="f32" offset="3288" shape="1,1,1,1" size="4"/>
			<output>
				<port id="0" precision="FP32">
					<dim>1</dim>
					<dim>1</dim>
					<dim>1</dim>
					<dim>1</dim>
				</port>
			</output>
		</layer>
		<layer id="409" name="8874887879339" type="Const" version="opset1">
			<data element_type="f32" offset="3292" shape="1,1,1,1" size="4"/>
			<output>
				<port id="0" precision="FP32">
					<dim>1</dim>
					<dim>1</dim>
					<dim>1</dim>
					<dim>1</dim>
				</port>
			</output>
		</layer>
		<layer id="410" name="8875887984424" type="Const" version="opset1">
			<data element_type="f32" offset="3288" shape="1,1,1,1" size="4"/>
			<output>
				<port id="0" precision="FP32">
					<dim>1</dim>
					<dim>1</dim>
					<dim>1</dim>
					<dim>1</dim>
				</port>
			</output>
		</layer>
		<layer id="411" name="8876888084700" type="Const" version="opset1">
			<data element_type="f32" offset="3292" shape="1,1,1,1" size="4"/>
			<output>
				<port id="0" precision="FP32">
					<dim>1</dim>
					<dim>1</dim>
					<dim>1</dim>
					<dim>1</dim>
				</port>
			</output>
		</layer>
		<layer id="412" name="311763118087811" type="Const" version="opset1">
			<data element_type="f32" offset="3296" shape="1,1,1,1" size="4"/>
			<output>
				<port id="0" precision="FP32">
					<dim>1</dim>
					<dim>1</dim>
					<dim>1</dim>
					<dim>1</dim>
				</port>
			</output>
		</layer>
		<layer id="413" name="311773118186236" type="Const" version="opset1">
			<data element_type="f32" offset="3300" shape="1,1,1,1" size="4"/>
			<output>
				<port id="0" precision="FP32">
					<dim>1</dim>
					<dim>1</dim>
					<dim>1</dim>
					<dim>1</dim>
				</port>
			</output>
		</layer>
		<layer id="414" name="311783118286101" type="Const" version="opset1">
			<data element_type="f32" offset="3296" shape="1,1,1,1" size="4"/>
			<output>
				<port id="0" precision="FP32">
					<dim>1</dim>
					<dim>1</dim>
					<dim>1</dim>
					<dim>1</dim>
				</port>
			</output>
		</layer>
		<layer id="415" name="311793118385192" type="Const" version="opset1">
			<data element_type="f32" offset="3300" shape="1,1,1,1" size="4"/>
			<output>
				<port id="0" precision="FP32">
					<dim>1</dim>
					<dim>1</dim>
					<dim>1</dim>
					<dim>1</dim>
				</port>
			</output>
		</layer>
		<layer id="416" name="311263113082447" type="Const" version="opset1">
			<data element_type="f32" offset="3304" shape="1,1,1,1" size="4"/>
			<output>
				<port id="0" precision="FP32">
					<dim>1</dim>
					<dim>1</dim>
					<dim>1</dim>
					<dim>1</dim>
				</port>
			</output>
		</layer>
		<layer id="417" name="311273113186818" type="Const" version="opset1">
			<data element_type="f32" offset="3308" shape="1,1,1,1" size="4"/>
			<output>
				<port id="0" precision="FP32">
					<dim>1</dim>
					<dim>1</dim>
					<dim>1</dim>
					<dim>1</dim>
				</port>
			</output>
		</layer>
		<layer id="418" name="311283113280989" type="Const" version="opset1">
			<data element_type="f32" offset="3304" shape="1,1,1,1" size="4"/>
			<output>
				<port id="0" precision="FP32">
					<dim>1</dim>
					<dim>1</dim>
					<dim>1</dim>
					<dim>1</dim>
				</port>
			</output>
		</layer>
		<layer id="419" name="311293113381376" type="Const" version="opset1">
			<data element_type="f32" offset="3308" shape="1,1,1,1" size="4"/>
			<output>
				<port id="0" precision="FP32">
					<dim>1</dim>
					<dim>1</dim>
					<dim>1</dim>
					<dim>1</dim>
				</port>
			</output>
		</layer>
		<layer id="420" name="310863109083662" type="Const" version="opset1">
			<data element_type="f32" offset="3312" shape="1,1,1,1" size="4"/>
			<output>
				<port id="0" precision="FP32">
					<dim>1</dim>
					<dim>1</dim>
					<dim>1</dim>
					<dim>1</dim>
				</port>
			</output>
		</layer>
		<layer id="421" name="310873109186821" type="Const" version="opset1">
			<data element_type="f32" offset="3316" shape="1,1,1,1" size="4"/>
			<output>
				<port id="0" precision="FP32">
					<dim>1</dim>
					<dim>1</dim>
					<dim>1</dim>
					<dim>1</dim>
				</port>
			</output>
		</layer>
		<layer id="422" name="310883109289467" type="Const" version="opset1">
			<data element_type="f32" offset="3312" shape="1,1,1,1" size="4"/>
			<output>
				<port id="0" precision="FP32">
					<dim>1</dim>
					<dim>1</dim>
					<dim>1</dim>
					<dim>1</dim>
				</port>
			</output>
		</layer>
		<layer id="423" name="310893109384940" type="Const" version="opset1">
			<data element_type="f32" offset="3316" shape="1,1,1,1" size="4"/>
			<output>
				<port id="0" precision="FP32">
					<dim>1</dim>
					<dim>1</dim>
					<dim>1</dim>
					<dim>1</dim>
				</port>
			</output>
		</layer>
		<layer id="424" name="310563106088504" type="Const" version="opset1">
			<data element_type="f32" offset="3320" shape="1,1,1,1" size="4"/>
			<output>
				<port id="0" precision="FP32">
					<dim>1</dim>
					<dim>1</dim>
					<dim>1</dim>
					<dim>1</dim>
				</port>
			</output>
		</layer>
		<layer id="425" name="310573106181268" type="Const" version="opset1">
			<data element_type="f32" offset="3324" shape="1,1,1,1" size="4"/>
			<output>
				<port id="0" precision="FP32">
					<dim>1</dim>
					<dim>1</dim>
					<dim>1</dim>
					<dim>1</dim>
				</port>
			</output>
		</layer>
		<layer id="426" name="310583106283020" type="Const" version="opset1">
			<data element_type="f32" offset="3320" shape="1,1,1,1" size="4"/>
			<output>
				<port id="0" precision="FP32">
					<dim>1</dim>
					<dim>1</dim>
					<dim>1</dim>
					<dim>1</dim>
				</port>
			</output>
		</layer>
		<layer id="427" name="310593106383851" type="Const" version="opset1">
			<data element_type="f32" offset="3324" shape="1,1,1,1" size="4"/>
			<output>
				<port id="0" precision="FP32">
					<dim>1</dim>
					<dim>1</dim>
					<dim>1</dim>
					<dim>1</dim>
				</port>
			</output>
		</layer>
		<layer id="428" name="8883888781178" type="Const" version="opset1">
			<data element_type="f32" offset="3328" shape="1,1,1,1" size="4"/>
			<output>
				<port id="0" precision="FP32">
					<dim>1</dim>
					<dim>1</dim>
					<dim>1</dim>
					<dim>1</dim>
				</port>
			</output>
		</layer>
		<layer id="429" name="8884888883728" type="Const" version="opset1">
			<data element_type="f32" offset="3332" shape="1,1,1,1" size="4"/>
			<output>
				<port id="0" precision="FP32">
					<dim>1</dim>
					<dim>1</dim>
					<dim>1</dim>
					<dim>1</dim>
				</port>
			</output>
		</layer>
		<layer id="430" name="8885888986257" type="Const" version="opset1">
			<data element_type="f32" offset="3328" shape="1,1,1,1" size="4"/>
			<output>
				<port id="0" precision="FP32">
					<dim>1</dim>
					<dim>1</dim>
					<dim>1</dim>
					<dim>1</dim>
				</port>
			</output>
		</layer>
		<layer id="431" name="8886889084643" type="Const" version="opset1">
			<data element_type="f32" offset="3332" shape="1,1,1,1" size="4"/>
			<output>
				<port id="0" precision="FP32">
					<dim>1</dim>
					<dim>1</dim>
					<dim>1</dim>
					<dim>1</dim>
				</port>
			</output>
		</layer>
		<layer id="432" name="128941289882768" type="Const" version="opset1">
			<data element_type="f32" offset="3336" shape="1,1,1,1" size="4"/>
			<output>
				<port id="0" precision="FP32">
					<dim>1</dim>
					<dim>1</dim>
					<dim>1</dim>
					<dim>1</dim>
				</port>
			</output>
		</layer>
		<layer id="433" name="128951289980587" type="Const" version="opset1">
			<data element_type="f32" offset="3340" shape="1,1,1,1" size="4"/>
			<output>
				<port id="0" precision="FP32">
					<dim>1</dim>
					<dim>1</dim>
					<dim>1</dim>
					<dim>1</dim>
				</port>
			</output>
		</layer>
		<layer id="434" name="128961290085615" type="Const" version="opset1">
			<data element_type="f32" offset="3336" shape="1,1,1,1" size="4"/>
			<output>
				<port id="0" precision="FP32">
					<dim>1</dim>
					<dim>1</dim>
					<dim>1</dim>
					<dim>1</dim>
				</port>
			</output>
		</layer>
		<layer id="435" name="128971290187673" type="Const" version="opset1">
			<data element_type="f32" offset="3340" shape="1,1,1,1" size="4"/>
			<output>
				<port id="0" precision="FP32">
					<dim>1</dim>
					<dim>1</dim>
					<dim>1</dim>
					<dim>1</dim>
				</port>
			</output>
		</layer>
		<layer id="436" name="310363104082993" type="Const" version="opset1">
			<data element_type="f32" offset="3344" shape="1,1,1,1" size="4"/>
			<output>
				<port id="0" precision="FP32">
					<dim>1</dim>
					<dim>1</dim>
					<dim>1</dim>
					<dim>1</dim>
				</port>
			</output>
		</layer>
		<layer id="437" name="310373104179324" type="Const" version="opset1">
			<data element_type="f32" offset="3348" shape="1,1,1,1" size="4"/>
			<output>
				<port id="0" precision="FP32">
					<dim>1</dim>
					<dim>1</dim>
					<dim>1</dim>
					<dim>1</dim>
				</port>
			</output>
		</layer>
		<layer id="438" name="310383104282942" type="Const" version="opset1">
			<data element_type="f32" offset="3344" shape="1,1,1,1" size="4"/>
			<output>
				<port id="0" precision="FP32">
					<dim>1</dim>
					<dim>1</dim>
					<dim>1</dim>
					<dim>1</dim>
				</port>
			</output>
		</layer>
		<layer id="439" name="310393104388738" type="Const" version="opset1">
			<data element_type="f32" offset="3348" shape="1,1,1,1" size="4"/>
			<output>
				<port id="0" precision="FP32">
					<dim>1</dim>
					<dim>1</dim>
					<dim>1</dim>
					<dim>1</dim>
				</port>
			</output>
		</layer>
		<layer id="440" name="309463095080107" type="Const" version="opset1">
			<data element_type="f32" offset="3352" shape="1,1,1,1" size="4"/>
			<output>
				<port id="0" precision="FP32">
					<dim>1</dim>
					<dim>1</dim>
					<dim>1</dim>
					<dim>1</dim>
				</port>
			</output>
		</layer>
		<layer id="441" name="309473095180818" type="Const" version="opset1">
			<data element_type="f32" offset="3356" shape="1,1,1,1" size="4"/>
			<output>
				<port id="0" precision="FP32">
					<dim>1</dim>
					<dim>1</dim>
					<dim>1</dim>
					<dim>1</dim>
				</port>
			</output>
		</layer>
		<layer id="442" name="309483095285852" type="Const" version="opset1">
			<data element_type="f32" offset="3352" shape="1,1,1,1" size="4"/>
			<output>
				<port id="0" precision="FP32">
					<dim>1</dim>
					<dim>1</dim>
					<dim>1</dim>
					<dim>1</dim>
				</port>
			</output>
		</layer>
		<layer id="443" name="309493095382804" type="Const" version="opset1">
			<data element_type="f32" offset="3356" shape="1,1,1,1" size="4"/>
			<output>
				<port id="0" precision="FP32">
					<dim>1</dim>
					<dim>1</dim>
					<dim>1</dim>
					<dim>1</dim>
				</port>
			</output>
		</layer>
		<layer id="444" name="309063091088201" type="Const" version="opset1">
			<data element_type="f32" offset="3360" shape="1,1,1,1" size="4"/>
			<output>
				<port id="0" precision="FP32">
					<dim>1</dim>
					<dim>1</dim>
					<dim>1</dim>
					<dim>1</dim>
				</port>
			</output>
		</layer>
		<layer id="445" name="309073091181169" type="Const" version="opset1">
			<data element_type="f32" offset="3364" shape="1,1,1,1" size="4"/>
			<output>
				<port id="0" precision="FP32">
					<dim>1</dim>
					<dim>1</dim>
					<dim>1</dim>
					<dim>1</dim>
				</port>
			</output>
		</layer>
		<layer id="446" name="309083091285159" type="Const" version="opset1">
			<data element_type="f32" offset="3360" shape="1,1,1,1" size="4"/>
			<output>
				<port id="0" precision="FP32">
					<dim>1</dim>
					<dim>1</dim>
					<dim>1</dim>
					<dim>1</dim>
				</port>
			</output>
		</layer>
		<layer id="447" name="309093091382309" type="Const" version="opset1">
			<data element_type="f32" offset="3364" shape="1,1,1,1" size="4"/>
			<output>
				<port id="0" precision="FP32">
					<dim>1</dim>
					<dim>1</dim>
					<dim>1</dim>
					<dim>1</dim>
				</port>
			</output>
		</layer>
		<layer id="448" name="308763088086932" type="Const" version="opset1">
			<data element_type="f32" offset="3368" shape="1,1,1,1" size="4"/>
			<output>
				<port id="0" precision="FP32">
					<dim>1</dim>
					<dim>1</dim>
					<dim>1</dim>
					<dim>1</dim>
				</port>
			</output>
		</layer>
		<layer id="449" name="308773088187646" type="Const" version="opset1">
			<data element_type="f32" offset="3372" shape="1,1,1,1" size="4"/>
			<output>
				<port id="0" precision="FP32">
					<dim>1</dim>
					<dim>1</dim>
					<dim>1</dim>
					<dim>1</dim>
				</port>
			</output>
		</layer>
		<layer id="450" name="308783088285807" type="Const" version="opset1">
			<data element_type="f32" offset="3368" shape="1,1,1,1" size="4"/>
			<output>
				<port id="0" precision="FP32">
					<dim>1</dim>
					<dim>1</dim>
					<dim>1</dim>
					<dim>1</dim>
				</port>
			</output>
		</layer>
		<layer id="451" name="308793088384616" type="Const" version="opset1">
			<data element_type="f32" offset="3372" shape="1,1,1,1" size="4"/>
			<output>
				<port id="0" precision="FP32">
					<dim>1</dim>
					<dim>1</dim>
					<dim>1</dim>
					<dim>1</dim>
				</port>
			</output>
		</layer>
		<layer id="452" name="129041290886734" type="Const" version="opset1">
			<data element_type="f32" offset="3376" shape="1,1,1,1" size="4"/>
			<output>
				<port id="0" precision="FP32">
					<dim>1</dim>
					<dim>1</dim>
					<dim>1</dim>
					<dim>1</dim>
				</port>
			</output>
		</layer>
		<layer id="453" name="129051290988762" type="Const" version="opset1">
			<data element_type="f32" offset="3380" shape="1,1,1,1" size="4"/>
			<output>
				<port id="0" precision="FP32">
					<dim>1</dim>
					<dim>1</dim>
					<dim>1</dim>
					<dim>1</dim>
				</port>
			</output>
		</layer>
		<layer id="454" name="129061291082666" type="Const" version="opset1">
			<data element_type="f32" offset="3376" shape="1,1,1,1" size="4"/>
			<output>
				<port id="0" precision="FP32">
					<dim>1</dim>
					<dim>1</dim>
					<dim>1</dim>
					<dim>1</dim>
				</port>
			</output>
		</layer>
		<layer id="455" name="129071291189140" type="Const" version="opset1">
			<data element_type="f32" offset="3380" shape="1,1,1,1" size="4"/>
			<output>
				<port id="0" precision="FP32">
					<dim>1</dim>
					<dim>1</dim>
					<dim>1</dim>
					<dim>1</dim>
				</port>
			</output>
		</layer>
		<layer id="456" name="131741317887859" type="Const" version="opset1">
			<data element_type="f32" offset="3384" shape="1,1,1,1" size="4"/>
			<output>
				<port id="0" precision="FP32">
					<dim>1</dim>
					<dim>1</dim>
					<dim>1</dim>
					<dim>1</dim>
				</port>
			</output>
		</layer>
		<layer id="457" name="131751317983401" type="Const" version="opset1">
			<data element_type="f32" offset="3388" shape="1,1,1,1" size="4"/>
			<output>
				<port id="0" precision="FP32">
					<dim>1</dim>
					<dim>1</dim>
					<dim>1</dim>
					<dim>1</dim>
				</port>
			</output>
		</layer>
		<layer id="458" name="131761318087202" type="Const" version="opset1">
			<data element_type="f32" offset="3384" shape="1,1,1,1" size="4"/>
			<output>
				<port id="0" precision="FP32">
					<dim>1</dim>
					<dim>1</dim>
					<dim>1</dim>
					<dim>1</dim>
				</port>
			</output>
		</layer>
		<layer id="459" name="131771318188477" type="Const" version="opset1">
			<data element_type="f32" offset="3388" shape="1,1,1,1" size="4"/>
			<output>
				<port id="0" precision="FP32">
					<dim>1</dim>
					<dim>1</dim>
					<dim>1</dim>
					<dim>1</dim>
				</port>
			</output>
		</layer>
		<layer id="460" name="110331103786638" type="Const" version="opset1">
			<data element_type="f32" offset="3392" shape="1,1,1,1" size="4"/>
			<output>
				<port id="0" precision="FP32">
					<dim>1</dim>
					<dim>1</dim>
					<dim>1</dim>
					<dim>1</dim>
				</port>
			</output>
		</layer>
		<layer id="461" name="110341103882132" type="Const" version="opset1">
			<data element_type="f32" offset="3396" shape="1,1,1,1" size="4"/>
			<output>
				<port id="0" precision="FP32">
					<dim>1</dim>
					<dim>1</dim>
					<dim>1</dim>
					<dim>1</dim>
				</port>
			</output>
		</layer>
		<layer id="462" name="110351103981463" type="Const" version="opset1">
			<data element_type="f32" offset="3392" shape="1,1,1,1" size="4"/>
			<output>
				<port id="0" precision="FP32">
					<dim>1</dim>
					<dim>1</dim>
					<dim>1</dim>
					<dim>1</dim>
				</port>
			</output>
		</layer>
		<layer id="463" name="110361104087364" type="Const" version="opset1">
			<data element_type="f32" offset="3396" shape="1,1,1,1" size="4"/>
			<output>
				<port id="0" precision="FP32">
					<dim>1</dim>
					<dim>1</dim>
					<dim>1</dim>
					<dim>1</dim>
				</port>
			</output>
		</layer>
		<layer id="464" name="106931069784646" type="Const" version="opset1">
			<data element_type="f32" offset="3400" shape="1,1,1,1" size="4"/>
			<output>
				<port id="0" precision="FP32">
					<dim>1</dim>
					<dim>1</dim>
					<dim>1</dim>
					<dim>1</dim>
				</port>
			</output>
		</layer>
		<layer id="465" name="106941069888420" type="Const" version="opset1">
			<data element_type="f32" offset="3404" shape="1,1,1,1" size="4"/>
			<output>
				<port id="0" precision="FP32">
					<dim>1</dim>
					<dim>1</dim>
					<dim>1</dim>
					<dim>1</dim>
				</port>
			</output>
		</layer>
		<layer id="466" name="106951069984484" type="Const" version="opset1">
			<data element_type="f32" offset="3400" shape="1,1,1,1" size="4"/>
			<output>
				<port id="0" precision="FP32">
					<dim>1</dim>
					<dim>1</dim>
					<dim>1</dim>
					<dim>1</dim>
				</port>
			</output>
		</layer>
		<layer id="467" name="106961070087298" type="Const" version="opset1">
			<data element_type="f32" offset="3404" shape="1,1,1,1" size="4"/>
			<output>
				<port id="0" precision="FP32">
					<dim>1</dim>
					<dim>1</dim>
					<dim>1</dim>
					<dim>1</dim>
				</port>
			</output>
		</layer>
		<layer id="468" name="308563086085744" type="Const" version="opset1">
			<data element_type="f32" offset="3408" shape="1,1,1,1" size="4"/>
			<output>
				<port id="0" precision="FP32">
					<dim>1</dim>
					<dim>1</dim>
					<dim>1</dim>
					<dim>1</dim>
				</port>
			</output>
		</layer>
		<layer id="469" name="308573086180890" type="Const" version="opset1">
			<data element_type="f32" offset="3412" shape="1,1,1,1" size="4"/>
			<output>
				<port id="0" precision="FP32">
					<dim>1</dim>
					<dim>1</dim>
					<dim>1</dim>
					<dim>1</dim>
				</port>
			</output>
		</layer>
		<layer id="470" name="308583086286302" type="Const" version="opset1">
			<data element_type="f32" offset="3408" shape="1,1,1,1" size="4"/>
			<output>
				<port id="0" precision="FP32">
					<dim>1</dim>
					<dim>1</dim>
					<dim>1</dim>
					<dim>1</dim>
				</port>
			</output>
		</layer>
		<layer id="471" name="308593086386107" type="Const" version="opset1">
			<data element_type="f32" offset="3412" shape="1,1,1,1" size="4"/>
			<output>
				<port id="0" precision="FP32">
					<dim>1</dim>
					<dim>1</dim>
					<dim>1</dim>
					<dim>1</dim>
				</port>
			</output>
		</layer>
		<layer id="472" name="308063081081760" type="Const" version="opset1">
			<data element_type="f32" offset="3416" shape="1,1,1,1" size="4"/>
			<output>
				<port id="0" precision="FP32">
					<dim>1</dim>
					<dim>1</dim>
					<dim>1</dim>
					<dim>1</dim>
				</port>
			</output>
		</layer>
		<layer id="473" name="308073081182816" type="Const" version="opset1">
			<data element_type="f32" offset="3420" shape="1,1,1,1" size="4"/>
			<output>
				<port id="0" precision="FP32">
					<dim>1</dim>
					<dim>1</dim>
					<dim>1</dim>
					<dim>1</dim>
				</port>
			</output>
		</layer>
		<layer id="474" name="308083081278712" type="Const" version="opset1">
			<data element_type="f32" offset="3416" shape="1,1,1,1" size="4"/>
			<output>
				<port id="0" precision="FP32">
					<dim>1</dim>
					<dim>1</dim>
					<dim>1</dim>
					<dim>1</dim>
				</port>
			</output>
		</layer>
		<layer id="475" name="308093081379111" type="Const" version="opset1">
			<data element_type="f32" offset="3420" shape="1,1,1,1" size="4"/>
			<output>
				<port id="0" precision="FP32">
					<dim>1</dim>
					<dim>1</dim>
					<dim>1</dim>
					<dim>1</dim>
				</port>
			</output>
		</layer>
		<layer id="476" name="307663077080986" type="Const" version="opset1">
			<data element_type="f32" offset="3424" shape="1,1,1,1" size="4"/>
			<output>
				<port id="0" precision="FP32">
					<dim>1</dim>
					<dim>1</dim>
					<dim>1</dim>
					<dim>1</dim>
				</port>
			</output>
		</layer>
		<layer id="477" name="307673077185672" type="Const" version="opset1">
			<data element_type="f32" offset="3428" shape="1,1,1,1" size="4"/>
			<output>
				<port id="0" precision="FP32">
					<dim>1</dim>
					<dim>1</dim>
					<dim>1</dim>
					<dim>1</dim>
				</port>
			</output>
		</layer>
		<layer id="478" name="307683077283458" type="Const" version="opset1">
			<data element_type="f32" offset="3424" shape="1,1,1,1" size="4"/>
			<output>
				<port id="0" precision="FP32">
					<dim>1</dim>
					<dim>1</dim>
					<dim>1</dim>
					<dim>1</dim>
				</port>
			</output>
		</layer>
		<layer id="479" name="307693077388306" type="Const" version="opset1">
			<data element_type="f32" offset="3428" shape="1,1,1,1" size="4"/>
			<output>
				<port id="0" precision="FP32">
					<dim>1</dim>
					<dim>1</dim>
					<dim>1</dim>
					<dim>1</dim>
				</port>
			</output>
		</layer>
		<layer id="480" name="307363074086194" type="Const" version="opset1">
			<data element_type="f32" offset="3432" shape="1,1,1,1" size="4"/>
			<output>
				<port id="0" precision="FP32">
					<dim>1</dim>
					<dim>1</dim>
					<dim>1</dim>
					<dim>1</dim>
				</port>
			</output>
		</layer>
		<layer id="481" name="307373074179900" type="Const" version="opset1">
			<data element_type="f32" offset="3436" shape="1,1,1,1" size="4"/>
			<output>
				<port id="0" precision="FP32">
					<dim>1</dim>
					<dim>1</dim>
					<dim>1</dim>
					<dim>1</dim>
				</port>
			</output>
		</layer>
		<layer id="482" name="307383074284178" type="Const" version="opset1">
			<data element_type="f32" offset="3432" shape="1,1,1,1" size="4"/>
			<output>
				<port id="0" precision="FP32">
					<dim>1</dim>
					<dim>1</dim>
					<dim>1</dim>
					<dim>1</dim>
				</port>
			</output>
		</layer>
		<layer id="483" name="307393074382198" type="Const" version="opset1">
			<data element_type="f32" offset="3436" shape="1,1,1,1" size="4"/>
			<output>
				<port id="0" precision="FP32">
					<dim>1</dim>
					<dim>1</dim>
					<dim>1</dim>
					<dim>1</dim>
				</port>
			</output>
		</layer>
		<layer id="484" name="107031070786689" type="Const" version="opset1">
			<data element_type="f32" offset="3440" shape="1,1,1,1" size="4"/>
			<output>
				<port id="0" precision="FP32">
					<dim>1</dim>
					<dim>1</dim>
					<dim>1</dim>
					<dim>1</dim>
				</port>
			</output>
		</layer>
		<layer id="485" name="107041070887835" type="Const" version="opset1">
			<data element_type="f32" offset="3444" shape="1,1,1,1" size="4"/>
			<output>
				<port id="0" precision="FP32">
					<dim>1</dim>
					<dim>1</dim>
					<dim>1</dim>
					<dim>1</dim>
				</port>
			</output>
		</layer>
		<layer id="486" name="107051070987361" type="Const" version="opset1">
			<data element_type="f32" offset="3440" shape="1,1,1,1" size="4"/>
			<output>
				<port id="0" precision="FP32">
					<dim>1</dim>
					<dim>1</dim>
					<dim>1</dim>
					<dim>1</dim>
				</port>
			</output>
		</layer>
		<layer id="487" name="107061071088852" type="Const" version="opset1">
			<data element_type="f32" offset="3444" shape="1,1,1,1" size="4"/>
			<output>
				<port id="0" precision="FP32">
					<dim>1</dim>
					<dim>1</dim>
					<dim>1</dim>
					<dim>1</dim>
				</port>
			</output>
		</layer>
		<layer id="488" name="160541605887409" type="Const" version="opset1">
			<data element_type="f32" offset="3448" shape="1,1,1,1" size="4"/>
			<output>
				<port id="0" precision="FP32">
					<dim>1</dim>
					<dim>1</dim>
					<dim>1</dim>
					<dim>1</dim>
				</port>
			</output>
		</layer>
		<layer id="489" name="160551605978886" type="Const" version="opset1">
			<data element_type="f32" offset="3452" shape="1,1,1,1" size="4"/>
			<output>
				<port id="0" precision="FP32">
					<dim>1</dim>
					<dim>1</dim>
					<dim>1</dim>
					<dim>1</dim>
				</port>
			</output>
		</layer>
		<layer id="490" name="160561606079693" type="Const" version="opset1">
			<data element_type="f32" offset="3448" shape="1,1,1,1" size="4"/>
			<output>
				<port id="0" precision="FP32">
					<dim>1</dim>
					<dim>1</dim>
					<dim>1</dim>
					<dim>1</dim>
				</port>
			</output>
		</layer>
		<layer id="491" name="160571606184214" type="Const" version="opset1">
			<data element_type="f32" offset="3452" shape="1,1,1,1" size="4"/>
			<output>
				<port id="0" precision="FP32">
					<dim>1</dim>
					<dim>1</dim>
					<dim>1</dim>
					<dim>1</dim>
				</port>
			</output>
		</layer>
		<layer id="492" name="306863069083893" type="Const" version="opset1">
			<data element_type="f32" offset="3456" shape="1,1,1,1" size="4"/>
			<output>
				<port id="0" precision="FP32">
					<dim>1</dim>
					<dim>1</dim>
					<dim>1</dim>
					<dim>1</dim>
				</port>
			</output>
		</layer>
		<layer id="493" name="306873069184445" type="Const" version="opset1">
			<data element_type="f32" offset="3460" shape="1,1,1,1" size="4"/>
			<output>
				<port id="0" precision="FP32">
					<dim>1</dim>
					<dim>1</dim>
					<dim>1</dim>
					<dim>1</dim>
				</port>
			</output>
		</layer>
		<layer id="494" name="306883069288456" type="Const" version="opset1">
			<data element_type="f32" offset="3456" shape="1,1,1,1" size="4"/>
			<output>
				<port id="0" precision="FP32">
					<dim>1</dim>
					<dim>1</dim>
					<dim>1</dim>
					<dim>1</dim>
				</port>
			</output>
		</layer>
		<layer id="495" name="306893069384163" type="Const" version="opset1">
			<data element_type="f32" offset="3460" shape="1,1,1,1" size="4"/>
			<output>
				<port id="0" precision="FP32">
					<dim>1</dim>
					<dim>1</dim>
					<dim>1</dim>
					<dim>1</dim>
				</port>
			</output>
		</layer>
		<layer id="496" name="306363064089335" type="Const" version="opset1">
			<data element_type="f32" offset="3464" shape="1,1,1,1" size="4"/>
			<output>
				<port id="0" precision="FP32">
					<dim>1</dim>
					<dim>1</dim>
					<dim>1</dim>
					<dim>1</dim>
				</port>
			</output>
		</layer>
		<layer id="497" name="306373064181697" type="Const" version="opset1">
			<data element_type="f32" offset="3468" shape="1,1,1,1" size="4"/>
			<output>
				<port id="0" precision="FP32">
					<dim>1</dim>
					<dim>1</dim>
					<dim>1</dim>
					<dim>1</dim>
				</port>
			</output>
		</layer>
		<layer id="498" name="306383064289065" type="Const" version="opset1">
			<data element_type="f32" offset="3464" shape="1,1,1,1" size="4"/>
			<output>
				<port id="0" precision="FP32">
					<dim>1</dim>
					<dim>1</dim>
					<dim>1</dim>
					<dim>1</dim>
				</port>
			</output>
		</layer>
		<layer id="499" name="306393064386260" type="Const" version="opset1">
			<data element_type="f32" offset="3468" shape="1,1,1,1" size="4"/>
			<output>
				<port id="0" precision="FP32">
					<dim>1</dim>
					<dim>1</dim>
					<dim>1</dim>
					<dim>1</dim>
				</port>
			</output>
		</layer>
…
		<edge from-layer="6180" from-port="0" to-layer="6181" to-port="1"/>
		<edge from-layer="6181" from-port="2" to-layer="6183" to-port="0"/>
		<edge from-layer="6182" from-port="0" to-layer="6183" to-port="1"/>
		<edge from-layer="6183" from-port="2" to-layer="6184" to-port="0"/>
		<edge from-layer="196" from-port="0" to-layer="6184" to-port="1"/>
		<edge from-layer="197" from-port="0" to-layer="6184" to-port="2"/>
		<edge from-layer="198" from-port="0" to-layer="6184" to-port="3"/>
		<edge from-layer="199" from-port="0" to-layer="6184" to-port="4"/>
		<edge from-layer="6133" from-port="5" to-layer="6185" to-port="0"/>
		<edge from-layer="6145" from-port="5" to-layer="6185" to-port="1"/>
		<edge from-layer="6158" from-port="5" to-layer="6185" to-port="2"/>
		<edge from-layer="6171" from-port="5" to-layer="6185" to-port="3"/>
		<edge from-layer="6184" from-port="5" to-layer="6185" to-port="4"/>
		<edge from-layer="6186" from-port="0" to-layer="6187" to-port="0"/>
		<edge from-layer="6187" from-port="1" to-layer="6189" to-port="0"/>
		<edge from-layer="6188" from-port="0" to-layer="6189" to-port="1"/>
		<edge from-layer="6189" from-port="2" to-layer="6191" to-port="0"/>
		<edge from-layer="6190" from-port="0" to-layer="6191" to-port="1"/>
		<edge from-layer="6185" from-port="5" to-layer="6192" to-port="0"/>
		<edge from-layer="6191" from-port="2" to-layer="6192" to-port="1"/>
		<edge from-layer="6192" from-port="2" to-layer="6194" to-port="0"/>
		<edge from-layer="6193" from-port="0" to-layer="6194" to-port="1"/>
		<edge from-layer="6194" from-port="2" to-layer="6195" to-port="0"/>
		<edge from-layer="192" from-port="0" to-layer="6195" to-port="1"/>
		<edge from-layer="193" from-port="0" to-layer="6195" to-port="2"/>
		<edge from-layer="194" from-port="0" to-layer="6195" to-port="3"/>
		<edge from-layer="195" from-port="0" to-layer="6195" to-port="4"/>
		<edge from-layer="6195" from-port="5" to-layer="6196" to-port="0"/>
		<edge from-layer="6133" from-port="5" to-layer="6196" to-port="1"/>
		<edge from-layer="6196" from-port="2" to-layer="6197" to-port="0"/>
		<edge from-layer="188" from-port="0" to-layer="6197" to-port="1"/>
		<edge from-layer="189" from-port="0" to-layer="6197" to-port="2"/>
		<edge from-layer="190" from-port="0" to-layer="6197" to-port="3"/>
		<edge from-layer="191" from-port="0" to-layer="6197" to-port="4"/>
		<edge from-layer="6198" from-port="0" to-layer="6199" to-port="0"/>
		<edge from-layer="6199" from-port="1" to-layer="6201" to-port="0"/>
		<edge from-layer="6200" from-port="0" to-layer="6201" to-port="1"/>
		<edge from-layer="6201" from-port="2" to-layer="6203" to-port="0"/>
		<edge from-layer="6202" from-port="0" to-layer="6203" to-port="1"/>
		<edge from-layer="6197" from-port="5" to-layer="6204" to-port="0"/>
		<edge from-layer="6203" from-port="2" to-layer="6204" to-port="1"/>
		<edge from-layer="6204" from-port="2" to-layer="6206" to-port="0"/>
		<edge from-layer="6205" from-port="0" to-layer="6206" to-port="1"/>
		<edge from-layer="6206" from-port="2" to-layer="6208" to-port="0"/>
		<edge from-layer="6207" from-port="0" to-layer="6208" to-port="1"/>
		<edge from-layer="6208" from-port="2" to-layer="6209" to-port="0"/>
		<edge from-layer="184" from-port="0" to-layer="6209" to-port="1"/>
		<edge from-layer="185" from-port="0" to-layer="6209" to-port="2"/>
		<edge from-layer="186" from-port="0" to-layer="6209" to-port="3"/>
		<edge from-layer="187" from-port="0" to-layer="6209" to-port="4"/>
		<edge from-layer="6197" from-port="5" to-layer="6210" to-port="0"/>
		<edge from-layer="6209" from-port="5" to-layer="6210" to-port="1"/>
		<edge from-layer="6211" from-port="0" to-layer="6212" to-port="0"/>
		<edge from-layer="6212" from-port="1" to-layer="6214" to-port="0"/>
		<edge from-layer="6213" from-port="0" to-layer="6214" to-port="1"/>
		<edge from-layer="6214" from-port="2" to-layer="6216" to-port="0"/>
		<edge from-layer="6215" from-port="0" to-layer="6216" to-port="1"/>
		<edge from-layer="6210" from-port="2" to-layer="6217" to-port="0"/>
		<edge from-layer="6216" from-port="2" to-layer="6217" to-port="1"/>
		<edge from-layer="6217" from-port="2" to-layer="6219" to-port="0"/>
		<edge from-layer="6218" from-port="0" to-layer="6219" to-port="1"/>
		<edge from-layer="6219" from-port="2" to-layer="6221" to-port="0"/>
		<edge from-layer="6220" from-port="0" to-layer="6221" to-port="1"/>
		<edge from-layer="6221" from-port="2" to-layer="6222" to-port="0"/>
		<edge from-layer="180" from-port="0" to-layer="6222" to-port="1"/>
		<edge from-layer="181" from-port="0" to-layer="6222" to-port="2"/>
		<edge from-layer="182" from-port="0" to-layer="6222" to-port="3"/>
		<edge from-layer="183" from-port="0" to-layer="6222" to-port="4"/>
		<edge from-layer="6197" from-port="5" to-layer="6223" to-port="0"/>
		<edge from-layer="6209" from-port="5" to-layer="6223" to-port="1"/>
		<edge from-layer="6222" from-port="5" to-layer="6223" to-port="2"/>
		<edge from-layer="6224" from-port="0" to-layer="6225" to-port="0"/>
		<edge from-layer="6225" from-port="1" to-layer="6227" to-port="0"/>
		<edge from-layer="6226" from-port="0" to-layer="6227" to-port="1"/>
		<edge from-layer="6227" from-port="2" to-layer="6229" to-port="0"/>
		<edge from-layer="6228" from-port="0" to-layer="6229" to-port="1"/>
		<edge from-layer="6223" from-port="3" to-layer="6230" to-port="0"/>
		<edge from-layer="6229" from-port="2" to-layer="6230" to-port="1"/>
		<edge from-layer="6230" from-port="2" to-layer="6232" to-port="0"/>
		<edge from-layer="6231" from-port="0" to-layer="6232" to-port="1"/>
		<edge from-layer="6232" from-port="2" to-layer="6234" to-port="0"/>
		<edge from-layer="6233" from-port="0" to-layer="6234" to-port="1"/>
		<edge from-layer="6234" from-port="2" to-layer="6235" to-port="0"/>
		<edge from-layer="176" from-port="0" to-layer="6235" to-port="1"/>
		<edge from-layer="177" from-port="0" to-layer="6235" to-port="2"/>
		<edge from-layer="178" from-port="0" to-layer="6235" to-port="3"/>
		<edge from-layer="179" from-port="0" to-layer="6235" to-port="4"/>
		<edge from-layer="6197" from-port="5" to-layer="6236" to-port="0"/>
		<edge from-layer="6209" from-port="5" to-layer="6236" to-port="1"/>
		<edge from-layer="6222" from-port="5" to-layer="6236" to-port="2"/>
		<edge from-layer="6235" from-port="5" to-layer="6236" to-port="3"/>
		<edge from-layer="6237" from-port="0" to-layer="6238" to-port="0"/>
		<edge from-layer="6238" from-port="1" to-layer="6240" to-port="0"/>
		<edge from-layer="6239" from-port="0" to-layer="6240" to-port="1"/>
		<edge from-layer="6240" from-port="2" to-layer="6242" to-port="0"/>
		<edge from-layer="6241" from-port="0" to-layer="6242" to-port="1"/>
		<edge from-layer="6236" from-port="4" to-layer="6243" to-port="0"/>
		<edge from-layer="6242" from-port="2" to-layer="6243" to-port="1"/>
		<edge from-layer="6243" from-port="2" to-layer="6245" to-port="0"/>
		<edge from-layer="6244" from-port="0" to-layer="6245" to-port="1"/>
		<edge from-layer="6245" from-port="2" to-layer="6247" to-port="0"/>
		<edge from-layer="6246" from-port="0" to-layer="6247" to-port="1"/>
		<edge from-layer="6247" from-port="2" to-layer="6248" to-port="0"/>
		<edge from-layer="172" from-port="0" to-layer="6248" to-port="1"/>
		<edge from-layer="173" from-port="0" to-layer="6248" to-port="2"/>
		<edge from-layer="174" from-port="0" to-layer="6248" to-port="3"/>
		<edge from-layer="175" from-port="0" to-layer="6248" to-port="4"/>
		<edge from-layer="6197" from-port="5" to-layer="6249" to-port="0"/>
		<edge from-layer="6209" from-port="5" to-layer="6249" to-port="1"/>
		<edge from-layer="6222" from-port="5" to-layer="6249" to-port="2"/>
		<edge from-layer="6235" from-port="5" to-layer="6249" to-port="3"/>
		<edge from-layer="6248" from-port="5" to-layer="6249" to-port="4"/>
		<edge from-layer="6250" from-port="0" to-layer="6251" to-port="0"/>
		<edge from-layer="6251" from-port="1" to-layer="6253" to-port="0"/>
		<edge from-layer="6252" from-port="0" to-layer="6253" to-port="1"/>
		<edge from-layer="6253" from-port="2" to-layer="6255" to-port="0"/>
		<edge from-layer="6254" from-port="0" to-layer="6255" to-port="1"/>
		<edge from-layer="6249" from-port="5" to-layer="6256" to-port="0"/>
		<edge from-layer="6255" from-port="2" to-layer="6256" to-port="1"/>
		<edge from-layer="6256" from-port="2" to-layer="6258" to-port="0"/>
		<edge from-layer="6257" from-port="0" to-layer="6258" to-port="1"/>
		<edge from-layer="6258" from-port="2" to-layer="6259" to-port="0"/>
		<edge from-layer="168" from-port="0" to-layer="6259" to-port="1"/>
		<edge from-layer="169" from-port="0" to-layer="6259" to-port="2"/>
		<edge from-layer="170" from-port="0" to-layer="6259" to-port="3"/>
		<edge from-layer="171" from-port="0" to-layer="6259" to-port="4"/>
		<edge from-layer="6259" from-port="5" to-layer="6260" to-port="0"/>
		<edge from-layer="6197" from-port="5" to-layer="6260" to-port="1"/>
		<edge from-layer="6260" from-port="2" to-layer="6261" to-port="0"/>
		<edge from-layer="164" from-port="0" to-layer="6261" to-port="1"/>
		<edge from-layer="165" from-port="0" to-layer="6261" to-port="2"/>
		<edge from-layer="166" from-port="0" to-layer="6261" to-port="3"/>
		<edge from-layer="167" from-port="0" to-layer="6261" to-port="4"/>
		<edge from-layer="6262" from-port="0" to-layer="6263" to-port="0"/>
		<edge from-layer="6263" from-port="1" to-layer="6265" to-port="0"/>
		<edge from-layer="6264" from-port="0" to-layer="6265" to-port="1"/>
		<edge from-layer="6265" from-port="2" to-layer="6267" to-port="0"/>
		<edge from-layer="6266" from-port="0" to-layer="6267" to-port="1"/>
		<edge from-layer="6261" from-port="5" to-layer="6268" to-port="0"/>
		<edge from-layer="6267" from-port="2" to-layer="6268" to-port="1"/>
		<edge from-layer="6268" from-port="2" to-layer="6270" to-port="0"/>
		<edge from-layer="6269" from-port="0" to-layer="6270" to-port="1"/>
		<edge from-layer="6270" from-port="2" to-layer="6272" to-port="0"/>
		<edge from-layer="6271" from-port="0" to-layer="6272" to-port="1"/>
		<edge from-layer="6272" from-port="2" to-layer="6273" to-port="0"/>
		<edge from-layer="160" from-port="0" to-layer="6273" to-port="1"/>
		<edge from-layer="161" from-port="0" to-layer="6273" to-port="2"/>
		<edge from-layer="162" from-port="0" to-layer="6273" to-port="3"/>
		<edge from-layer="163" from-port="0" to-layer="6273" to-port="4"/>
		<edge from-layer="6261" from-port="5" to-layer="6274" to-port="0"/>
		<edge from-layer="6273" from-port="5" to-layer="6274" to-port="1"/>
		<edge from-layer="6275" from-port="0" to-layer="6276" to-port="0"/>
		<edge from-layer="6276" from-port="1" to-layer="6278" to-port="0"/>
		<edge from-layer="6277" from-port="0" to-layer="6278" to-port="1"/>
		<edge from-layer="6278" from-port="2" to-layer="6280" to-port="0"/>
		<edge from-layer="6279" from-port="0" to-layer="6280" to-port="1"/>
		<edge from-layer="6274" from-port="2" to-layer="6281" to-port="0"/>
		<edge from-layer="6280" from-port="2" to-layer="6281" to-port="1"/>
		<edge from-layer="6281" from-port="2" to-layer="6283" to-port="0"/>
		<edge from-layer="6282" from-port="0" to-layer="6283" to-port="1"/>
		<edge from-layer="6283" from-port="2" to-layer="6285" to-port="0"/>
		<edge from-layer="6284" from-port="0" to-layer="6285" to-port="1"/>
		<edge from-layer="6285" from-port="2" to-layer="6286" to-port="0"/>
		<edge from-layer="156" from-port="0" to-layer="6286" to-port="1"/>
		<edge from-layer="157" from-port="0" to-layer="6286" to-port="2"/>
		<edge from-layer="158" from-port="0" to-layer="6286" to-port="3"/>
		<edge from-layer="159" from-port="0" to-layer="6286" to-port="4"/>
		<edge from-layer="6261" from-port="5" to-layer="6287" to-port="0"/>
		<edge from-layer="6273" from-port="5" to-layer="6287" to-port="1"/>
		<edge from-layer="6286" from-port="5" to-layer="6287" to-port="2"/>
		<edge from-layer="6288" from-port="0" to-layer="6289" to-port="0"/>
		<edge from-layer="6289" from-port="1" to-layer="6291" to-port="0"/>
		<edge from-layer="6290" from-port="0" to-layer="6291" to-port="1"/>
		<edge from-layer="6291" from-port="2" to-layer="6293" to-port="0"/>
		<edge from-layer="6292" from-port="0" to-layer="6293" to-port="1"/>
		<edge from-layer="6287" from-port="3" to-layer="6294" to-port="0"/>
		<edge from-layer="6293" from-port="2" to-layer="6294" to-port="1"/>
		<edge from-layer="6294" from-port="2" to-layer="6296" to-port="0"/>
		<edge from-layer="6295" from-port="0" to-layer="6296" to-port="1"/>
		<edge from-layer="6296" from-port="2" to-layer="6298" to-port="0"/>
		<edge from-layer="6297" from-port="0" to-layer="6298" to-port="1"/>
		<edge from-layer="6298" from-port="2" to-layer="6299" to-port="0"/>
		<edge from-layer="152" from-port="0" to-layer="6299" to-port="1"/>
		<edge from-layer="153" from-port="0" to-layer="6299" to-port="2"/>
		<edge from-layer="154" from-port="0" to-layer="6299" to-port="3"/>
		<edge from-layer="155" from-port="0" to-layer="6299" to-port="4"/>
		<edge from-layer="6261" from-port="5" to-layer="6300" to-port="0"/>
		<edge from-layer="6273" from-port="5" to-layer="6300" to-port="1"/>
		<edge from-layer="6286" from-port="5" to-layer="6300" to-port="2"/>
		<edge from-layer="6299" from-port="5" to-layer="6300" to-port="3"/>
		<edge from-layer="6301" from-port="0" to-layer="6302" to-port="0"/>
		<edge from-layer="6302" from-port="1" to-layer="6304" to-port="0"/>
		<edge from-layer="6303" from-port="0" to-layer="6304" to-port="1"/>
		<edge from-layer="6304" from-port="2" to-layer="6306" to-port="0"/>
		<edge from-layer="6305" from-port="0" to-layer="6306" to-port="1"/>
		<edge from-layer="6300" from-port="4" to-layer="6307" to-port="0"/>
		<edge from-layer="6306" from-port="2" to-layer="6307" to-port="1"/>
		<edge from-layer="6307" from-port="2" to-layer="6309" to-port="0"/>
		<edge from-layer="6308" from-port="0" to-layer="6309" to-port="1"/>
		<edge from-layer="6309" from-port="2" to-layer="6311" to-port="0"/>
		<edge from-layer="6310" from-port="0" to-layer="6311" to-port="1"/>
		<edge from-layer="6311" from-port="2" to-layer="6312" to-port="0"/>
		<edge from-layer="148" from-port="0" to-layer="6312" to-port="1"/>
		<edge from-layer="149" from-port="0" to-layer="6312" to-port="2"/>
		<edge from-layer="150" from-port="0" to-layer="6312" to-port="3"/>
		<edge from-layer="151" from-port="0" to-layer="6312" to-port="4"/>
		<edge from-layer="6261" from-port="5" to-layer="6313" to-port="0"/>
		<edge from-layer="6273" from-port="5" to-layer="6313" to-port="1"/>
		<edge from-layer="6286" from-port="5" to-layer="6313" to-port="2"/>
		<edge from-layer="6299" from-port="5" to-layer="6313" to-port="3"/>
		<edge from-layer="6312" from-port="5" to-layer="6313" to-port="4"/>
		<edge from-layer="6314" from-port="0" to-layer="6315" to-port="0"/>
		<edge from-layer="6315" from-port="1" to-layer="6317" to-port="0"/>
		<edge from-layer="6316" from-port="0" to-layer="6317" to-port="1"/>
		<edge from-layer="6317" from-port="2" to-layer="6319" to-port="0"/>
		<edge from-layer="6318" from-port="0" to-layer="6319" to-port="1"/>
		<edge from-layer="6313" from-port="5" to-layer="6320" to-port="0"/>
		<edge from-layer="6319" from-port="2" to-layer="6320" to-port="1"/>
		<edge from-layer="6320" from-port="2" to-layer="6322" to-port="0"/>
		<edge from-layer="6321" from-port="0" to-layer="6322" to-port="1"/>
		<edge from-layer="6322" from-port="2" to-layer="6323" to-port="0"/>
		<edge from-layer="144" from-port="0" to-layer="6323" to-port="1"/>
		<edge from-layer="145" from-port="0" to-layer="6323" to-port="2"/>
		<edge from-layer="146" from-port="0" to-layer="6323" to-port="3"/>
		<edge from-layer="147" from-port="0" to-layer="6323" to-port="4"/>
		<edge from-layer="6323" from-port="5" to-layer="6324" to-port="0"/>
		<edge from-layer="6261" from-port="5" to-layer="6324" to-port="1"/>
		<edge from-layer="6324" from-port="2" to-layer="6325" to-port="0"/>
		<edge from-layer="140" from-port="0" to-layer="6325" to-port="1"/>
		<edge from-layer="141" from-port="0" to-layer="6325" to-port="2"/>
		<edge from-layer="142" from-port="0" to-layer="6325" to-port="3"/>
		<edge from-layer="143" from-port="0" to-layer="6325" to-port="4"/>
		<edge from-layer="6326" from-port="0" to-layer="6327" to-port="0"/>
		<edge from-layer="6327" from-port="1" to-layer="6329" to-port="0"/>
		<edge from-layer="6328" from-port="0" to-layer="6329" to-port="1"/>
		<edge from-layer="6329" from-port="2" to-layer="6331" to-port="0"/>
		<edge from-layer="6330" from-port="0" to-layer="6331" to-port="1"/>
		<edge from-layer="6325" from-port="5" to-layer="6332" to-port="0"/>
		<edge from-layer="6331" from-port="2" to-layer="6332" to-port="1"/>
		<edge from-layer="6332" from-port="2" to-layer="6333" to-port="0"/>
		<edge from-layer="136" from-port="0" to-layer="6333" to-port="1"/>
		<edge from-layer="137" from-port="0" to-layer="6333" to-port="2"/>
		<edge from-layer="138" from-port="0" to-layer="6333" to-port="3"/>
		<edge from-layer="139" from-port="0" to-layer="6333" to-port="4"/>
		<edge from-layer="6333" from-port="5" to-layer="6334" to-port="0"/>
		<edge from-layer="6133" from-port="5" to-layer="6334" to-port="1"/>
		<edge from-layer="6334" from-port="2" to-layer="6335" to-port="0"/>
		<edge from-layer="132" from-port="0" to-layer="6335" to-port="1"/>
		<edge from-layer="133" from-port="0" to-layer="6335" to-port="2"/>
		<edge from-layer="134" from-port="0" to-layer="6335" to-port="3"/>
		<edge from-layer="135" from-port="0" to-layer="6335" to-port="4"/>
		<edge from-layer="6336" from-port="0" to-layer="6337" to-port="0"/>
		<edge from-layer="6337" from-port="1" to-layer="6339" to-port="0"/>
		<edge from-layer="6338" from-port="0" to-layer="6339" to-port="1"/>
		<edge from-layer="6339" from-port="2" to-layer="6341" to-port="0"/>
		<edge from-layer="6340" from-port="0" to-layer="6341" to-port="1"/>
		<edge from-layer="6335" from-port="5" to-layer="6342" to-port="0"/>
		<edge from-layer="6341" from-port="2" to-layer="6342" to-port="1"/>
		<edge from-layer="6342" from-port="2" to-layer="6344" to-port="0"/>
		<edge from-layer="6343" from-port="0" to-layer="6344" to-port="1"/>
		<edge from-layer="6344" from-port="2" to-layer="6346" to-port="0"/>
		<edge from-layer="6345" from-port="0" to-layer="6346" to-port="1"/>
		<edge from-layer="6346" from-port="2" to-layer="6347" to-port="0"/>
		<edge from-layer="128" from-port="0" to-layer="6347" to-port="1"/>
		<edge from-layer="129" from-port="0" to-layer="6347" to-port="2"/>
		<edge from-layer="130" from-port="0" to-layer="6347" to-port="3"/>
		<edge from-layer="131" from-port="0" to-layer="6347" to-port="4"/>
		<edge from-layer="6335" from-port="5" to-layer="6348" to-port="0"/>
		<edge from-layer="6347" from-port="5" to-layer="6348" to-port="1"/>
		<edge from-layer="6349" from-port="0" to-layer="6350" to-port="0"/>
		<edge from-layer="6350" from-port="1" to-layer="6352" to-port="0"/>
		<edge from-layer="6351" from-port="0" to-layer="6352" to-port="1"/>
		<edge from-layer="6352" from-port="2" to-layer="6354" to-port="0"/>
		<edge from-layer="6353" from-port="0" to-layer="6354" to-port="1"/>
		<edge from-layer="6348" from-port="2" to-layer="6355" to-port="0"/>
		<edge from-layer="6354" from-port="2" to-layer="6355" to-port="1"/>
		<edge from-layer="6355" from-port="2" to-layer="6357" to-port="0"/>
		<edge from-layer="6356" from-port="0" to-layer="6357" to-port="1"/>
		<edge from-layer="6357" from-port="2" to-layer="6359" to-port="0"/>
		<edge from-layer="6358" from-port="0" to-layer="6359" to-port="1"/>
		<edge from-layer="6359" from-port="2" to-layer="6360" to-port="0"/>
		<edge from-layer="124" from-port="0" to-layer="6360" to-port="1"/>
		<edge from-layer="125" from-port="0" to-layer="6360" to-port="2"/>
		<edge from-layer="126" from-port="0" to-layer="6360" to-port="3"/>
		<edge from-layer="127" from-port="0" to-layer="6360" to-port="4"/>
		<edge from-layer="6335" from-port="5" to-layer="6361" to-port="0"/>
		<edge from-layer="6347" from-port="5" to-layer="6361" to-port="1"/>
		<edge from-layer="6360" from-port="5" to-layer="6361" to-port="2"/>
		<edge from-layer="6362" from-port="0" to-layer="6363" to-port="0"/>
		<edge from-layer="6363" from-port="1" to-layer="6365" to-port="0"/>
		<edge from-layer="6364" from-port="0" to-layer="6365" to-port="1"/>
		<edge from-layer="6365" from-port="2" to-layer="6367" to-port="0"/>
		<edge from-layer="6366" from-port="0" to-layer="6367" to-port="1"/>
		<edge from-layer="6361" from-port="3" to-layer="6368" to-port="0"/>
		<edge from-layer="6367" from-port="2" to-layer="6368" to-port="1"/>
		<edge from-layer="6368" from-port="2" to-layer="6370" to-port="0"/>
		<edge from-layer="6369" from-port="0" to-layer="6370" to-port="1"/>
		<edge from-layer="6370" from-port="2" to-layer="6372" to-port="0"/>
		<edge from-layer="6371" from-port="0" to-layer="6372" to-port="1"/>
		<edge from-layer="6372" from-port="2" to-layer="6373" to-port="0"/>
		<edge from-layer="120" from-port="0" to-layer="6373" to-port="1"/>
		<edge from-layer="121" from-port="0" to-layer="6373" to-port="2"/>
		<edge from-layer="122" from-port="0" to-layer="6373" to-port="3"/>
		<edge from-layer="123" from-port="0" to-layer="6373" to-port="4"/>
		<edge from-layer="6335" from-port="5" to-layer="6374" to-port="0"/>
		<edge from-layer="6347" from-port="5" to-layer="6374" to-port="1"/>
		<edge from-layer="6360" from-port="5" to-layer="6374" to-port="2"/>
		<edge from-layer="6373" from-port="5" to-layer="6374" to-port="3"/>
		<edge from-layer="6375" from-port="0" to-layer="6376" to-port="0"/>
		<edge from-layer="6376" from-port="1" to-layer="6378" to-port="0"/>
		<edge from-layer="6377" from-port="0" to-layer="6378" to-port="1"/>
		<edge from-layer="6378" from-port="2" to-layer="6380" to-port="0"/>
		<edge from-layer="6379" from-port="0" to-layer="6380" to-port="1"/>
		<edge from-layer="6374" from-port="4" to-layer="6381" to-port="0"/>
		<edge from-layer="6380" from-port="2" to-layer="6381" to-port="1"/>
		<edge from-layer="6381" from-port="2" to-layer="6383" to-port="0"/>
		<edge from-layer="6382" from-port="0" to-layer="6383" to-port="1"/>
		<edge from-layer="6383" from-port="2" to-layer="6385" to-port="0"/>
		<edge from-layer="6384" from-port="0" to-layer="6385" to-port="1"/>
		<edge from-layer="6385" from-port="2" to-layer="6386" to-port="0"/>
		<edge from-layer="116" from-port="0" to-layer="6386" to-port="1"/>
		<edge from-layer="117" from-port="0" to-layer="6386" to-port="2"/>
		<edge from-layer="118" from-port="0" to-layer="6386" to-port="3"/>
		<edge from-layer="119" from-port="0" to-layer="6386" to-port="4"/>
		<edge from-layer="6335" from-port="5" to-layer="6387" to-port="0"/>
		<edge from-layer="6347" from-port="5" to-layer="6387" to-port="1"/>
		<edge from-layer="6360" from-port="5" to-layer="6387" to-port="2"/>
		<edge from-layer="6373" from-port="5" to-layer="6387" to-port="3"/>
		<edge from-layer="6386" from-port="5" to-layer="6387" to-port="4"/>
		<edge from-layer="6388" from-port="0" to-layer="6389" to-port="0"/>
		<edge from-layer="6389" from-port="1" to-layer="6391" to-port="0"/>
		<edge from-layer="6390" from-port="0" to-layer="6391" to-port="1"/>
		<edge from-layer="6391" from-port="2" to-layer="6393" to-port="0"/>
		<edge from-layer="6392" from-port="0" to-layer="6393" to-port="1"/>
		<edge from-layer="6387" from-port="5" to-layer="6394" to-port="0"/>
		<edge from-layer="6393" from-port="2" to-layer="6394" to-port="1"/>
		<edge from-layer="6394" from-port="2" to-layer="6396" to-port="0"/>
		<edge from-layer="6395" from-port="0" to-layer="6396" to-port="1"/>
		<edge from-layer="6396" from-port="2" to-layer="6397" to-port="0"/>
		<edge from-layer="112" from-port="0" to-layer="6397" to-port="1"/>
		<edge from-layer="113" from-port="0" to-layer="6397" to-port="2"/>
		<edge from-layer="114" from-port="0" to-layer="6397" to-port="3"/>
		<edge from-layer="115" from-port="0" to-layer="6397" to-port="4"/>
		<edge from-layer="6397" from-port="5" to-layer="6398" to-port="0"/>
		<edge from-layer="6335" from-port="5" to-layer="6398" to-port="1"/>
		<edge from-layer="6398" from-port="2" to-layer="6399" to-port="0"/>
		<edge from-layer="108" from-port="0" to-layer="6399" to-port="1"/>
		<edge from-layer="109" from-port="0" to-layer="6399" to-port="2"/>
		<edge from-layer="110" from-port="0" to-layer="6399" to-port="3"/>
		<edge from-layer="111" from-port="0" to-layer="6399" to-port="4"/>
		<edge from-layer="6400" from-port="0" to-layer="6401" to-port="0"/>
		<edge from-layer="6401" from-port="1" to-layer="6403" to-port="0"/>
		<edge from-layer="6402" from-port="0" to-layer="6403" to-port="1"/>
		<edge from-layer="6403" from-port="2" to-layer="6405" to-port="0"/>
		<edge from-layer="6404" from-port="0" to-layer="6405" to-port="1"/>
		<edge from-layer="6399" from-port="5" to-layer="6406" to-port="0"/>
		<edge from-layer="6405" from-port="2" to-layer="6406" to-port="1"/>
		<edge from-layer="6406" from-port="2" to-layer="6408" to-port="0"/>
		<edge from-layer="6407" from-port="0" to-layer="6408" to-port="1"/>
		<edge from-layer="6408" from-port="2" to-layer="6410" to-port="0"/>
		<edge from-layer="6409" from-port="0" to-layer="6410" to-port="1"/>
		<edge from-layer="6410" from-port="2" to-layer="6411" to-port="0"/>
		<edge from-layer="104" from-port="0" to-layer="6411" to-port="1"/>
		<edge from-layer="105" from-port="0" to-layer="6411" to-port="2"/>
		<edge from-layer="106" from-port="0" to-layer="6411" to-port="3"/>
		<edge from-layer="107" from-port="0" to-layer="6411" to-port="4"/>
		<edge from-layer="6399" from-port="5" to-layer="6412" to-port="0"/>
		<edge from-layer="6411" from-port="5" to-layer="6412" to-port="1"/>
		<edge from-layer="6413" from-port="0" to-layer="6414" to-port="0"/>
		<edge from-layer="6414" from-port="1" to-layer="6416" to-port="0"/>
		<edge from-layer="6415" from-port="0" to-layer="6416" to-port="1"/>
		<edge from-layer="6416" from-port="2" to-layer="6418" to-port="0"/>
		<edge from-layer="6417" from-port="0" to-layer="6418" to-port="1"/>
		<edge from-layer="6412" from-port="2" to-layer="6419" to-port="0"/>
		<edge from-layer="6418" from-port="2" to-layer="6419" to-port="1"/>
		<edge from-layer="6419" from-port="2" to-layer="6421" to-port="0"/>
		<edge from-layer="6420" from-port="0" to-layer="6421" to-port="1"/>
		<edge from-layer="6421" from-port="2" to-layer="6423" to-port="0"/>
		<edge from-layer="6422" from-port="0" to-layer="6423" to-port="1"/>
		<edge from-layer="6423" from-port="2" to-layer="6424" to-port="0"/>
		<edge from-layer="100" from-port="0" to-layer="6424" to-port="1"/>
		<edge from-layer="101" from-port="0" to-layer="6424" to-port="2"/>
		<edge from-layer="102" from-port="0" to-layer="6424" to-port="3"/>
		<edge from-layer="103" from-port="0" to-layer="6424" to-port="4"/>
		<edge from-layer="6399" from-port="5" to-layer="6425" to-port="0"/>
		<edge from-layer="6411" from-port="5" to-layer="6425" to-port="1"/>
		<edge from-layer="6424" from-port="5" to-layer="6425" to-port="2"/>
		<edge from-layer="6426" from-port="0" to-layer="6427" to-port="0"/>
		<edge from-layer="6427" from-port="1" to-layer="6429" to-port="0"/>
		<edge from-layer="6428" from-port="0" to-layer="6429" to-port="1"/>
		<edge from-layer="6429" from-port="2" to-layer="6431" to-port="0"/>
		<edge from-layer="6430" from-port="0" to-layer="6431" to-port="1"/>
		<edge from-layer="6425" from-port="3" to-layer="6432" to-port="0"/>
		<edge from-layer="6431" from-port="2" to-layer="6432" to-port="1"/>
		<edge from-layer="6432" from-port="2" to-layer="6434" to-port="0"/>
		<edge from-layer="6433" from-port="0" to-layer="6434" to-port="1"/>
		<edge from-layer="6434" from-port="2" to-layer="6436" to-port="0"/>
		<edge from-layer="6435" from-port="0" to-layer="6436" to-port="1"/>
		<edge from-layer="6436" from-port="2" to-layer="6437" to-port="0"/>
		<edge from-layer="96" from-port="0" to-layer="6437" to-port="1"/>
		<edge from-layer="97" from-port="0" to-layer="6437" to-port="2"/>
		<edge from-layer="98" from-port="0" to-layer="6437" to-port="3"/>
		<edge from-layer="99" from-port="0" to-layer="6437" to-port="4"/>
		<edge from-layer="6399" from-port="5" to-layer="6438" to-port="0"/>
		<edge from-layer="6411" from-port="5" to-layer="6438" to-port="1"/>
		<edge from-layer="6424" from-port="5" to-layer="6438" to-port="2"/>
		<edge from-layer="6437" from-port="5" to-layer="6438" to-port="3"/>
		<edge from-layer="6439" from-port="0" to-layer="6440" to-port="0"/>
		<edge from-layer="6440" from-port="1" to-layer="6442" to-port="0"/>
		<edge from-layer="6441" from-port="0" to-layer="6442" to-port="1"/>
		<edge from-layer="6442" from-port="2" to-layer="6444" to-port="0"/>
		<edge from-layer="6443" from-port="0" to-layer="6444" to-port="1"/>
		<edge from-layer="6438" from-port="4" to-layer="6445" to-port="0"/>
		<edge from-layer="6444" from-port="2" to-layer="6445" to-port="1"/>
		<edge from-layer="6445" from-port="2" to-layer="6447" to-port="0"/>
		<edge from-layer="6446" from-port="0" to-layer="6447" to-port="1"/>
		<edge from-layer="6447" from-port="2" to-layer="6449" to-port="0"/>
		<edge from-layer="6448" from-port="0" to-layer="6449" to-port="1"/>
		<edge from-layer="6449" from-port="2" to-layer="6450" to-port="0"/>
		<edge from-layer="92" from-port="0" to-layer="6450" to-port="1"/>
		<edge from-layer="93" from-port="0" to-layer="6450" to-port="2"/>
		<edge from-layer="94" from-port="0" to-layer="6450" to-port="3"/>
		<edge from-layer="95" from-port="0" to-layer="6450" to-port="4"/>
		<edge from-layer="6399" from-port="5" to-layer="6451" to-port="0"/>
		<edge from-layer="6411" from-port="5" to-layer="6451" to-port="1"/>
		<edge from-layer="6424" from-port="5" to-layer="6451" to-port="2"/>
		<edge from-layer="6437" from-port="5" to-layer="6451" to-port="3"/>
		<edge from-layer="6450" from-port="5" to-layer="6451" to-port="4"/>
		<edge from-layer="6452" from-port="0" to-layer="6453" to-port="0"/>
		<edge from-layer="6453" from-port="1" to-layer="6455" to-port="0"/>
		<edge from-layer="6454" from-port="0" to-layer="6455" to-port="1"/>
		<edge from-layer="6455" from-port="2" to-layer="6457" to-port="0"/>
		<edge from-layer="6456" from-port="0" to-layer="6457" to-port="1"/>
		<edge from-layer="6451" from-port="5" to-layer="6458" to-port="0"/>
		<edge from-layer="6457" from-port="2" to-layer="6458" to-port="1"/>
		<edge from-layer="6458" from-port="2" to-layer="6460" to-port="0"/>
		<edge from-layer="6459" from-port="0" to-layer="6460" to-port="1"/>
		<edge from-layer="6460" from-port="2" to-layer="6461" to-port="0"/>
		<edge from-layer="88" from-port="0" to-layer="6461" to-port="1"/>
		<edge from-layer="89" from-port="0" to-layer="6461" to-port="2"/>
		<edge from-layer="90" from-port="0" to-layer="6461" to-port="3"/>
		<edge from-layer="91" from-port="0" to-layer="6461" to-port="4"/>
		<edge from-layer="6461" from-port="5" to-layer="6462" to-port="0"/>
		<edge from-layer="6399" from-port="5" to-layer="6462" to-port="1"/>
		<edge from-layer="6462" from-port="2" to-layer="6463" to-port="0"/>
		<edge from-layer="84" from-port="0" to-layer="6463" to-port="1"/>
		<edge from-layer="85" from-port="0" to-layer="6463" to-port="2"/>
		<edge from-layer="86" from-port="0" to-layer="6463" to-port="3"/>
		<edge from-layer="87" from-port="0" to-layer="6463" to-port="4"/>
		<edge from-layer="6464" from-port="0" to-layer="6465" to-port="0"/>
		<edge from-layer="6465" from-port="1" to-layer="6467" to-port="0"/>
		<edge from-layer="6466" from-port="0" to-layer="6467" to-port="1"/>
		<edge from-layer="6467" from-port="2" to-layer="6469" to-port="0"/>
		<edge from-layer="6468" from-port="0" to-layer="6469" to-port="1"/>
		<edge from-layer="6463" from-port="5" to-layer="6470" to-port="0"/>
		<edge from-layer="6469" from-port="2" to-layer="6470" to-port="1"/>
		<edge from-layer="6470" from-port="2" to-layer="6472" to-port="0"/>
		<edge from-layer="6471" from-port="0" to-layer="6472" to-port="1"/>
		<edge from-layer="6472" from-port="2" to-layer="6474" to-port="0"/>
		<edge from-layer="6473" from-port="0" to-layer="6474" to-port="1"/>
		<edge from-layer="6474" from-port="2" to-layer="6475" to-port="0"/>
		<edge from-layer="80" from-port="0" to-layer="6475" to-port="1"/>
		<edge from-layer="81" from-port="0" to-layer="6475" to-port="2"/>
		<edge from-layer="82" from-port="0" to-layer="6475" to-port="3"/>
		<edge from-layer="83" from-port="0" to-layer="6475" to-port="4"/>
		<edge from-layer="6463" from-port="5" to-layer="6476" to-port="0"/>
		<edge from-layer="6475" from-port="5" to-layer="6476" to-port="1"/>
		<edge from-layer="6477" from-port="0" to-layer="6478" to-port="0"/>
		<edge from-layer="6478" from-port="1" to-layer="6480" to-port="0"/>
		<edge from-layer="6479" from-port="0" to-layer="6480" to-port="1"/>
		<edge from-layer="6480" from-port="2" to-layer="6482" to-port="0"/>
		<edge from-layer="6481" from-port="0" to-layer="6482" to-port="1"/>
		<edge from-layer="6476" from-port="2" to-layer="6483" to-port="0"/>
		<edge from-layer="6482" from-port="2" to-layer="6483" to-port="1"/>
		<edge from-layer="6483" from-port="2" to-layer="6485" to-port="0"/>
		<edge from-layer="6484" from-port="0" to-layer="6485" to-port="1"/>
		<edge from-layer="6485" from-port="2" to-layer="6487" to-port="0"/>
		<edge from-layer="6486" from-port="0" to-layer="6487" to-port="1"/>
		<edge from-layer="6487" from-port="2" to-layer="6488" to-port="0"/>
		<edge from-layer="76" from-port="0" to-layer="6488" to-port="1"/>
		<edge from-layer="77" from-port="0" to-layer="6488" to-port="2"/>
		<edge from-layer="78" from-port="0" to-layer="6488" to-port="3"/>
		<edge from-layer="79" from-port="0" to-layer="6488" to-port="4"/>
		<edge from-layer="6463" from-port="5" to-layer="6489" to-port="0"/>
		<edge from-layer="6475" from-port="5" to-layer="6489" to-port="1"/>
		<edge from-layer="6488" from-port="5" to-layer="6489" to-port="2"/>
		<edge from-layer="6490" from-port="0" to-layer="6491" to-port="0"/>
		<edge from-layer="6491" from-port="1" to-layer="6493" to-port="0"/>
		<edge from-layer="6492" from-port="0" to-layer="6493" to-port="1"/>
		<edge from-layer="6493" from-port="2" to-layer="6495" to-port="0"/>
		<edge from-layer="6494" from-port="0" to-layer="6495" to-port="1"/>
		<edge from-layer="6489" from-port="3" to-layer="6496" to-port="0"/>
		<edge from-layer="6495" from-port="2" to-layer="6496" to-port="1"/>
		<edge from-layer="6496" from-port="2" to-layer="6498" to-port="0"/>
		<edge from-layer="6497" from-port="0" to-layer="6498" to-port="1"/>
		<edge from-layer="6498" from-port="2" to-layer="6500" to-port="0"/>
		<edge from-layer="6499" from-port="0" to-layer="6500" to-port="1"/>
		<edge from-layer="6500" from-port="2" to-layer="6501" to-port="0"/>
		<edge from-layer="72" from-port="0" to-layer="6501" to-port="1"/>
		<edge from-layer="73" from-port="0" to-layer="6501" to-port="2"/>
		<edge from-layer="74" from-port="0" to-layer="6501" to-port="3"/>
		<edge from-layer="75" from-port="0" to-layer="6501" to-port="4"/>
		<edge from-layer="6463" from-port="5" to-layer="6502" to-port="0"/>
		<edge from-layer="6475" from-port="5" to-layer="6502" to-port="1"/>
		<edge from-layer="6488" from-port="5" to-layer="6502" to-port="2"/>
		<edge from-layer="6501" from-port="5" to-layer="6502" to-port="3"/>
		<edge from-layer="6503" from-port="0" to-layer="6504" to-port="0"/>
		<edge from-layer="6504" from-port="1" to-layer="6506" to-port="0"/>
		<edge from-layer="6505" from-port="0" to-layer="6506" to-port="1"/>
		<edge from-layer="6506" from-port="2" to-layer="6508" to-port="0"/>
		<edge from-layer="6507" from-port="0" to-layer="6508" to-port="1"/>
		<edge from-layer="6502" from-port="4" to-layer="6509" to-port="0"/>
		<edge from-layer="6508" from-port="2" to-layer="6509" to-port="1"/>
		<edge from-layer="6509" from-port="2" to-layer="6511" to-port="0"/>
		<edge from-layer="6510" from-port="0" to-layer="6511" to-port="1"/>
		<edge from-layer="6511" from-port="2" to-layer="6513" to-port="0"/>
		<edge from-layer="6512" from-port="0" to-layer="6513" to-port="1"/>
		<edge from-layer="6513" from-port="2" to-layer="6514" to-port="0"/>
		<edge from-layer="68" from-port="0" to-layer="6514" to-port="1"/>
		<edge from-layer="69" from-port="0" to-layer="6514" to-port="2"/>
		<edge from-layer="70" from-port="0" to-layer="6514" to-port="3"/>
		<edge from-layer="71" from-port="0" to-layer="6514" to-port="4"/>
		<edge from-layer="6463" from-port="5" to-layer="6515" to-port="0"/>
		<edge from-layer="6475" from-port="5" to-layer="6515" to-port="1"/>
		<edge from-layer="6488" from-port="5" to-layer="6515" to-port="2"/>
		<edge from-layer="6501" from-port="5" to-layer="6515" to-port="3"/>
		<edge from-layer="6514" from-port="5" to-layer="6515" to-port="4"/>
		<edge from-layer="6516" from-port="0" to-layer="6517" to-port="0"/>
		<edge from-layer="6517" from-port="1" to-layer="6519" to-port="0"/>
		<edge from-layer="6518" from-port="0" to-layer="6519" to-port="1"/>
		<edge from-layer="6519" from-port="2" to-layer="6521" to-port="0"/>
		<edge from-layer="6520" from-port="0" to-layer="6521" to-port="1"/>
		<edge from-layer="6515" from-port="5" to-layer="6522" to-port="0"/>
		<edge from-layer="6521" from-port="2" to-layer="6522" to-port="1"/>
		<edge from-layer="6522" from-port="2" to-layer="6524" to-port="0"/>
		<edge from-layer="6523" from-port="0" to-layer="6524" to-port="1"/>
		<edge from-layer="6524" from-port="2" to-layer="6525" to-port="0"/>
		<edge from-layer="64" from-port="0" to-layer="6525" to-port="1"/>
		<edge from-layer="65" from-port="0" to-layer="6525" to-port="2"/>
		<edge from-layer="66" from-port="0" to-layer="6525" to-port="3"/>
		<edge from-layer="67" from-port="0" to-layer="6525" to-port="4"/>
		<edge from-layer="6525" from-port="5" to-layer="6526" to-port="0"/>
		<edge from-layer="6463" from-port="5" to-layer="6526" to-port="1"/>
		<edge from-layer="6526" from-port="2" to-layer="6527" to-port="0"/>
		<edge from-layer="60" from-port="0" to-layer="6527" to-port="1"/>
		<edge from-layer="61" from-port="0" to-layer="6527" to-port="2"/>
		<edge from-layer="62" from-port="0" to-layer="6527" to-port="3"/>
		<edge from-layer="63" from-port="0" to-layer="6527" to-port="4"/>
		<edge from-layer="6528" from-port="0" to-layer="6529" to-port="0"/>
		<edge from-layer="6529" from-port="1" to-layer="6531" to-port="0"/>
		<edge from-layer="6530" from-port="0" to-layer="6531" to-port="1"/>
		<edge from-layer="6531" from-port="2" to-layer="6533" to-port="0"/>
		<edge from-layer="6532" from-port="0" to-layer="6533" to-port="1"/>
		<edge from-layer="6527" from-port="5" to-layer="6534" to-port="0"/>
		<edge from-layer="6533" from-port="2" to-layer="6534" to-port="1"/>
		<edge from-layer="6534" from-port="2" to-layer="6535" to-port="0"/>
		<edge from-layer="56" from-port="0" to-layer="6535" to-port="1"/>
		<edge from-layer="57" from-port="0" to-layer="6535" to-port="2"/>
		<edge from-layer="58" from-port="0" to-layer="6535" to-port="3"/>
		<edge from-layer="59" from-port="0" to-layer="6535" to-port="4"/>
		<edge from-layer="6535" from-port="5" to-layer="6536" to-port="0"/>
		<edge from-layer="6335" from-port="5" to-layer="6536" to-port="1"/>
		<edge from-layer="6536" from-port="2" to-layer="6537" to-port="0"/>
		<edge from-layer="52" from-port="0" to-layer="6537" to-port="1"/>
		<edge from-layer="53" from-port="0" to-layer="6537" to-port="2"/>
		<edge from-layer="54" from-port="0" to-layer="6537" to-port="3"/>
		<edge from-layer="55" from-port="0" to-layer="6537" to-port="4"/>
		<edge from-layer="6538" from-port="0" to-layer="6539" to-port="0"/>
		<edge from-layer="6539" from-port="1" to-layer="6541" to-port="0"/>
		<edge from-layer="6540" from-port="0" to-layer="6541" to-port="1"/>
		<edge from-layer="6541" from-port="2" to-layer="6543" to-port="0"/>
		<edge from-layer="6542" from-port="0" to-layer="6543" to-port="1"/>
		<edge from-layer="6537" from-port="5" to-layer="6544" to-port="0"/>
		<edge from-layer="6543" from-port="2" to-layer="6544" to-port="1"/>
		<edge from-layer="6544" from-port="2" to-layer="6546" to-port="0"/>
		<edge from-layer="6545" from-port="0" to-layer="6546" to-port="1"/>
		<edge from-layer="6546" from-port="2" to-layer="6547" to-port="0"/>
		<edge from-layer="48" from-port="0" to-layer="6547" to-port="1"/>
		<edge from-layer="49" from-port="0" to-layer="6547" to-port="2"/>
		<edge from-layer="50" from-port="0" to-layer="6547" to-port="3"/>
		<edge from-layer="51" from-port="0" to-layer="6547" to-port="4"/>
		<edge from-layer="47" from-port="5" to-layer="6548" to-port="0"/>
		<edge from-layer="6547" from-port="5" to-layer="6548" to-port="1"/>
		<edge from-layer="6548" from-port="2" to-layer="6549" to-port="0"/>
		<edge from-layer="24" from-port="0" to-layer="6549" to-port="1"/>
		<edge from-layer="25" from-port="0" to-layer="6549" to-port="2"/>
		<edge from-layer="26" from-port="0" to-layer="6549" to-port="3"/>
		<edge from-layer="27" from-port="0" to-layer="6549" to-port="4"/>
		<edge from-layer="6548" from-port="2" to-layer="6550" to-port="0"/>
		<edge from-layer="6550" from-port="1" to-layer="6551" to-port="0"/>
		<edge from-layer="6551" from-port="1" to-layer="6553" to-port="0"/>
		<edge from-layer="6552" from-port="0" to-layer="6553" to-port="1"/>
		<edge from-layer="6553" from-port="2" to-layer="6555" to-port="0"/>
		<edge from-layer="6554" from-port="0" to-layer="6555" to-port="1"/>
		<edge from-layer="6555" from-port="2" to-layer="6556" to-port="0"/>
		<edge from-layer="6556" from-port="1" to-layer="6557" to-port="0"/>
		<edge from-layer="6557" from-port="1" to-layer="6561" to-port="0"/>
		<edge from-layer="6558" from-port="0" to-layer="6561" to-port="1"/>
		<edge from-layer="6559" from-port="0" to-layer="6561" to-port="2"/>
		<edge from-layer="6560" from-port="0" to-layer="6561" to-port="3"/>
		<edge from-layer="6549" from-port="5" to-layer="6562" to-port="0"/>
		<edge from-layer="6561" from-port="4" to-layer="6562" to-port="1"/>
		<edge from-layer="22" from-port="0" to-layer="6562" to-port="2"/>
		<edge from-layer="23" from-port="0" to-layer="6562" to-port="3"/>
		<edge from-layer="6562" from-port="4" to-layer="6563" to-port="0"/>
		<edge from-layer="18" from-port="0" to-layer="6563" to-port="1"/>
		<edge from-layer="19" from-port="0" to-layer="6563" to-port="2"/>
		<edge from-layer="20" from-port="0" to-layer="6563" to-port="3"/>
		<edge from-layer="21" from-port="0" to-layer="6563" to-port="4"/>
		<edge from-layer="6564" from-port="0" to-layer="6565" to-port="0"/>
		<edge from-layer="6565" from-port="1" to-layer="6567" to-port="0"/>
		<edge from-layer="6566" from-port="0" to-layer="6567" to-port="1"/>
		<edge from-layer="6567" from-port="2" to-layer="6569" to-port="0"/>
		<edge from-layer="6568" from-port="0" to-layer="6569" to-port="1"/>
		<edge from-layer="6563" from-port="5" to-layer="6570" to-port="0"/>
		<edge from-layer="6569" from-port="2" to-layer="6570" to-port="1"/>
		<edge from-layer="6570" from-port="2" to-layer="6572" to-port="0"/>
		<edge from-layer="6571" from-port="0" to-layer="6572" to-port="1"/>
		<edge from-layer="6572" from-port="2" to-layer="6574" to-port="0"/>
		<edge from-layer="6573" from-port="0" to-layer="6574" to-port="1"/>
		<edge from-layer="6574" from-port="2" to-layer="6575" to-port="0"/>
		<edge from-layer="14" from-port="0" to-layer="6575" to-port="1"/>
		<edge from-layer="15" from-port="0" to-layer="6575" to-port="2"/>
		<edge from-layer="16" from-port="0" to-layer="6575" to-port="3"/>
		<edge from-layer="17" from-port="0" to-layer="6575" to-port="4"/>
		<edge from-layer="6574" from-port="2" to-layer="6576" to-port="0"/>
		<edge from-layer="6576" from-port="1" to-layer="6577" to-port="0"/>
		<edge from-layer="6577" from-port="1" to-layer="6579" to-port="0"/>
		<edge from-layer="6578" from-port="0" to-layer="6579" to-port="1"/>
		<edge from-layer="6579" from-port="2" to-layer="6581" to-port="0"/>
		<edge from-layer="6580" from-port="0" to-layer="6581" to-port="1"/>
		<edge from-layer="6581" from-port="2" to-layer="6582" to-port="0"/>
		<edge from-layer="6582" from-port="1" to-layer="6583" to-port="0"/>
		<edge from-layer="6583" from-port="1" to-layer="6587" to-port="0"/>
		<edge from-layer="6584" from-port="0" to-layer="6587" to-port="1"/>
		<edge from-layer="6585" from-port="0" to-layer="6587" to-port="2"/>
		<edge from-layer="6586" from-port="0" to-layer="6587" to-port="3"/>
		<edge from-layer="6575" from-port="5" to-layer="6588" to-port="0"/>
		<edge from-layer="6587" from-port="4" to-layer="6588" to-port="1"/>
		<edge from-layer="12" from-port="0" to-layer="6588" to-port="2"/>
		<edge from-layer="13" from-port="0" to-layer="6588" to-port="3"/>
		<edge from-layer="6588" from-port="4" to-layer="6589" to-port="0"/>
		<edge from-layer="8" from-port="0" to-layer="6589" to-port="1"/>
		<edge from-layer="9" from-port="0" to-layer="6589" to-port="2"/>
		<edge from-layer="10" from-port="0" to-layer="6589" to-port="3"/>
		<edge from-layer="11" from-port="0" to-layer="6589" to-port="4"/>
		<edge from-layer="6590" from-port="0" to-layer="6591" to-port="0"/>
		<edge from-layer="6591" from-port="1" to-layer="6593" to-port="0"/>
		<edge from-layer="6592" from-port="0" to-layer="6593" to-port="1"/>
		<edge from-layer="6593" from-port="2" to-layer="6595" to-port="0"/>
		<edge from-layer="6594" from-port="0" to-layer="6595" to-port="1"/>
		<edge from-layer="6589" from-port="5" to-layer="6596" to-port="0"/>
		<edge from-layer="6595" from-port="2" to-layer="6596" to-port="1"/>
		<edge from-layer="6596" from-port="2" to-layer="6598" to-port="0"/>
		<edge from-layer="6597" from-port="0" to-layer="6598" to-port="1"/>
		<edge from-layer="6598" from-port="2" to-layer="6600" to-port="0"/>
		<edge from-layer="6599" from-port="0" to-layer="6600" to-port="1"/>
		<edge from-layer="6600" from-port="2" to-layer="6601" to-port="0"/>
		<edge from-layer="4" from-port="0" to-layer="6601" to-port="1"/>
		<edge from-layer="5" from-port="0" to-layer="6601" to-port="2"/>
		<edge from-layer="6" from-port="0" to-layer="6601" to-port="3"/>
		<edge from-layer="7" from-port="0" to-layer="6601" to-port="4"/>
		<edge from-layer="6602" from-port="0" to-layer="6603" to-port="0"/>
		<edge from-layer="6603" from-port="1" to-layer="6605" to-port="0"/>
		<edge from-layer="6604" from-port="0" to-layer="6605" to-port="1"/>
		<edge from-layer="6605" from-port="2" to-layer="6607" to-port="0"/>
		<edge from-layer="6606" from-port="0" to-layer="6607" to-port="1"/>
		<edge from-layer="6601" from-port="5" to-layer="6608" to-port="0"/>
		<edge from-layer="6607" from-port="2" to-layer="6608" to-port="1"/>
		<edge from-layer="6608" from-port="2" to-layer="6610" to-port="0"/>
		<edge from-layer="6609" from-port="0" to-layer="6610" to-port="1"/>
		<edge from-layer="6610" from-port="2" to-layer="6612" to-port="0"/>
		<edge from-layer="6611" from-port="0" to-layer="6612" to-port="1"/>
		<edge from-layer="6612" from-port="2" to-layer="6613" to-port="0"/>
		<edge from-layer="0" from-port="0" to-layer="6613" to-port="1"/>
		<edge from-layer="1" from-port="0" to-layer="6613" to-port="2"/>
		<edge from-layer="2" from-port="0" to-layer="6613" to-port="3"/>
		<edge from-layer="3" from-port="0" to-layer="6613" to-port="4"/>
		<edge from-layer="6614" from-port="0" to-layer="6615" to-port="0"/>
		<edge from-layer="6615" from-port="1" to-layer="6617" to-port="0"/>
		<edge from-layer="6616" from-port="0" to-layer="6617" to-port="1"/>
		<edge from-layer="6617" from-port="2" to-layer="6619" to-port="0"/>
		<edge from-layer="6618" from-port="0" to-layer="6619" to-port="1"/>
		<edge from-layer="6613" from-port="5" to-layer="6620" to-port="0"/>
		<edge from-layer="6619" from-port="2" to-layer="6620" to-port="1"/>
		<edge from-layer="6620" from-port="2" to-layer="6622" to-port="0"/>
		<edge from-layer="6621" from-port="0" to-layer="6622" to-port="1"/>
		<edge from-layer="6622" from-port="2" to-layer="6623" to-port="0"/>
	</edges>
	<meta_data>
		<MO_version value="2021.4.2-3974-e2a469a3450-releases/2021/4"/>
		<cli_parameters>
			<caffe_parser_path value="DIR"/>
			<data_type value="float"/>
			<disable_nhwc_to_nchw value="False"/>
			<disable_omitting_optional value="False"/>
			<disable_resnet_optimization value="False"/>
			<disable_weights_compression value="False"/>
			<enable_concat_optimization value="False"/>
			<enable_flattening_nested_params value="False"/>
			<enable_ssd_gluoncv value="False"/>
			<extensions value="DIR"/>
			<framework value="onnx"/>
			<freeze_placeholder_with_value value="{}"/>
			<generate_deprecated_IR_V7 value="False"/>
			<input_model value="DIR\realesrgan-x4.onnx"/>
			<input_model_is_text value="False"/>
			<k value="DIR\CustomLayersMapping.xml"/>
			<keep_shape_ops value="True"/>
			<legacy_ir_generation value="False"/>
			<legacy_mxnet_model value="False"/>
			<log_level value="ERROR"/>
			<mean_scale_values value="{}"/>
			<mean_values value="()"/>
			<model_name value="realesrgan"/>
			<output_dir value="DIR"/>
			<placeholder_data_types value="{}"/>
			<progress value="False"/>
			<remove_memory value="False"/>
			<remove_output_softmax value="False"/>
			<reverse_input_channels value="False"/>
			<save_params_from_nd value="False"/>
			<scale_values value="()"/>
			<silent value="False"/>
			<static_shape value="False"/>
			<stream_output value="False"/>
			<transform value=""/>
			<unset unset_cli_parameters="batch, counts, disable_fusing, disable_gfusing, finegrain_fusing, input, input_checkpoint, input_meta_graph, input_proto, input_shape, input_symbol, mean_file, mean_file_offsets, move_to_preprocess, nd_prefix_name, output, placeholder_shapes, pretrained_model_name, saved_model_dir, saved_model_tags, scale, tensorboard_logdir, tensorflow_custom_layer_libraries, tensorflow_custom_operations_config_update, tensorflow_object_detection_api_pipeline_config, tensorflow_use_custom_operations_config, transformations_config"/>
		</cli_parameters>
	</meta_data>
	<quantization_parameters>
		<config/>
		<version value="{}"/>
		<cli_params value="{}"/>
	</quantization_parameters>
</net>
